program(1.0)
[buildInfo = dict<tensor<string, []>, tensor<string, []>>({{"coremlc-component-MIL", "3304.5.2"}, {"coremlc-version", "3304.6.2"}, {"coremltools-component-torch", "2.8.0+cu128"}, {"coremltools-source-dialect", "TorchScript"}, {"coremltools-version", "9.0"}})]
{
    func main<ios16>(tensor<fp16, [1, 2, ?]> audio_in) [FlexibleShapeInformation = tuple<tuple<tensor<string, []>, dict<tensor<string, []>, tensor<int32, [?]>>>, tuple<tensor<string, []>, dict<tensor<string, []>, list<tensor<int32, [2]>, ?>>>>((("DefaultShapes", {{"audio_in", [1, 2, 44100]}}), ("RangeDims", {{"audio_in", [[1, 1], [2, 2], [1024, 441000]]}})))] {
            tensor<string, []> input_1_pad_type_0 = const()[name = tensor<string, []>("input_1_pad_type_0"), val = tensor<string, []>("custom")];
            tensor<int32, [2]> input_1_pad_0 = const()[name = tensor<string, []>("input_1_pad_0"), val = tensor<int32, [2]>([3, 3])];
            tensor<int32, [1]> input_1_strides_0 = const()[name = tensor<string, []>("input_1_strides_0"), val = tensor<int32, [1]>([1])];
            tensor<int32, [1]> input_1_dilations_0 = const()[name = tensor<string, []>("input_1_dilations_0"), val = tensor<int32, [1]>([1])];
            tensor<int32, []> input_1_groups_0 = const()[name = tensor<string, []>("input_1_groups_0"), val = tensor<int32, []>(1)];
            tensor<fp16, [64, 2, 7]> input_proj_weight_to_fp16 = const()[name = tensor<string, []>("input_proj_weight_to_fp16"), val = tensor<fp16, [64, 2, 7]>(BLOBFILE(path = tensor<string, []>("@model_path/weights/weight.bin"), offset = tensor<uint64, []>(64)))];
            tensor<fp16, [64]> input_proj_bias_to_fp16 = const()[name = tensor<string, []>("input_proj_bias_to_fp16"), val = tensor<fp16, [64]>(BLOBFILE(path = tensor<string, []>("@model_path/weights/weight.bin"), offset = tensor<uint64, []>(1920)))];
            tensor<fp16, [1, 64, ?]> input_1_cast_fp16 = conv(bias = input_proj_bias_to_fp16, dilations = input_1_dilations_0, groups = input_1_groups_0, pad = input_1_pad_0, pad_type = input_1_pad_type_0, strides = input_1_strides_0, weight = input_proj_weight_to_fp16, x = audio_in)[name = tensor<string, []>("input_1_cast_fp16")];
            tensor<string, []> input_3_pad_type_0 = const()[name = tensor<string, []>("input_3_pad_type_0"), val = tensor<string, []>("custom")];
            tensor<int32, [2]> input_3_pad_0 = const()[name = tensor<string, []>("input_3_pad_0"), val = tensor<int32, [2]>([3, 3])];
            tensor<int32, [1]> input_3_strides_0 = const()[name = tensor<string, []>("input_3_strides_0"), val = tensor<int32, [1]>([1])];
            tensor<int32, [1]> input_3_dilations_0 = const()[name = tensor<string, []>("input_3_dilations_0"), val = tensor<int32, [1]>([1])];
            tensor<int32, []> input_3_groups_0 = const()[name = tensor<string, []>("input_3_groups_0"), val = tensor<int32, []>(1)];
            tensor<fp16, [64, 64, 7]> blocks_0_0_weight_to_fp16 = const()[name = tensor<string, []>("blocks_0_0_weight_to_fp16"), val = tensor<fp16, [64, 64, 7]>(BLOBFILE(path = tensor<string, []>("@model_path/weights/weight.bin"), offset = tensor<uint64, []>(2112)))];
            tensor<fp16, [64]> blocks_0_0_bias_to_fp16 = const()[name = tensor<string, []>("blocks_0_0_bias_to_fp16"), val = tensor<fp16, [64]>(BLOBFILE(path = tensor<string, []>("@model_path/weights/weight.bin"), offset = tensor<uint64, []>(59520)))];
            tensor<fp16, [1, 64, ?]> input_3_cast_fp16 = conv(bias = blocks_0_0_bias_to_fp16, dilations = input_3_dilations_0, groups = input_3_groups_0, pad = input_3_pad_0, pad_type = input_3_pad_type_0, strides = input_3_strides_0, weight = blocks_0_0_weight_to_fp16, x = input_1_cast_fp16)[name = tensor<string, []>("input_3_cast_fp16")];
            tensor<int32, [3]> shape_0_cast_fp16 = shape(x = input_3_cast_fp16)[name = tensor<string, []>("shape_0_cast_fp16")];
            tensor<int32, [4]> concat_0x = const()[name = tensor<string, []>("concat_0x"), val = tensor<int32, [4]>([1, 8, 8, -1])];
            tensor<fp16, [1, 8, 8, ?]> reshape_0_cast_fp16 = reshape(shape = concat_0x, x = input_3_cast_fp16)[name = tensor<string, []>("reshape_0_cast_fp16")];
            tensor<int32, [2]> reduce_mean_0_axes_0 = const()[name = tensor<string, []>("reduce_mean_0_axes_0"), val = tensor<int32, [2]>([2, 3])];
            tensor<bool, []> reduce_mean_0_keep_dims_0 = const()[name = tensor<string, []>("reduce_mean_0_keep_dims_0"), val = tensor<bool, []>(true)];
            tensor<fp16, [1, 8, 1, 1]> reduce_mean_0_cast_fp16 = reduce_mean(axes = reduce_mean_0_axes_0, keep_dims = reduce_mean_0_keep_dims_0, x = reshape_0_cast_fp16)[name = tensor<string, []>("reduce_mean_0_cast_fp16")];
            tensor<fp16, [1, 8, 8, ?]> sub_0_cast_fp16 = sub(x = reshape_0_cast_fp16, y = reduce_mean_0_cast_fp16)[name = tensor<string, []>("sub_0_cast_fp16")];
            tensor<fp16, [1, 8, 8, ?]> square_0_cast_fp16 = square(x = sub_0_cast_fp16)[name = tensor<string, []>("square_0_cast_fp16")];
            tensor<int32, [2]> reduce_mean_2_axes_0 = const()[name = tensor<string, []>("reduce_mean_2_axes_0"), val = tensor<int32, [2]>([2, 3])];
            tensor<bool, []> reduce_mean_2_keep_dims_0 = const()[name = tensor<string, []>("reduce_mean_2_keep_dims_0"), val = tensor<bool, []>(true)];
            tensor<fp16, [1, 8, 1, 1]> reduce_mean_2_cast_fp16 = reduce_mean(axes = reduce_mean_2_axes_0, keep_dims = reduce_mean_2_keep_dims_0, x = square_0_cast_fp16)[name = tensor<string, []>("reduce_mean_2_cast_fp16")];
            tensor<fp16, []> add_0_y_0_to_fp16 = const()[name = tensor<string, []>("add_0_y_0_to_fp16"), val = tensor<fp16, []>(0x1.5p-17)];
            tensor<fp16, [1, 8, 1, 1]> add_0_cast_fp16 = add(x = reduce_mean_2_cast_fp16, y = add_0_y_0_to_fp16)[name = tensor<string, []>("add_0_cast_fp16")];
            tensor<fp16, [1, 8, 1, 1]> sqrt_0_cast_fp16 = sqrt(x = add_0_cast_fp16)[name = tensor<string, []>("sqrt_0_cast_fp16")];
            tensor<fp16, [1, 8, 8, ?]> real_div_0_cast_fp16 = real_div(x = sub_0_cast_fp16, y = sqrt_0_cast_fp16)[name = tensor<string, []>("real_div_0_cast_fp16")];
            tensor<fp16, [1, 64, ?]> reshape_1_cast_fp16 = reshape(shape = shape_0_cast_fp16, x = real_div_0_cast_fp16)[name = tensor<string, []>("reshape_1_cast_fp16")];
            tensor<fp16, [1, 64, 1]> reshape_2_to_fp16 = const()[name = tensor<string, []>("reshape_2_to_fp16"), val = tensor<fp16, [1, 64, 1]>(BLOBFILE(path = tensor<string, []>("@model_path/weights/weight.bin"), offset = tensor<uint64, []>(59712)))];
            tensor<fp16, [1, 64, ?]> mul_0_cast_fp16 = mul(x = reshape_1_cast_fp16, y = reshape_2_to_fp16)[name = tensor<string, []>("mul_0_cast_fp16")];
            tensor<fp16, [1, 64, 1]> reshape_3_to_fp16 = const()[name = tensor<string, []>("reshape_3_to_fp16"), val = tensor<fp16, [1, 64, 1]>(BLOBFILE(path = tensor<string, []>("@model_path/weights/weight.bin"), offset = tensor<uint64, []>(59904)))];
            tensor<fp16, [1, 64, ?]> add_1_cast_fp16 = add(x = mul_0_cast_fp16, y = reshape_3_to_fp16)[name = tensor<string, []>("add_1_cast_fp16")];
            tensor<fp16, [1, 64, ?]> input_7_cast_fp16 = silu(x = add_1_cast_fp16)[name = tensor<string, []>("input_7_cast_fp16")];
            tensor<string, []> input_9_pad_type_0 = const()[name = tensor<string, []>("input_9_pad_type_0"), val = tensor<string, []>("custom")];
            tensor<int32, [2]> input_9_pad_0 = const()[name = tensor<string, []>("input_9_pad_0"), val = tensor<int32, [2]>([3, 3])];
            tensor<int32, [1]> input_9_strides_0 = const()[name = tensor<string, []>("input_9_strides_0"), val = tensor<int32, [1]>([1])];
            tensor<int32, [1]> input_9_dilations_0 = const()[name = tensor<string, []>("input_9_dilations_0"), val = tensor<int32, [1]>([1])];
            tensor<int32, []> input_9_groups_0 = const()[name = tensor<string, []>("input_9_groups_0"), val = tensor<int32, []>(1)];
            tensor<fp16, [64, 64, 7]> blocks_0_3_weight_to_fp16 = const()[name = tensor<string, []>("blocks_0_3_weight_to_fp16"), val = tensor<fp16, [64, 64, 7]>(BLOBFILE(path = tensor<string, []>("@model_path/weights/weight.bin"), offset = tensor<uint64, []>(60096)))];
            tensor<fp16, [64]> blocks_0_3_bias_to_fp16 = const()[name = tensor<string, []>("blocks_0_3_bias_to_fp16"), val = tensor<fp16, [64]>(BLOBFILE(path = tensor<string, []>("@model_path/weights/weight.bin"), offset = tensor<uint64, []>(117504)))];
            tensor<fp16, [1, 64, ?]> input_9_cast_fp16 = conv(bias = blocks_0_3_bias_to_fp16, dilations = input_9_dilations_0, groups = input_9_groups_0, pad = input_9_pad_0, pad_type = input_9_pad_type_0, strides = input_9_strides_0, weight = blocks_0_3_weight_to_fp16, x = input_7_cast_fp16)[name = tensor<string, []>("input_9_cast_fp16")];
            tensor<int32, [3]> shape_1_cast_fp16 = shape(x = input_9_cast_fp16)[name = tensor<string, []>("shape_1_cast_fp16")];
            tensor<int32, [4]> concat_1x = const()[name = tensor<string, []>("concat_1x"), val = tensor<int32, [4]>([1, 8, 8, -1])];
            tensor<fp16, [1, 8, 8, ?]> reshape_4_cast_fp16 = reshape(shape = concat_1x, x = input_9_cast_fp16)[name = tensor<string, []>("reshape_4_cast_fp16")];
            tensor<int32, [2]> reduce_mean_3_axes_0 = const()[name = tensor<string, []>("reduce_mean_3_axes_0"), val = tensor<int32, [2]>([2, 3])];
            tensor<bool, []> reduce_mean_3_keep_dims_0 = const()[name = tensor<string, []>("reduce_mean_3_keep_dims_0"), val = tensor<bool, []>(true)];
            tensor<fp16, [1, 8, 1, 1]> reduce_mean_3_cast_fp16 = reduce_mean(axes = reduce_mean_3_axes_0, keep_dims = reduce_mean_3_keep_dims_0, x = reshape_4_cast_fp16)[name = tensor<string, []>("reduce_mean_3_cast_fp16")];
            tensor<fp16, [1, 8, 8, ?]> sub_2_cast_fp16 = sub(x = reshape_4_cast_fp16, y = reduce_mean_3_cast_fp16)[name = tensor<string, []>("sub_2_cast_fp16")];
            tensor<fp16, [1, 8, 8, ?]> square_1_cast_fp16 = square(x = sub_2_cast_fp16)[name = tensor<string, []>("square_1_cast_fp16")];
            tensor<int32, [2]> reduce_mean_5_axes_0 = const()[name = tensor<string, []>("reduce_mean_5_axes_0"), val = tensor<int32, [2]>([2, 3])];
            tensor<bool, []> reduce_mean_5_keep_dims_0 = const()[name = tensor<string, []>("reduce_mean_5_keep_dims_0"), val = tensor<bool, []>(true)];
            tensor<fp16, [1, 8, 1, 1]> reduce_mean_5_cast_fp16 = reduce_mean(axes = reduce_mean_5_axes_0, keep_dims = reduce_mean_5_keep_dims_0, x = square_1_cast_fp16)[name = tensor<string, []>("reduce_mean_5_cast_fp16")];
            tensor<fp16, []> add_2_y_0_to_fp16 = const()[name = tensor<string, []>("add_2_y_0_to_fp16"), val = tensor<fp16, []>(0x1.5p-17)];
            tensor<fp16, [1, 8, 1, 1]> add_2_cast_fp16 = add(x = reduce_mean_5_cast_fp16, y = add_2_y_0_to_fp16)[name = tensor<string, []>("add_2_cast_fp16")];
            tensor<fp16, [1, 8, 1, 1]> sqrt_1_cast_fp16 = sqrt(x = add_2_cast_fp16)[name = tensor<string, []>("sqrt_1_cast_fp16")];
            tensor<fp16, [1, 8, 8, ?]> real_div_1_cast_fp16 = real_div(x = sub_2_cast_fp16, y = sqrt_1_cast_fp16)[name = tensor<string, []>("real_div_1_cast_fp16")];
            tensor<fp16, [1, 64, ?]> reshape_5_cast_fp16 = reshape(shape = shape_1_cast_fp16, x = real_div_1_cast_fp16)[name = tensor<string, []>("reshape_5_cast_fp16")];
            tensor<fp16, [1, 64, 1]> reshape_6_to_fp16 = const()[name = tensor<string, []>("reshape_6_to_fp16"), val = tensor<fp16, [1, 64, 1]>(BLOBFILE(path = tensor<string, []>("@model_path/weights/weight.bin"), offset = tensor<uint64, []>(117696)))];
            tensor<fp16, [1, 64, ?]> mul_1_cast_fp16 = mul(x = reshape_5_cast_fp16, y = reshape_6_to_fp16)[name = tensor<string, []>("mul_1_cast_fp16")];
            tensor<fp16, [1, 64, 1]> reshape_7_to_fp16 = const()[name = tensor<string, []>("reshape_7_to_fp16"), val = tensor<fp16, [1, 64, 1]>(BLOBFILE(path = tensor<string, []>("@model_path/weights/weight.bin"), offset = tensor<uint64, []>(117888)))];
            tensor<fp16, [1, 64, ?]> add_3_cast_fp16 = add(x = mul_1_cast_fp16, y = reshape_7_to_fp16)[name = tensor<string, []>("add_3_cast_fp16")];
            tensor<fp16, [1, 64, ?]> input_11_cast_fp16 = add(x = input_1_cast_fp16, y = add_3_cast_fp16)[name = tensor<string, []>("input_11_cast_fp16")];
            tensor<string, []> input_13_pad_type_0 = const()[name = tensor<string, []>("input_13_pad_type_0"), val = tensor<string, []>("custom")];
            tensor<int32, [2]> input_13_pad_0 = const()[name = tensor<string, []>("input_13_pad_0"), val = tensor<int32, [2]>([6, 6])];
            tensor<int32, [1]> input_13_dilations_0 = const()[name = tensor<string, []>("input_13_dilations_0"), val = tensor<int32, [1]>([2])];
            tensor<int32, [1]> input_13_strides_0 = const()[name = tensor<string, []>("input_13_strides_0"), val = tensor<int32, [1]>([1])];
            tensor<int32, []> input_13_groups_0 = const()[name = tensor<string, []>("input_13_groups_0"), val = tensor<int32, []>(1)];
            tensor<fp16, [64, 64, 7]> blocks_1_0_weight_to_fp16 = const()[name = tensor<string, []>("blocks_1_0_weight_to_fp16"), val = tensor<fp16, [64, 64, 7]>(BLOBFILE(path = tensor<string, []>("@model_path/weights/weight.bin"), offset = tensor<uint64, []>(118080)))];
            tensor<fp16, [64]> blocks_1_0_bias_to_fp16 = const()[name = tensor<string, []>("blocks_1_0_bias_to_fp16"), val = tensor<fp16, [64]>(BLOBFILE(path = tensor<string, []>("@model_path/weights/weight.bin"), offset = tensor<uint64, []>(175488)))];
            tensor<fp16, [1, 64, ?]> input_13_cast_fp16 = conv(bias = blocks_1_0_bias_to_fp16, dilations = input_13_dilations_0, groups = input_13_groups_0, pad = input_13_pad_0, pad_type = input_13_pad_type_0, strides = input_13_strides_0, weight = blocks_1_0_weight_to_fp16, x = input_11_cast_fp16)[name = tensor<string, []>("input_13_cast_fp16")];
            tensor<int32, [3]> shape_2_cast_fp16 = shape(x = input_13_cast_fp16)[name = tensor<string, []>("shape_2_cast_fp16")];
            tensor<int32, [4]> concat_2x = const()[name = tensor<string, []>("concat_2x"), val = tensor<int32, [4]>([1, 8, 8, -1])];
            tensor<fp16, [1, 8, 8, ?]> reshape_8_cast_fp16 = reshape(shape = concat_2x, x = input_13_cast_fp16)[name = tensor<string, []>("reshape_8_cast_fp16")];
            tensor<int32, [2]> reduce_mean_6_axes_0 = const()[name = tensor<string, []>("reduce_mean_6_axes_0"), val = tensor<int32, [2]>([2, 3])];
            tensor<bool, []> reduce_mean_6_keep_dims_0 = const()[name = tensor<string, []>("reduce_mean_6_keep_dims_0"), val = tensor<bool, []>(true)];
            tensor<fp16, [1, 8, 1, 1]> reduce_mean_6_cast_fp16 = reduce_mean(axes = reduce_mean_6_axes_0, keep_dims = reduce_mean_6_keep_dims_0, x = reshape_8_cast_fp16)[name = tensor<string, []>("reduce_mean_6_cast_fp16")];
            tensor<fp16, [1, 8, 8, ?]> sub_4_cast_fp16 = sub(x = reshape_8_cast_fp16, y = reduce_mean_6_cast_fp16)[name = tensor<string, []>("sub_4_cast_fp16")];
            tensor<fp16, [1, 8, 8, ?]> square_2_cast_fp16 = square(x = sub_4_cast_fp16)[name = tensor<string, []>("square_2_cast_fp16")];
            tensor<int32, [2]> reduce_mean_8_axes_0 = const()[name = tensor<string, []>("reduce_mean_8_axes_0"), val = tensor<int32, [2]>([2, 3])];
            tensor<bool, []> reduce_mean_8_keep_dims_0 = const()[name = tensor<string, []>("reduce_mean_8_keep_dims_0"), val = tensor<bool, []>(true)];
            tensor<fp16, [1, 8, 1, 1]> reduce_mean_8_cast_fp16 = reduce_mean(axes = reduce_mean_8_axes_0, keep_dims = reduce_mean_8_keep_dims_0, x = square_2_cast_fp16)[name = tensor<string, []>("reduce_mean_8_cast_fp16")];
            tensor<fp16, []> add_4_y_0_to_fp16 = const()[name = tensor<string, []>("add_4_y_0_to_fp16"), val = tensor<fp16, []>(0x1.5p-17)];
            tensor<fp16, [1, 8, 1, 1]> add_4_cast_fp16 = add(x = reduce_mean_8_cast_fp16, y = add_4_y_0_to_fp16)[name = tensor<string, []>("add_4_cast_fp16")];
            tensor<fp16, [1, 8, 1, 1]> sqrt_2_cast_fp16 = sqrt(x = add_4_cast_fp16)[name = tensor<string, []>("sqrt_2_cast_fp16")];
            tensor<fp16, [1, 8, 8, ?]> real_div_2_cast_fp16 = real_div(x = sub_4_cast_fp16, y = sqrt_2_cast_fp16)[name = tensor<string, []>("real_div_2_cast_fp16")];
            tensor<fp16, [1, 64, ?]> reshape_9_cast_fp16 = reshape(shape = shape_2_cast_fp16, x = real_div_2_cast_fp16)[name = tensor<string, []>("reshape_9_cast_fp16")];
            tensor<fp16, [1, 64, 1]> reshape_10_to_fp16 = const()[name = tensor<string, []>("reshape_10_to_fp16"), val = tensor<fp16, [1, 64, 1]>(BLOBFILE(path = tensor<string, []>("@model_path/weights/weight.bin"), offset = tensor<uint64, []>(175680)))];
            tensor<fp16, [1, 64, ?]> mul_2_cast_fp16 = mul(x = reshape_9_cast_fp16, y = reshape_10_to_fp16)[name = tensor<string, []>("mul_2_cast_fp16")];
            tensor<fp16, [1, 64, 1]> reshape_11_to_fp16 = const()[name = tensor<string, []>("reshape_11_to_fp16"), val = tensor<fp16, [1, 64, 1]>(BLOBFILE(path = tensor<string, []>("@model_path/weights/weight.bin"), offset = tensor<uint64, []>(175872)))];
            tensor<fp16, [1, 64, ?]> add_5_cast_fp16 = add(x = mul_2_cast_fp16, y = reshape_11_to_fp16)[name = tensor<string, []>("add_5_cast_fp16")];
            tensor<fp16, [1, 64, ?]> input_17_cast_fp16 = silu(x = add_5_cast_fp16)[name = tensor<string, []>("input_17_cast_fp16")];
            tensor<string, []> input_19_pad_type_0 = const()[name = tensor<string, []>("input_19_pad_type_0"), val = tensor<string, []>("custom")];
            tensor<int32, [2]> input_19_pad_0 = const()[name = tensor<string, []>("input_19_pad_0"), val = tensor<int32, [2]>([6, 6])];
            tensor<int32, [1]> input_19_dilations_0 = const()[name = tensor<string, []>("input_19_dilations_0"), val = tensor<int32, [1]>([2])];
            tensor<int32, [1]> input_19_strides_0 = const()[name = tensor<string, []>("input_19_strides_0"), val = tensor<int32, [1]>([1])];
            tensor<int32, []> input_19_groups_0 = const()[name = tensor<string, []>("input_19_groups_0"), val = tensor<int32, []>(1)];
            tensor<fp16, [64, 64, 7]> blocks_1_3_weight_to_fp16 = const()[name = tensor<string, []>("blocks_1_3_weight_to_fp16"), val = tensor<fp16, [64, 64, 7]>(BLOBFILE(path = tensor<string, []>("@model_path/weights/weight.bin"), offset = tensor<uint64, []>(176064)))];
            tensor<fp16, [64]> blocks_1_3_bias_to_fp16 = const()[name = tensor<string, []>("blocks_1_3_bias_to_fp16"), val = tensor<fp16, [64]>(BLOBFILE(path = tensor<string, []>("@model_path/weights/weight.bin"), offset = tensor<uint64, []>(233472)))];
            tensor<fp16, [1, 64, ?]> input_19_cast_fp16 = conv(bias = blocks_1_3_bias_to_fp16, dilations = input_19_dilations_0, groups = input_19_groups_0, pad = input_19_pad_0, pad_type = input_19_pad_type_0, strides = input_19_strides_0, weight = blocks_1_3_weight_to_fp16, x = input_17_cast_fp16)[name = tensor<string, []>("input_19_cast_fp16")];
            tensor<int32, [3]> shape_3_cast_fp16 = shape(x = input_19_cast_fp16)[name = tensor<string, []>("shape_3_cast_fp16")];
            tensor<int32, [4]> concat_3x = const()[name = tensor<string, []>("concat_3x"), val = tensor<int32, [4]>([1, 8, 8, -1])];
            tensor<fp16, [1, 8, 8, ?]> reshape_12_cast_fp16 = reshape(shape = concat_3x, x = input_19_cast_fp16)[name = tensor<string, []>("reshape_12_cast_fp16")];
            tensor<int32, [2]> reduce_mean_9_axes_0 = const()[name = tensor<string, []>("reduce_mean_9_axes_0"), val = tensor<int32, [2]>([2, 3])];
            tensor<bool, []> reduce_mean_9_keep_dims_0 = const()[name = tensor<string, []>("reduce_mean_9_keep_dims_0"), val = tensor<bool, []>(true)];
            tensor<fp16, [1, 8, 1, 1]> reduce_mean_9_cast_fp16 = reduce_mean(axes = reduce_mean_9_axes_0, keep_dims = reduce_mean_9_keep_dims_0, x = reshape_12_cast_fp16)[name = tensor<string, []>("reduce_mean_9_cast_fp16")];
            tensor<fp16, [1, 8, 8, ?]> sub_6_cast_fp16 = sub(x = reshape_12_cast_fp16, y = reduce_mean_9_cast_fp16)[name = tensor<string, []>("sub_6_cast_fp16")];
            tensor<fp16, [1, 8, 8, ?]> square_3_cast_fp16 = square(x = sub_6_cast_fp16)[name = tensor<string, []>("square_3_cast_fp16")];
            tensor<int32, [2]> reduce_mean_11_axes_0 = const()[name = tensor<string, []>("reduce_mean_11_axes_0"), val = tensor<int32, [2]>([2, 3])];
            tensor<bool, []> reduce_mean_11_keep_dims_0 = const()[name = tensor<string, []>("reduce_mean_11_keep_dims_0"), val = tensor<bool, []>(true)];
            tensor<fp16, [1, 8, 1, 1]> reduce_mean_11_cast_fp16 = reduce_mean(axes = reduce_mean_11_axes_0, keep_dims = reduce_mean_11_keep_dims_0, x = square_3_cast_fp16)[name = tensor<string, []>("reduce_mean_11_cast_fp16")];
            tensor<fp16, []> add_6_y_0_to_fp16 = const()[name = tensor<string, []>("add_6_y_0_to_fp16"), val = tensor<fp16, []>(0x1.5p-17)];
            tensor<fp16, [1, 8, 1, 1]> add_6_cast_fp16 = add(x = reduce_mean_11_cast_fp16, y = add_6_y_0_to_fp16)[name = tensor<string, []>("add_6_cast_fp16")];
            tensor<fp16, [1, 8, 1, 1]> sqrt_3_cast_fp16 = sqrt(x = add_6_cast_fp16)[name = tensor<string, []>("sqrt_3_cast_fp16")];
            tensor<fp16, [1, 8, 8, ?]> real_div_3_cast_fp16 = real_div(x = sub_6_cast_fp16, y = sqrt_3_cast_fp16)[name = tensor<string, []>("real_div_3_cast_fp16")];
            tensor<fp16, [1, 64, ?]> reshape_13_cast_fp16 = reshape(shape = shape_3_cast_fp16, x = real_div_3_cast_fp16)[name = tensor<string, []>("reshape_13_cast_fp16")];
            tensor<fp16, [1, 64, 1]> reshape_14_to_fp16 = const()[name = tensor<string, []>("reshape_14_to_fp16"), val = tensor<fp16, [1, 64, 1]>(BLOBFILE(path = tensor<string, []>("@model_path/weights/weight.bin"), offset = tensor<uint64, []>(233664)))];
            tensor<fp16, [1, 64, ?]> mul_3_cast_fp16 = mul(x = reshape_13_cast_fp16, y = reshape_14_to_fp16)[name = tensor<string, []>("mul_3_cast_fp16")];
            tensor<fp16, [1, 64, 1]> reshape_15_to_fp16 = const()[name = tensor<string, []>("reshape_15_to_fp16"), val = tensor<fp16, [1, 64, 1]>(BLOBFILE(path = tensor<string, []>("@model_path/weights/weight.bin"), offset = tensor<uint64, []>(233856)))];
            tensor<fp16, [1, 64, ?]> add_7_cast_fp16 = add(x = mul_3_cast_fp16, y = reshape_15_to_fp16)[name = tensor<string, []>("add_7_cast_fp16")];
            tensor<fp16, [1, 64, ?]> input_21_cast_fp16 = add(x = input_11_cast_fp16, y = add_7_cast_fp16)[name = tensor<string, []>("input_21_cast_fp16")];
            tensor<string, []> input_23_pad_type_0 = const()[name = tensor<string, []>("input_23_pad_type_0"), val = tensor<string, []>("custom")];
            tensor<int32, [2]> input_23_pad_0 = const()[name = tensor<string, []>("input_23_pad_0"), val = tensor<int32, [2]>([12, 12])];
            tensor<int32, [1]> input_23_dilations_0 = const()[name = tensor<string, []>("input_23_dilations_0"), val = tensor<int32, [1]>([4])];
            tensor<int32, [1]> input_23_strides_0 = const()[name = tensor<string, []>("input_23_strides_0"), val = tensor<int32, [1]>([1])];
            tensor<int32, []> input_23_groups_0 = const()[name = tensor<string, []>("input_23_groups_0"), val = tensor<int32, []>(1)];
            tensor<fp16, [64, 64, 7]> blocks_2_0_weight_to_fp16 = const()[name = tensor<string, []>("blocks_2_0_weight_to_fp16"), val = tensor<fp16, [64, 64, 7]>(BLOBFILE(path = tensor<string, []>("@model_path/weights/weight.bin"), offset = tensor<uint64, []>(234048)))];
            tensor<fp16, [64]> blocks_2_0_bias_to_fp16 = const()[name = tensor<string, []>("blocks_2_0_bias_to_fp16"), val = tensor<fp16, [64]>(BLOBFILE(path = tensor<string, []>("@model_path/weights/weight.bin"), offset = tensor<uint64, []>(291456)))];
            tensor<fp16, [1, 64, ?]> input_23_cast_fp16 = conv(bias = blocks_2_0_bias_to_fp16, dilations = input_23_dilations_0, groups = input_23_groups_0, pad = input_23_pad_0, pad_type = input_23_pad_type_0, strides = input_23_strides_0, weight = blocks_2_0_weight_to_fp16, x = input_21_cast_fp16)[name = tensor<string, []>("input_23_cast_fp16")];
            tensor<int32, [3]> shape_4_cast_fp16 = shape(x = input_23_cast_fp16)[name = tensor<string, []>("shape_4_cast_fp16")];
            tensor<int32, [4]> concat_4x = const()[name = tensor<string, []>("concat_4x"), val = tensor<int32, [4]>([1, 8, 8, -1])];
            tensor<fp16, [1, 8, 8, ?]> reshape_16_cast_fp16 = reshape(shape = concat_4x, x = input_23_cast_fp16)[name = tensor<string, []>("reshape_16_cast_fp16")];
            tensor<int32, [2]> reduce_mean_12_axes_0 = const()[name = tensor<string, []>("reduce_mean_12_axes_0"), val = tensor<int32, [2]>([2, 3])];
            tensor<bool, []> reduce_mean_12_keep_dims_0 = const()[name = tensor<string, []>("reduce_mean_12_keep_dims_0"), val = tensor<bool, []>(true)];
            tensor<fp16, [1, 8, 1, 1]> reduce_mean_12_cast_fp16 = reduce_mean(axes = reduce_mean_12_axes_0, keep_dims = reduce_mean_12_keep_dims_0, x = reshape_16_cast_fp16)[name = tensor<string, []>("reduce_mean_12_cast_fp16")];
            tensor<fp16, [1, 8, 8, ?]> sub_8_cast_fp16 = sub(x = reshape_16_cast_fp16, y = reduce_mean_12_cast_fp16)[name = tensor<string, []>("sub_8_cast_fp16")];
            tensor<fp16, [1, 8, 8, ?]> square_4_cast_fp16 = square(x = sub_8_cast_fp16)[name = tensor<string, []>("square_4_cast_fp16")];
            tensor<int32, [2]> reduce_mean_14_axes_0 = const()[name = tensor<string, []>("reduce_mean_14_axes_0"), val = tensor<int32, [2]>([2, 3])];
            tensor<bool, []> reduce_mean_14_keep_dims_0 = const()[name = tensor<string, []>("reduce_mean_14_keep_dims_0"), val = tensor<bool, []>(true)];
            tensor<fp16, [1, 8, 1, 1]> reduce_mean_14_cast_fp16 = reduce_mean(axes = reduce_mean_14_axes_0, keep_dims = reduce_mean_14_keep_dims_0, x = square_4_cast_fp16)[name = tensor<string, []>("reduce_mean_14_cast_fp16")];
            tensor<fp16, []> add_8_y_0_to_fp16 = const()[name = tensor<string, []>("add_8_y_0_to_fp16"), val = tensor<fp16, []>(0x1.5p-17)];
            tensor<fp16, [1, 8, 1, 1]> add_8_cast_fp16 = add(x = reduce_mean_14_cast_fp16, y = add_8_y_0_to_fp16)[name = tensor<string, []>("add_8_cast_fp16")];
            tensor<fp16, [1, 8, 1, 1]> sqrt_4_cast_fp16 = sqrt(x = add_8_cast_fp16)[name = tensor<string, []>("sqrt_4_cast_fp16")];
            tensor<fp16, [1, 8, 8, ?]> real_div_4_cast_fp16 = real_div(x = sub_8_cast_fp16, y = sqrt_4_cast_fp16)[name = tensor<string, []>("real_div_4_cast_fp16")];
            tensor<fp16, [1, 64, ?]> reshape_17_cast_fp16 = reshape(shape = shape_4_cast_fp16, x = real_div_4_cast_fp16)[name = tensor<string, []>("reshape_17_cast_fp16")];
            tensor<fp16, [1, 64, 1]> reshape_18_to_fp16 = const()[name = tensor<string, []>("reshape_18_to_fp16"), val = tensor<fp16, [1, 64, 1]>(BLOBFILE(path = tensor<string, []>("@model_path/weights/weight.bin"), offset = tensor<uint64, []>(291648)))];
            tensor<fp16, [1, 64, ?]> mul_4_cast_fp16 = mul(x = reshape_17_cast_fp16, y = reshape_18_to_fp16)[name = tensor<string, []>("mul_4_cast_fp16")];
            tensor<fp16, [1, 64, 1]> reshape_19_to_fp16 = const()[name = tensor<string, []>("reshape_19_to_fp16"), val = tensor<fp16, [1, 64, 1]>(BLOBFILE(path = tensor<string, []>("@model_path/weights/weight.bin"), offset = tensor<uint64, []>(291840)))];
            tensor<fp16, [1, 64, ?]> add_9_cast_fp16 = add(x = mul_4_cast_fp16, y = reshape_19_to_fp16)[name = tensor<string, []>("add_9_cast_fp16")];
            tensor<fp16, [1, 64, ?]> input_27_cast_fp16 = silu(x = add_9_cast_fp16)[name = tensor<string, []>("input_27_cast_fp16")];
            tensor<string, []> input_29_pad_type_0 = const()[name = tensor<string, []>("input_29_pad_type_0"), val = tensor<string, []>("custom")];
            tensor<int32, [2]> input_29_pad_0 = const()[name = tensor<string, []>("input_29_pad_0"), val = tensor<int32, [2]>([12, 12])];
            tensor<int32, [1]> input_29_dilations_0 = const()[name = tensor<string, []>("input_29_dilations_0"), val = tensor<int32, [1]>([4])];
            tensor<int32, [1]> input_29_strides_0 = const()[name = tensor<string, []>("input_29_strides_0"), val = tensor<int32, [1]>([1])];
            tensor<int32, []> input_29_groups_0 = const()[name = tensor<string, []>("input_29_groups_0"), val = tensor<int32, []>(1)];
            tensor<fp16, [64, 64, 7]> blocks_2_3_weight_to_fp16 = const()[name = tensor<string, []>("blocks_2_3_weight_to_fp16"), val = tensor<fp16, [64, 64, 7]>(BLOBFILE(path = tensor<string, []>("@model_path/weights/weight.bin"), offset = tensor<uint64, []>(292032)))];
            tensor<fp16, [64]> blocks_2_3_bias_to_fp16 = const()[name = tensor<string, []>("blocks_2_3_bias_to_fp16"), val = tensor<fp16, [64]>(BLOBFILE(path = tensor<string, []>("@model_path/weights/weight.bin"), offset = tensor<uint64, []>(349440)))];
            tensor<fp16, [1, 64, ?]> input_29_cast_fp16 = conv(bias = blocks_2_3_bias_to_fp16, dilations = input_29_dilations_0, groups = input_29_groups_0, pad = input_29_pad_0, pad_type = input_29_pad_type_0, strides = input_29_strides_0, weight = blocks_2_3_weight_to_fp16, x = input_27_cast_fp16)[name = tensor<string, []>("input_29_cast_fp16")];
            tensor<int32, [3]> shape_5_cast_fp16 = shape(x = input_29_cast_fp16)[name = tensor<string, []>("shape_5_cast_fp16")];
            tensor<int32, [4]> concat_5x = const()[name = tensor<string, []>("concat_5x"), val = tensor<int32, [4]>([1, 8, 8, -1])];
            tensor<fp16, [1, 8, 8, ?]> reshape_20_cast_fp16 = reshape(shape = concat_5x, x = input_29_cast_fp16)[name = tensor<string, []>("reshape_20_cast_fp16")];
            tensor<int32, [2]> reduce_mean_15_axes_0 = const()[name = tensor<string, []>("reduce_mean_15_axes_0"), val = tensor<int32, [2]>([2, 3])];
            tensor<bool, []> reduce_mean_15_keep_dims_0 = const()[name = tensor<string, []>("reduce_mean_15_keep_dims_0"), val = tensor<bool, []>(true)];
            tensor<fp16, [1, 8, 1, 1]> reduce_mean_15_cast_fp16 = reduce_mean(axes = reduce_mean_15_axes_0, keep_dims = reduce_mean_15_keep_dims_0, x = reshape_20_cast_fp16)[name = tensor<string, []>("reduce_mean_15_cast_fp16")];
            tensor<fp16, [1, 8, 8, ?]> sub_10_cast_fp16 = sub(x = reshape_20_cast_fp16, y = reduce_mean_15_cast_fp16)[name = tensor<string, []>("sub_10_cast_fp16")];
            tensor<fp16, [1, 8, 8, ?]> square_5_cast_fp16 = square(x = sub_10_cast_fp16)[name = tensor<string, []>("square_5_cast_fp16")];
            tensor<int32, [2]> reduce_mean_17_axes_0 = const()[name = tensor<string, []>("reduce_mean_17_axes_0"), val = tensor<int32, [2]>([2, 3])];
            tensor<bool, []> reduce_mean_17_keep_dims_0 = const()[name = tensor<string, []>("reduce_mean_17_keep_dims_0"), val = tensor<bool, []>(true)];
            tensor<fp16, [1, 8, 1, 1]> reduce_mean_17_cast_fp16 = reduce_mean(axes = reduce_mean_17_axes_0, keep_dims = reduce_mean_17_keep_dims_0, x = square_5_cast_fp16)[name = tensor<string, []>("reduce_mean_17_cast_fp16")];
            tensor<fp16, []> add_10_y_0_to_fp16 = const()[name = tensor<string, []>("add_10_y_0_to_fp16"), val = tensor<fp16, []>(0x1.5p-17)];
            tensor<fp16, [1, 8, 1, 1]> add_10_cast_fp16 = add(x = reduce_mean_17_cast_fp16, y = add_10_y_0_to_fp16)[name = tensor<string, []>("add_10_cast_fp16")];
            tensor<fp16, [1, 8, 1, 1]> sqrt_5_cast_fp16 = sqrt(x = add_10_cast_fp16)[name = tensor<string, []>("sqrt_5_cast_fp16")];
            tensor<fp16, [1, 8, 8, ?]> real_div_5_cast_fp16 = real_div(x = sub_10_cast_fp16, y = sqrt_5_cast_fp16)[name = tensor<string, []>("real_div_5_cast_fp16")];
            tensor<fp16, [1, 64, ?]> reshape_21_cast_fp16 = reshape(shape = shape_5_cast_fp16, x = real_div_5_cast_fp16)[name = tensor<string, []>("reshape_21_cast_fp16")];
            tensor<fp16, [1, 64, 1]> reshape_22_to_fp16 = const()[name = tensor<string, []>("reshape_22_to_fp16"), val = tensor<fp16, [1, 64, 1]>(BLOBFILE(path = tensor<string, []>("@model_path/weights/weight.bin"), offset = tensor<uint64, []>(349632)))];
            tensor<fp16, [1, 64, ?]> mul_5_cast_fp16 = mul(x = reshape_21_cast_fp16, y = reshape_22_to_fp16)[name = tensor<string, []>("mul_5_cast_fp16")];
            tensor<fp16, [1, 64, 1]> reshape_23_to_fp16 = const()[name = tensor<string, []>("reshape_23_to_fp16"), val = tensor<fp16, [1, 64, 1]>(BLOBFILE(path = tensor<string, []>("@model_path/weights/weight.bin"), offset = tensor<uint64, []>(349824)))];
            tensor<fp16, [1, 64, ?]> add_11_cast_fp16 = add(x = mul_5_cast_fp16, y = reshape_23_to_fp16)[name = tensor<string, []>("add_11_cast_fp16")];
            tensor<fp16, [1, 64, ?]> input_31_cast_fp16 = add(x = input_21_cast_fp16, y = add_11_cast_fp16)[name = tensor<string, []>("input_31_cast_fp16")];
            tensor<string, []> input_33_pad_type_0 = const()[name = tensor<string, []>("input_33_pad_type_0"), val = tensor<string, []>("custom")];
            tensor<int32, [2]> input_33_pad_0 = const()[name = tensor<string, []>("input_33_pad_0"), val = tensor<int32, [2]>([24, 24])];
            tensor<int32, [1]> input_33_dilations_0 = const()[name = tensor<string, []>("input_33_dilations_0"), val = tensor<int32, [1]>([8])];
            tensor<int32, [1]> input_33_strides_0 = const()[name = tensor<string, []>("input_33_strides_0"), val = tensor<int32, [1]>([1])];
            tensor<int32, []> input_33_groups_0 = const()[name = tensor<string, []>("input_33_groups_0"), val = tensor<int32, []>(1)];
            tensor<fp16, [64, 64, 7]> blocks_3_0_weight_to_fp16 = const()[name = tensor<string, []>("blocks_3_0_weight_to_fp16"), val = tensor<fp16, [64, 64, 7]>(BLOBFILE(path = tensor<string, []>("@model_path/weights/weight.bin"), offset = tensor<uint64, []>(350016)))];
            tensor<fp16, [64]> blocks_3_0_bias_to_fp16 = const()[name = tensor<string, []>("blocks_3_0_bias_to_fp16"), val = tensor<fp16, [64]>(BLOBFILE(path = tensor<string, []>("@model_path/weights/weight.bin"), offset = tensor<uint64, []>(407424)))];
            tensor<fp16, [1, 64, ?]> input_33_cast_fp16 = conv(bias = blocks_3_0_bias_to_fp16, dilations = input_33_dilations_0, groups = input_33_groups_0, pad = input_33_pad_0, pad_type = input_33_pad_type_0, strides = input_33_strides_0, weight = blocks_3_0_weight_to_fp16, x = input_31_cast_fp16)[name = tensor<string, []>("input_33_cast_fp16")];
            tensor<int32, [3]> shape_6_cast_fp16 = shape(x = input_33_cast_fp16)[name = tensor<string, []>("shape_6_cast_fp16")];
            tensor<int32, [4]> concat_6x = const()[name = tensor<string, []>("concat_6x"), val = tensor<int32, [4]>([1, 8, 8, -1])];
            tensor<fp16, [1, 8, 8, ?]> reshape_24_cast_fp16 = reshape(shape = concat_6x, x = input_33_cast_fp16)[name = tensor<string, []>("reshape_24_cast_fp16")];
            tensor<int32, [2]> reduce_mean_18_axes_0 = const()[name = tensor<string, []>("reduce_mean_18_axes_0"), val = tensor<int32, [2]>([2, 3])];
            tensor<bool, []> reduce_mean_18_keep_dims_0 = const()[name = tensor<string, []>("reduce_mean_18_keep_dims_0"), val = tensor<bool, []>(true)];
            tensor<fp16, [1, 8, 1, 1]> reduce_mean_18_cast_fp16 = reduce_mean(axes = reduce_mean_18_axes_0, keep_dims = reduce_mean_18_keep_dims_0, x = reshape_24_cast_fp16)[name = tensor<string, []>("reduce_mean_18_cast_fp16")];
            tensor<fp16, [1, 8, 8, ?]> sub_12_cast_fp16 = sub(x = reshape_24_cast_fp16, y = reduce_mean_18_cast_fp16)[name = tensor<string, []>("sub_12_cast_fp16")];
            tensor<fp16, [1, 8, 8, ?]> square_6_cast_fp16 = square(x = sub_12_cast_fp16)[name = tensor<string, []>("square_6_cast_fp16")];
            tensor<int32, [2]> reduce_mean_20_axes_0 = const()[name = tensor<string, []>("reduce_mean_20_axes_0"), val = tensor<int32, [2]>([2, 3])];
            tensor<bool, []> reduce_mean_20_keep_dims_0 = const()[name = tensor<string, []>("reduce_mean_20_keep_dims_0"), val = tensor<bool, []>(true)];
            tensor<fp16, [1, 8, 1, 1]> reduce_mean_20_cast_fp16 = reduce_mean(axes = reduce_mean_20_axes_0, keep_dims = reduce_mean_20_keep_dims_0, x = square_6_cast_fp16)[name = tensor<string, []>("reduce_mean_20_cast_fp16")];
            tensor<fp16, []> add_12_y_0_to_fp16 = const()[name = tensor<string, []>("add_12_y_0_to_fp16"), val = tensor<fp16, []>(0x1.5p-17)];
            tensor<fp16, [1, 8, 1, 1]> add_12_cast_fp16 = add(x = reduce_mean_20_cast_fp16, y = add_12_y_0_to_fp16)[name = tensor<string, []>("add_12_cast_fp16")];
            tensor<fp16, [1, 8, 1, 1]> sqrt_6_cast_fp16 = sqrt(x = add_12_cast_fp16)[name = tensor<string, []>("sqrt_6_cast_fp16")];
            tensor<fp16, [1, 8, 8, ?]> real_div_6_cast_fp16 = real_div(x = sub_12_cast_fp16, y = sqrt_6_cast_fp16)[name = tensor<string, []>("real_div_6_cast_fp16")];
            tensor<fp16, [1, 64, ?]> reshape_25_cast_fp16 = reshape(shape = shape_6_cast_fp16, x = real_div_6_cast_fp16)[name = tensor<string, []>("reshape_25_cast_fp16")];
            tensor<fp16, [1, 64, 1]> reshape_26_to_fp16 = const()[name = tensor<string, []>("reshape_26_to_fp16"), val = tensor<fp16, [1, 64, 1]>(BLOBFILE(path = tensor<string, []>("@model_path/weights/weight.bin"), offset = tensor<uint64, []>(407616)))];
            tensor<fp16, [1, 64, ?]> mul_6_cast_fp16 = mul(x = reshape_25_cast_fp16, y = reshape_26_to_fp16)[name = tensor<string, []>("mul_6_cast_fp16")];
            tensor<fp16, [1, 64, 1]> reshape_27_to_fp16 = const()[name = tensor<string, []>("reshape_27_to_fp16"), val = tensor<fp16, [1, 64, 1]>(BLOBFILE(path = tensor<string, []>("@model_path/weights/weight.bin"), offset = tensor<uint64, []>(407808)))];
            tensor<fp16, [1, 64, ?]> add_13_cast_fp16 = add(x = mul_6_cast_fp16, y = reshape_27_to_fp16)[name = tensor<string, []>("add_13_cast_fp16")];
            tensor<fp16, [1, 64, ?]> input_37_cast_fp16 = silu(x = add_13_cast_fp16)[name = tensor<string, []>("input_37_cast_fp16")];
            tensor<string, []> input_39_pad_type_0 = const()[name = tensor<string, []>("input_39_pad_type_0"), val = tensor<string, []>("custom")];
            tensor<int32, [2]> input_39_pad_0 = const()[name = tensor<string, []>("input_39_pad_0"), val = tensor<int32, [2]>([24, 24])];
            tensor<int32, [1]> input_39_dilations_0 = const()[name = tensor<string, []>("input_39_dilations_0"), val = tensor<int32, [1]>([8])];
            tensor<int32, [1]> input_39_strides_0 = const()[name = tensor<string, []>("input_39_strides_0"), val = tensor<int32, [1]>([1])];
            tensor<int32, []> input_39_groups_0 = const()[name = tensor<string, []>("input_39_groups_0"), val = tensor<int32, []>(1)];
            tensor<fp16, [64, 64, 7]> blocks_3_3_weight_to_fp16 = const()[name = tensor<string, []>("blocks_3_3_weight_to_fp16"), val = tensor<fp16, [64, 64, 7]>(BLOBFILE(path = tensor<string, []>("@model_path/weights/weight.bin"), offset = tensor<uint64, []>(408000)))];
            tensor<fp16, [64]> blocks_3_3_bias_to_fp16 = const()[name = tensor<string, []>("blocks_3_3_bias_to_fp16"), val = tensor<fp16, [64]>(BLOBFILE(path = tensor<string, []>("@model_path/weights/weight.bin"), offset = tensor<uint64, []>(465408)))];
            tensor<fp16, [1, 64, ?]> input_39_cast_fp16 = conv(bias = blocks_3_3_bias_to_fp16, dilations = input_39_dilations_0, groups = input_39_groups_0, pad = input_39_pad_0, pad_type = input_39_pad_type_0, strides = input_39_strides_0, weight = blocks_3_3_weight_to_fp16, x = input_37_cast_fp16)[name = tensor<string, []>("input_39_cast_fp16")];
            tensor<int32, [3]> shape_7_cast_fp16 = shape(x = input_39_cast_fp16)[name = tensor<string, []>("shape_7_cast_fp16")];
            tensor<int32, [4]> concat_7x = const()[name = tensor<string, []>("concat_7x"), val = tensor<int32, [4]>([1, 8, 8, -1])];
            tensor<fp16, [1, 8, 8, ?]> reshape_28_cast_fp16 = reshape(shape = concat_7x, x = input_39_cast_fp16)[name = tensor<string, []>("reshape_28_cast_fp16")];
            tensor<int32, [2]> reduce_mean_21_axes_0 = const()[name = tensor<string, []>("reduce_mean_21_axes_0"), val = tensor<int32, [2]>([2, 3])];
            tensor<bool, []> reduce_mean_21_keep_dims_0 = const()[name = tensor<string, []>("reduce_mean_21_keep_dims_0"), val = tensor<bool, []>(true)];
            tensor<fp16, [1, 8, 1, 1]> reduce_mean_21_cast_fp16 = reduce_mean(axes = reduce_mean_21_axes_0, keep_dims = reduce_mean_21_keep_dims_0, x = reshape_28_cast_fp16)[name = tensor<string, []>("reduce_mean_21_cast_fp16")];
            tensor<fp16, [1, 8, 8, ?]> sub_14_cast_fp16 = sub(x = reshape_28_cast_fp16, y = reduce_mean_21_cast_fp16)[name = tensor<string, []>("sub_14_cast_fp16")];
            tensor<fp16, [1, 8, 8, ?]> square_7_cast_fp16 = square(x = sub_14_cast_fp16)[name = tensor<string, []>("square_7_cast_fp16")];
            tensor<int32, [2]> reduce_mean_23_axes_0 = const()[name = tensor<string, []>("reduce_mean_23_axes_0"), val = tensor<int32, [2]>([2, 3])];
            tensor<bool, []> reduce_mean_23_keep_dims_0 = const()[name = tensor<string, []>("reduce_mean_23_keep_dims_0"), val = tensor<bool, []>(true)];
            tensor<fp16, [1, 8, 1, 1]> reduce_mean_23_cast_fp16 = reduce_mean(axes = reduce_mean_23_axes_0, keep_dims = reduce_mean_23_keep_dims_0, x = square_7_cast_fp16)[name = tensor<string, []>("reduce_mean_23_cast_fp16")];
            tensor<fp16, []> add_14_y_0_to_fp16 = const()[name = tensor<string, []>("add_14_y_0_to_fp16"), val = tensor<fp16, []>(0x1.5p-17)];
            tensor<fp16, [1, 8, 1, 1]> add_14_cast_fp16 = add(x = reduce_mean_23_cast_fp16, y = add_14_y_0_to_fp16)[name = tensor<string, []>("add_14_cast_fp16")];
            tensor<fp16, [1, 8, 1, 1]> sqrt_7_cast_fp16 = sqrt(x = add_14_cast_fp16)[name = tensor<string, []>("sqrt_7_cast_fp16")];
            tensor<fp16, [1, 8, 8, ?]> real_div_7_cast_fp16 = real_div(x = sub_14_cast_fp16, y = sqrt_7_cast_fp16)[name = tensor<string, []>("real_div_7_cast_fp16")];
            tensor<fp16, [1, 64, ?]> reshape_29_cast_fp16 = reshape(shape = shape_7_cast_fp16, x = real_div_7_cast_fp16)[name = tensor<string, []>("reshape_29_cast_fp16")];
            tensor<fp16, [1, 64, 1]> reshape_30_to_fp16 = const()[name = tensor<string, []>("reshape_30_to_fp16"), val = tensor<fp16, [1, 64, 1]>(BLOBFILE(path = tensor<string, []>("@model_path/weights/weight.bin"), offset = tensor<uint64, []>(465600)))];
            tensor<fp16, [1, 64, ?]> mul_7_cast_fp16 = mul(x = reshape_29_cast_fp16, y = reshape_30_to_fp16)[name = tensor<string, []>("mul_7_cast_fp16")];
            tensor<fp16, [1, 64, 1]> reshape_31_to_fp16 = const()[name = tensor<string, []>("reshape_31_to_fp16"), val = tensor<fp16, [1, 64, 1]>(BLOBFILE(path = tensor<string, []>("@model_path/weights/weight.bin"), offset = tensor<uint64, []>(465792)))];
            tensor<fp16, [1, 64, ?]> add_15_cast_fp16 = add(x = mul_7_cast_fp16, y = reshape_31_to_fp16)[name = tensor<string, []>("add_15_cast_fp16")];
            tensor<fp16, [1, 64, ?]> input_41_cast_fp16 = add(x = input_31_cast_fp16, y = add_15_cast_fp16)[name = tensor<string, []>("input_41_cast_fp16")];
            tensor<string, []> input_43_pad_type_0 = const()[name = tensor<string, []>("input_43_pad_type_0"), val = tensor<string, []>("custom")];
            tensor<int32, [2]> input_43_pad_0 = const()[name = tensor<string, []>("input_43_pad_0"), val = tensor<int32, [2]>([48, 48])];
            tensor<int32, [1]> input_43_dilations_0 = const()[name = tensor<string, []>("input_43_dilations_0"), val = tensor<int32, [1]>([16])];
            tensor<int32, [1]> input_43_strides_0 = const()[name = tensor<string, []>("input_43_strides_0"), val = tensor<int32, [1]>([1])];
            tensor<int32, []> input_43_groups_0 = const()[name = tensor<string, []>("input_43_groups_0"), val = tensor<int32, []>(1)];
            tensor<fp16, [64, 64, 7]> blocks_4_0_weight_to_fp16 = const()[name = tensor<string, []>("blocks_4_0_weight_to_fp16"), val = tensor<fp16, [64, 64, 7]>(BLOBFILE(path = tensor<string, []>("@model_path/weights/weight.bin"), offset = tensor<uint64, []>(465984)))];
            tensor<fp16, [64]> blocks_4_0_bias_to_fp16 = const()[name = tensor<string, []>("blocks_4_0_bias_to_fp16"), val = tensor<fp16, [64]>(BLOBFILE(path = tensor<string, []>("@model_path/weights/weight.bin"), offset = tensor<uint64, []>(523392)))];
            tensor<fp16, [1, 64, ?]> input_43_cast_fp16 = conv(bias = blocks_4_0_bias_to_fp16, dilations = input_43_dilations_0, groups = input_43_groups_0, pad = input_43_pad_0, pad_type = input_43_pad_type_0, strides = input_43_strides_0, weight = blocks_4_0_weight_to_fp16, x = input_41_cast_fp16)[name = tensor<string, []>("input_43_cast_fp16")];
            tensor<int32, [3]> shape_8_cast_fp16 = shape(x = input_43_cast_fp16)[name = tensor<string, []>("shape_8_cast_fp16")];
            tensor<int32, [4]> concat_8x = const()[name = tensor<string, []>("concat_8x"), val = tensor<int32, [4]>([1, 8, 8, -1])];
            tensor<fp16, [1, 8, 8, ?]> reshape_32_cast_fp16 = reshape(shape = concat_8x, x = input_43_cast_fp16)[name = tensor<string, []>("reshape_32_cast_fp16")];
            tensor<int32, [2]> reduce_mean_24_axes_0 = const()[name = tensor<string, []>("reduce_mean_24_axes_0"), val = tensor<int32, [2]>([2, 3])];
            tensor<bool, []> reduce_mean_24_keep_dims_0 = const()[name = tensor<string, []>("reduce_mean_24_keep_dims_0"), val = tensor<bool, []>(true)];
            tensor<fp16, [1, 8, 1, 1]> reduce_mean_24_cast_fp16 = reduce_mean(axes = reduce_mean_24_axes_0, keep_dims = reduce_mean_24_keep_dims_0, x = reshape_32_cast_fp16)[name = tensor<string, []>("reduce_mean_24_cast_fp16")];
            tensor<fp16, [1, 8, 8, ?]> sub_16_cast_fp16 = sub(x = reshape_32_cast_fp16, y = reduce_mean_24_cast_fp16)[name = tensor<string, []>("sub_16_cast_fp16")];
            tensor<fp16, [1, 8, 8, ?]> square_8_cast_fp16 = square(x = sub_16_cast_fp16)[name = tensor<string, []>("square_8_cast_fp16")];
            tensor<int32, [2]> reduce_mean_26_axes_0 = const()[name = tensor<string, []>("reduce_mean_26_axes_0"), val = tensor<int32, [2]>([2, 3])];
            tensor<bool, []> reduce_mean_26_keep_dims_0 = const()[name = tensor<string, []>("reduce_mean_26_keep_dims_0"), val = tensor<bool, []>(true)];
            tensor<fp16, [1, 8, 1, 1]> reduce_mean_26_cast_fp16 = reduce_mean(axes = reduce_mean_26_axes_0, keep_dims = reduce_mean_26_keep_dims_0, x = square_8_cast_fp16)[name = tensor<string, []>("reduce_mean_26_cast_fp16")];
            tensor<fp16, []> add_16_y_0_to_fp16 = const()[name = tensor<string, []>("add_16_y_0_to_fp16"), val = tensor<fp16, []>(0x1.5p-17)];
            tensor<fp16, [1, 8, 1, 1]> add_16_cast_fp16 = add(x = reduce_mean_26_cast_fp16, y = add_16_y_0_to_fp16)[name = tensor<string, []>("add_16_cast_fp16")];
            tensor<fp16, [1, 8, 1, 1]> sqrt_8_cast_fp16 = sqrt(x = add_16_cast_fp16)[name = tensor<string, []>("sqrt_8_cast_fp16")];
            tensor<fp16, [1, 8, 8, ?]> real_div_8_cast_fp16 = real_div(x = sub_16_cast_fp16, y = sqrt_8_cast_fp16)[name = tensor<string, []>("real_div_8_cast_fp16")];
            tensor<fp16, [1, 64, ?]> reshape_33_cast_fp16 = reshape(shape = shape_8_cast_fp16, x = real_div_8_cast_fp16)[name = tensor<string, []>("reshape_33_cast_fp16")];
            tensor<fp16, [1, 64, 1]> reshape_34_to_fp16 = const()[name = tensor<string, []>("reshape_34_to_fp16"), val = tensor<fp16, [1, 64, 1]>(BLOBFILE(path = tensor<string, []>("@model_path/weights/weight.bin"), offset = tensor<uint64, []>(523584)))];
            tensor<fp16, [1, 64, ?]> mul_8_cast_fp16 = mul(x = reshape_33_cast_fp16, y = reshape_34_to_fp16)[name = tensor<string, []>("mul_8_cast_fp16")];
            tensor<fp16, [1, 64, 1]> reshape_35_to_fp16 = const()[name = tensor<string, []>("reshape_35_to_fp16"), val = tensor<fp16, [1, 64, 1]>(BLOBFILE(path = tensor<string, []>("@model_path/weights/weight.bin"), offset = tensor<uint64, []>(523776)))];
            tensor<fp16, [1, 64, ?]> add_17_cast_fp16 = add(x = mul_8_cast_fp16, y = reshape_35_to_fp16)[name = tensor<string, []>("add_17_cast_fp16")];
            tensor<fp16, [1, 64, ?]> input_47_cast_fp16 = silu(x = add_17_cast_fp16)[name = tensor<string, []>("input_47_cast_fp16")];
            tensor<string, []> input_49_pad_type_0 = const()[name = tensor<string, []>("input_49_pad_type_0"), val = tensor<string, []>("custom")];
            tensor<int32, [2]> input_49_pad_0 = const()[name = tensor<string, []>("input_49_pad_0"), val = tensor<int32, [2]>([48, 48])];
            tensor<int32, [1]> input_49_dilations_0 = const()[name = tensor<string, []>("input_49_dilations_0"), val = tensor<int32, [1]>([16])];
            tensor<int32, [1]> input_49_strides_0 = const()[name = tensor<string, []>("input_49_strides_0"), val = tensor<int32, [1]>([1])];
            tensor<int32, []> input_49_groups_0 = const()[name = tensor<string, []>("input_49_groups_0"), val = tensor<int32, []>(1)];
            tensor<fp16, [64, 64, 7]> blocks_4_3_weight_to_fp16 = const()[name = tensor<string, []>("blocks_4_3_weight_to_fp16"), val = tensor<fp16, [64, 64, 7]>(BLOBFILE(path = tensor<string, []>("@model_path/weights/weight.bin"), offset = tensor<uint64, []>(523968)))];
            tensor<fp16, [64]> blocks_4_3_bias_to_fp16 = const()[name = tensor<string, []>("blocks_4_3_bias_to_fp16"), val = tensor<fp16, [64]>(BLOBFILE(path = tensor<string, []>("@model_path/weights/weight.bin"), offset = tensor<uint64, []>(581376)))];
            tensor<fp16, [1, 64, ?]> input_49_cast_fp16 = conv(bias = blocks_4_3_bias_to_fp16, dilations = input_49_dilations_0, groups = input_49_groups_0, pad = input_49_pad_0, pad_type = input_49_pad_type_0, strides = input_49_strides_0, weight = blocks_4_3_weight_to_fp16, x = input_47_cast_fp16)[name = tensor<string, []>("input_49_cast_fp16")];
            tensor<int32, [3]> shape_9_cast_fp16 = shape(x = input_49_cast_fp16)[name = tensor<string, []>("shape_9_cast_fp16")];
            tensor<int32, [4]> concat_9x = const()[name = tensor<string, []>("concat_9x"), val = tensor<int32, [4]>([1, 8, 8, -1])];
            tensor<fp16, [1, 8, 8, ?]> reshape_36_cast_fp16 = reshape(shape = concat_9x, x = input_49_cast_fp16)[name = tensor<string, []>("reshape_36_cast_fp16")];
            tensor<int32, [2]> reduce_mean_27_axes_0 = const()[name = tensor<string, []>("reduce_mean_27_axes_0"), val = tensor<int32, [2]>([2, 3])];
            tensor<bool, []> reduce_mean_27_keep_dims_0 = const()[name = tensor<string, []>("reduce_mean_27_keep_dims_0"), val = tensor<bool, []>(true)];
            tensor<fp16, [1, 8, 1, 1]> reduce_mean_27_cast_fp16 = reduce_mean(axes = reduce_mean_27_axes_0, keep_dims = reduce_mean_27_keep_dims_0, x = reshape_36_cast_fp16)[name = tensor<string, []>("reduce_mean_27_cast_fp16")];
            tensor<fp16, [1, 8, 8, ?]> sub_18_cast_fp16 = sub(x = reshape_36_cast_fp16, y = reduce_mean_27_cast_fp16)[name = tensor<string, []>("sub_18_cast_fp16")];
            tensor<fp16, [1, 8, 8, ?]> square_9_cast_fp16 = square(x = sub_18_cast_fp16)[name = tensor<string, []>("square_9_cast_fp16")];
            tensor<int32, [2]> reduce_mean_29_axes_0 = const()[name = tensor<string, []>("reduce_mean_29_axes_0"), val = tensor<int32, [2]>([2, 3])];
            tensor<bool, []> reduce_mean_29_keep_dims_0 = const()[name = tensor<string, []>("reduce_mean_29_keep_dims_0"), val = tensor<bool, []>(true)];
            tensor<fp16, [1, 8, 1, 1]> reduce_mean_29_cast_fp16 = reduce_mean(axes = reduce_mean_29_axes_0, keep_dims = reduce_mean_29_keep_dims_0, x = square_9_cast_fp16)[name = tensor<string, []>("reduce_mean_29_cast_fp16")];
            tensor<fp16, []> add_18_y_0_to_fp16 = const()[name = tensor<string, []>("add_18_y_0_to_fp16"), val = tensor<fp16, []>(0x1.5p-17)];
            tensor<fp16, [1, 8, 1, 1]> add_18_cast_fp16 = add(x = reduce_mean_29_cast_fp16, y = add_18_y_0_to_fp16)[name = tensor<string, []>("add_18_cast_fp16")];
            tensor<fp16, [1, 8, 1, 1]> sqrt_9_cast_fp16 = sqrt(x = add_18_cast_fp16)[name = tensor<string, []>("sqrt_9_cast_fp16")];
            tensor<fp16, [1, 8, 8, ?]> real_div_9_cast_fp16 = real_div(x = sub_18_cast_fp16, y = sqrt_9_cast_fp16)[name = tensor<string, []>("real_div_9_cast_fp16")];
            tensor<fp16, [1, 64, ?]> reshape_37_cast_fp16 = reshape(shape = shape_9_cast_fp16, x = real_div_9_cast_fp16)[name = tensor<string, []>("reshape_37_cast_fp16")];
            tensor<fp16, [1, 64, 1]> reshape_38_to_fp16 = const()[name = tensor<string, []>("reshape_38_to_fp16"), val = tensor<fp16, [1, 64, 1]>(BLOBFILE(path = tensor<string, []>("@model_path/weights/weight.bin"), offset = tensor<uint64, []>(581568)))];
            tensor<fp16, [1, 64, ?]> mul_9_cast_fp16 = mul(x = reshape_37_cast_fp16, y = reshape_38_to_fp16)[name = tensor<string, []>("mul_9_cast_fp16")];
            tensor<fp16, [1, 64, 1]> reshape_39_to_fp16 = const()[name = tensor<string, []>("reshape_39_to_fp16"), val = tensor<fp16, [1, 64, 1]>(BLOBFILE(path = tensor<string, []>("@model_path/weights/weight.bin"), offset = tensor<uint64, []>(581760)))];
            tensor<fp16, [1, 64, ?]> add_19_cast_fp16 = add(x = mul_9_cast_fp16, y = reshape_39_to_fp16)[name = tensor<string, []>("add_19_cast_fp16")];
            tensor<fp16, [1, 64, ?]> input_51_cast_fp16 = add(x = input_41_cast_fp16, y = add_19_cast_fp16)[name = tensor<string, []>("input_51_cast_fp16")];
            tensor<string, []> input_53_pad_type_0 = const()[name = tensor<string, []>("input_53_pad_type_0"), val = tensor<string, []>("custom")];
            tensor<int32, [2]> input_53_pad_0 = const()[name = tensor<string, []>("input_53_pad_0"), val = tensor<int32, [2]>([3, 3])];
            tensor<int32, [1]> input_53_strides_0 = const()[name = tensor<string, []>("input_53_strides_0"), val = tensor<int32, [1]>([1])];
            tensor<int32, [1]> input_53_dilations_0 = const()[name = tensor<string, []>("input_53_dilations_0"), val = tensor<int32, [1]>([1])];
            tensor<int32, []> input_53_groups_0 = const()[name = tensor<string, []>("input_53_groups_0"), val = tensor<int32, []>(1)];
            tensor<fp16, [64, 64, 7]> blocks_5_0_weight_to_fp16 = const()[name = tensor<string, []>("blocks_5_0_weight_to_fp16"), val = tensor<fp16, [64, 64, 7]>(BLOBFILE(path = tensor<string, []>("@model_path/weights/weight.bin"), offset = tensor<uint64, []>(581952)))];
            tensor<fp16, [64]> blocks_5_0_bias_to_fp16 = const()[name = tensor<string, []>("blocks_5_0_bias_to_fp16"), val = tensor<fp16, [64]>(BLOBFILE(path = tensor<string, []>("@model_path/weights/weight.bin"), offset = tensor<uint64, []>(639360)))];
            tensor<fp16, [1, 64, ?]> input_53_cast_fp16 = conv(bias = blocks_5_0_bias_to_fp16, dilations = input_53_dilations_0, groups = input_53_groups_0, pad = input_53_pad_0, pad_type = input_53_pad_type_0, strides = input_53_strides_0, weight = blocks_5_0_weight_to_fp16, x = input_51_cast_fp16)[name = tensor<string, []>("input_53_cast_fp16")];
            tensor<int32, [3]> shape_10_cast_fp16 = shape(x = input_53_cast_fp16)[name = tensor<string, []>("shape_10_cast_fp16")];
            tensor<int32, [4]> concat_10x = const()[name = tensor<string, []>("concat_10x"), val = tensor<int32, [4]>([1, 8, 8, -1])];
            tensor<fp16, [1, 8, 8, ?]> reshape_40_cast_fp16 = reshape(shape = concat_10x, x = input_53_cast_fp16)[name = tensor<string, []>("reshape_40_cast_fp16")];
            tensor<int32, [2]> reduce_mean_30_axes_0 = const()[name = tensor<string, []>("reduce_mean_30_axes_0"), val = tensor<int32, [2]>([2, 3])];
            tensor<bool, []> reduce_mean_30_keep_dims_0 = const()[name = tensor<string, []>("reduce_mean_30_keep_dims_0"), val = tensor<bool, []>(true)];
            tensor<fp16, [1, 8, 1, 1]> reduce_mean_30_cast_fp16 = reduce_mean(axes = reduce_mean_30_axes_0, keep_dims = reduce_mean_30_keep_dims_0, x = reshape_40_cast_fp16)[name = tensor<string, []>("reduce_mean_30_cast_fp16")];
            tensor<fp16, [1, 8, 8, ?]> sub_20_cast_fp16 = sub(x = reshape_40_cast_fp16, y = reduce_mean_30_cast_fp16)[name = tensor<string, []>("sub_20_cast_fp16")];
            tensor<fp16, [1, 8, 8, ?]> square_10_cast_fp16 = square(x = sub_20_cast_fp16)[name = tensor<string, []>("square_10_cast_fp16")];
            tensor<int32, [2]> reduce_mean_32_axes_0 = const()[name = tensor<string, []>("reduce_mean_32_axes_0"), val = tensor<int32, [2]>([2, 3])];
            tensor<bool, []> reduce_mean_32_keep_dims_0 = const()[name = tensor<string, []>("reduce_mean_32_keep_dims_0"), val = tensor<bool, []>(true)];
            tensor<fp16, [1, 8, 1, 1]> reduce_mean_32_cast_fp16 = reduce_mean(axes = reduce_mean_32_axes_0, keep_dims = reduce_mean_32_keep_dims_0, x = square_10_cast_fp16)[name = tensor<string, []>("reduce_mean_32_cast_fp16")];
            tensor<fp16, []> add_20_y_0_to_fp16 = const()[name = tensor<string, []>("add_20_y_0_to_fp16"), val = tensor<fp16, []>(0x1.5p-17)];
            tensor<fp16, [1, 8, 1, 1]> add_20_cast_fp16 = add(x = reduce_mean_32_cast_fp16, y = add_20_y_0_to_fp16)[name = tensor<string, []>("add_20_cast_fp16")];
            tensor<fp16, [1, 8, 1, 1]> sqrt_10_cast_fp16 = sqrt(x = add_20_cast_fp16)[name = tensor<string, []>("sqrt_10_cast_fp16")];
            tensor<fp16, [1, 8, 8, ?]> real_div_10_cast_fp16 = real_div(x = sub_20_cast_fp16, y = sqrt_10_cast_fp16)[name = tensor<string, []>("real_div_10_cast_fp16")];
            tensor<fp16, [1, 64, ?]> reshape_41_cast_fp16 = reshape(shape = shape_10_cast_fp16, x = real_div_10_cast_fp16)[name = tensor<string, []>("reshape_41_cast_fp16")];
            tensor<fp16, [1, 64, 1]> reshape_42_to_fp16 = const()[name = tensor<string, []>("reshape_42_to_fp16"), val = tensor<fp16, [1, 64, 1]>(BLOBFILE(path = tensor<string, []>("@model_path/weights/weight.bin"), offset = tensor<uint64, []>(639552)))];
            tensor<fp16, [1, 64, ?]> mul_10_cast_fp16 = mul(x = reshape_41_cast_fp16, y = reshape_42_to_fp16)[name = tensor<string, []>("mul_10_cast_fp16")];
            tensor<fp16, [1, 64, 1]> reshape_43_to_fp16 = const()[name = tensor<string, []>("reshape_43_to_fp16"), val = tensor<fp16, [1, 64, 1]>(BLOBFILE(path = tensor<string, []>("@model_path/weights/weight.bin"), offset = tensor<uint64, []>(639744)))];
            tensor<fp16, [1, 64, ?]> add_21_cast_fp16 = add(x = mul_10_cast_fp16, y = reshape_43_to_fp16)[name = tensor<string, []>("add_21_cast_fp16")];
            tensor<fp16, [1, 64, ?]> input_57_cast_fp16 = silu(x = add_21_cast_fp16)[name = tensor<string, []>("input_57_cast_fp16")];
            tensor<string, []> input_59_pad_type_0 = const()[name = tensor<string, []>("input_59_pad_type_0"), val = tensor<string, []>("custom")];
            tensor<int32, [2]> input_59_pad_0 = const()[name = tensor<string, []>("input_59_pad_0"), val = tensor<int32, [2]>([3, 3])];
            tensor<int32, [1]> input_59_strides_0 = const()[name = tensor<string, []>("input_59_strides_0"), val = tensor<int32, [1]>([1])];
            tensor<int32, [1]> input_59_dilations_0 = const()[name = tensor<string, []>("input_59_dilations_0"), val = tensor<int32, [1]>([1])];
            tensor<int32, []> input_59_groups_0 = const()[name = tensor<string, []>("input_59_groups_0"), val = tensor<int32, []>(1)];
            tensor<fp16, [64, 64, 7]> blocks_5_3_weight_to_fp16 = const()[name = tensor<string, []>("blocks_5_3_weight_to_fp16"), val = tensor<fp16, [64, 64, 7]>(BLOBFILE(path = tensor<string, []>("@model_path/weights/weight.bin"), offset = tensor<uint64, []>(639936)))];
            tensor<fp16, [64]> blocks_5_3_bias_to_fp16 = const()[name = tensor<string, []>("blocks_5_3_bias_to_fp16"), val = tensor<fp16, [64]>(BLOBFILE(path = tensor<string, []>("@model_path/weights/weight.bin"), offset = tensor<uint64, []>(697344)))];
            tensor<fp16, [1, 64, ?]> input_59_cast_fp16 = conv(bias = blocks_5_3_bias_to_fp16, dilations = input_59_dilations_0, groups = input_59_groups_0, pad = input_59_pad_0, pad_type = input_59_pad_type_0, strides = input_59_strides_0, weight = blocks_5_3_weight_to_fp16, x = input_57_cast_fp16)[name = tensor<string, []>("input_59_cast_fp16")];
            tensor<int32, [3]> shape_11_cast_fp16 = shape(x = input_59_cast_fp16)[name = tensor<string, []>("shape_11_cast_fp16")];
            tensor<int32, [4]> concat_11x = const()[name = tensor<string, []>("concat_11x"), val = tensor<int32, [4]>([1, 8, 8, -1])];
            tensor<fp16, [1, 8, 8, ?]> reshape_44_cast_fp16 = reshape(shape = concat_11x, x = input_59_cast_fp16)[name = tensor<string, []>("reshape_44_cast_fp16")];
            tensor<int32, [2]> reduce_mean_33_axes_0 = const()[name = tensor<string, []>("reduce_mean_33_axes_0"), val = tensor<int32, [2]>([2, 3])];
            tensor<bool, []> reduce_mean_33_keep_dims_0 = const()[name = tensor<string, []>("reduce_mean_33_keep_dims_0"), val = tensor<bool, []>(true)];
            tensor<fp16, [1, 8, 1, 1]> reduce_mean_33_cast_fp16 = reduce_mean(axes = reduce_mean_33_axes_0, keep_dims = reduce_mean_33_keep_dims_0, x = reshape_44_cast_fp16)[name = tensor<string, []>("reduce_mean_33_cast_fp16")];
            tensor<fp16, [1, 8, 8, ?]> sub_22_cast_fp16 = sub(x = reshape_44_cast_fp16, y = reduce_mean_33_cast_fp16)[name = tensor<string, []>("sub_22_cast_fp16")];
            tensor<fp16, [1, 8, 8, ?]> square_11_cast_fp16 = square(x = sub_22_cast_fp16)[name = tensor<string, []>("square_11_cast_fp16")];
            tensor<int32, [2]> reduce_mean_35_axes_0 = const()[name = tensor<string, []>("reduce_mean_35_axes_0"), val = tensor<int32, [2]>([2, 3])];
            tensor<bool, []> reduce_mean_35_keep_dims_0 = const()[name = tensor<string, []>("reduce_mean_35_keep_dims_0"), val = tensor<bool, []>(true)];
            tensor<fp16, [1, 8, 1, 1]> reduce_mean_35_cast_fp16 = reduce_mean(axes = reduce_mean_35_axes_0, keep_dims = reduce_mean_35_keep_dims_0, x = square_11_cast_fp16)[name = tensor<string, []>("reduce_mean_35_cast_fp16")];
            tensor<fp16, []> add_22_y_0_to_fp16 = const()[name = tensor<string, []>("add_22_y_0_to_fp16"), val = tensor<fp16, []>(0x1.5p-17)];
            tensor<fp16, [1, 8, 1, 1]> add_22_cast_fp16 = add(x = reduce_mean_35_cast_fp16, y = add_22_y_0_to_fp16)[name = tensor<string, []>("add_22_cast_fp16")];
            tensor<fp16, [1, 8, 1, 1]> sqrt_11_cast_fp16 = sqrt(x = add_22_cast_fp16)[name = tensor<string, []>("sqrt_11_cast_fp16")];
            tensor<fp16, [1, 8, 8, ?]> real_div_11_cast_fp16 = real_div(x = sub_22_cast_fp16, y = sqrt_11_cast_fp16)[name = tensor<string, []>("real_div_11_cast_fp16")];
            tensor<fp16, [1, 64, ?]> reshape_45_cast_fp16 = reshape(shape = shape_11_cast_fp16, x = real_div_11_cast_fp16)[name = tensor<string, []>("reshape_45_cast_fp16")];
            tensor<fp16, [1, 64, 1]> reshape_46_to_fp16 = const()[name = tensor<string, []>("reshape_46_to_fp16"), val = tensor<fp16, [1, 64, 1]>(BLOBFILE(path = tensor<string, []>("@model_path/weights/weight.bin"), offset = tensor<uint64, []>(697536)))];
            tensor<fp16, [1, 64, ?]> mul_11_cast_fp16 = mul(x = reshape_45_cast_fp16, y = reshape_46_to_fp16)[name = tensor<string, []>("mul_11_cast_fp16")];
            tensor<fp16, [1, 64, 1]> reshape_47_to_fp16 = const()[name = tensor<string, []>("reshape_47_to_fp16"), val = tensor<fp16, [1, 64, 1]>(BLOBFILE(path = tensor<string, []>("@model_path/weights/weight.bin"), offset = tensor<uint64, []>(697728)))];
            tensor<fp16, [1, 64, ?]> add_23_cast_fp16 = add(x = mul_11_cast_fp16, y = reshape_47_to_fp16)[name = tensor<string, []>("add_23_cast_fp16")];
            tensor<fp16, [1, 64, ?]> input_61_cast_fp16 = add(x = input_51_cast_fp16, y = add_23_cast_fp16)[name = tensor<string, []>("input_61_cast_fp16")];
            tensor<string, []> input_63_pad_type_0 = const()[name = tensor<string, []>("input_63_pad_type_0"), val = tensor<string, []>("custom")];
            tensor<int32, [2]> input_63_pad_0 = const()[name = tensor<string, []>("input_63_pad_0"), val = tensor<int32, [2]>([6, 6])];
            tensor<int32, [1]> input_63_dilations_0 = const()[name = tensor<string, []>("input_63_dilations_0"), val = tensor<int32, [1]>([2])];
            tensor<int32, [1]> input_63_strides_0 = const()[name = tensor<string, []>("input_63_strides_0"), val = tensor<int32, [1]>([1])];
            tensor<int32, []> input_63_groups_0 = const()[name = tensor<string, []>("input_63_groups_0"), val = tensor<int32, []>(1)];
            tensor<fp16, [64, 64, 7]> blocks_6_0_weight_to_fp16 = const()[name = tensor<string, []>("blocks_6_0_weight_to_fp16"), val = tensor<fp16, [64, 64, 7]>(BLOBFILE(path = tensor<string, []>("@model_path/weights/weight.bin"), offset = tensor<uint64, []>(697920)))];
            tensor<fp16, [64]> blocks_6_0_bias_to_fp16 = const()[name = tensor<string, []>("blocks_6_0_bias_to_fp16"), val = tensor<fp16, [64]>(BLOBFILE(path = tensor<string, []>("@model_path/weights/weight.bin"), offset = tensor<uint64, []>(755328)))];
            tensor<fp16, [1, 64, ?]> input_63_cast_fp16 = conv(bias = blocks_6_0_bias_to_fp16, dilations = input_63_dilations_0, groups = input_63_groups_0, pad = input_63_pad_0, pad_type = input_63_pad_type_0, strides = input_63_strides_0, weight = blocks_6_0_weight_to_fp16, x = input_61_cast_fp16)[name = tensor<string, []>("input_63_cast_fp16")];
            tensor<int32, [3]> shape_12_cast_fp16 = shape(x = input_63_cast_fp16)[name = tensor<string, []>("shape_12_cast_fp16")];
            tensor<int32, [4]> concat_12x = const()[name = tensor<string, []>("concat_12x"), val = tensor<int32, [4]>([1, 8, 8, -1])];
            tensor<fp16, [1, 8, 8, ?]> reshape_48_cast_fp16 = reshape(shape = concat_12x, x = input_63_cast_fp16)[name = tensor<string, []>("reshape_48_cast_fp16")];
            tensor<int32, [2]> reduce_mean_36_axes_0 = const()[name = tensor<string, []>("reduce_mean_36_axes_0"), val = tensor<int32, [2]>([2, 3])];
            tensor<bool, []> reduce_mean_36_keep_dims_0 = const()[name = tensor<string, []>("reduce_mean_36_keep_dims_0"), val = tensor<bool, []>(true)];
            tensor<fp16, [1, 8, 1, 1]> reduce_mean_36_cast_fp16 = reduce_mean(axes = reduce_mean_36_axes_0, keep_dims = reduce_mean_36_keep_dims_0, x = reshape_48_cast_fp16)[name = tensor<string, []>("reduce_mean_36_cast_fp16")];
            tensor<fp16, [1, 8, 8, ?]> sub_24_cast_fp16 = sub(x = reshape_48_cast_fp16, y = reduce_mean_36_cast_fp16)[name = tensor<string, []>("sub_24_cast_fp16")];
            tensor<fp16, [1, 8, 8, ?]> square_12_cast_fp16 = square(x = sub_24_cast_fp16)[name = tensor<string, []>("square_12_cast_fp16")];
            tensor<int32, [2]> reduce_mean_38_axes_0 = const()[name = tensor<string, []>("reduce_mean_38_axes_0"), val = tensor<int32, [2]>([2, 3])];
            tensor<bool, []> reduce_mean_38_keep_dims_0 = const()[name = tensor<string, []>("reduce_mean_38_keep_dims_0"), val = tensor<bool, []>(true)];
            tensor<fp16, [1, 8, 1, 1]> reduce_mean_38_cast_fp16 = reduce_mean(axes = reduce_mean_38_axes_0, keep_dims = reduce_mean_38_keep_dims_0, x = square_12_cast_fp16)[name = tensor<string, []>("reduce_mean_38_cast_fp16")];
            tensor<fp16, []> add_24_y_0_to_fp16 = const()[name = tensor<string, []>("add_24_y_0_to_fp16"), val = tensor<fp16, []>(0x1.5p-17)];
            tensor<fp16, [1, 8, 1, 1]> add_24_cast_fp16 = add(x = reduce_mean_38_cast_fp16, y = add_24_y_0_to_fp16)[name = tensor<string, []>("add_24_cast_fp16")];
            tensor<fp16, [1, 8, 1, 1]> sqrt_12_cast_fp16 = sqrt(x = add_24_cast_fp16)[name = tensor<string, []>("sqrt_12_cast_fp16")];
            tensor<fp16, [1, 8, 8, ?]> real_div_12_cast_fp16 = real_div(x = sub_24_cast_fp16, y = sqrt_12_cast_fp16)[name = tensor<string, []>("real_div_12_cast_fp16")];
            tensor<fp16, [1, 64, ?]> reshape_49_cast_fp16 = reshape(shape = shape_12_cast_fp16, x = real_div_12_cast_fp16)[name = tensor<string, []>("reshape_49_cast_fp16")];
            tensor<fp16, [1, 64, 1]> reshape_50_to_fp16 = const()[name = tensor<string, []>("reshape_50_to_fp16"), val = tensor<fp16, [1, 64, 1]>(BLOBFILE(path = tensor<string, []>("@model_path/weights/weight.bin"), offset = tensor<uint64, []>(755520)))];
            tensor<fp16, [1, 64, ?]> mul_12_cast_fp16 = mul(x = reshape_49_cast_fp16, y = reshape_50_to_fp16)[name = tensor<string, []>("mul_12_cast_fp16")];
            tensor<fp16, [1, 64, 1]> reshape_51_to_fp16 = const()[name = tensor<string, []>("reshape_51_to_fp16"), val = tensor<fp16, [1, 64, 1]>(BLOBFILE(path = tensor<string, []>("@model_path/weights/weight.bin"), offset = tensor<uint64, []>(755712)))];
            tensor<fp16, [1, 64, ?]> add_25_cast_fp16 = add(x = mul_12_cast_fp16, y = reshape_51_to_fp16)[name = tensor<string, []>("add_25_cast_fp16")];
            tensor<fp16, [1, 64, ?]> input_67_cast_fp16 = silu(x = add_25_cast_fp16)[name = tensor<string, []>("input_67_cast_fp16")];
            tensor<string, []> input_69_pad_type_0 = const()[name = tensor<string, []>("input_69_pad_type_0"), val = tensor<string, []>("custom")];
            tensor<int32, [2]> input_69_pad_0 = const()[name = tensor<string, []>("input_69_pad_0"), val = tensor<int32, [2]>([6, 6])];
            tensor<int32, [1]> input_69_dilations_0 = const()[name = tensor<string, []>("input_69_dilations_0"), val = tensor<int32, [1]>([2])];
            tensor<int32, [1]> input_69_strides_0 = const()[name = tensor<string, []>("input_69_strides_0"), val = tensor<int32, [1]>([1])];
            tensor<int32, []> input_69_groups_0 = const()[name = tensor<string, []>("input_69_groups_0"), val = tensor<int32, []>(1)];
            tensor<fp16, [64, 64, 7]> blocks_6_3_weight_to_fp16 = const()[name = tensor<string, []>("blocks_6_3_weight_to_fp16"), val = tensor<fp16, [64, 64, 7]>(BLOBFILE(path = tensor<string, []>("@model_path/weights/weight.bin"), offset = tensor<uint64, []>(755904)))];
            tensor<fp16, [64]> blocks_6_3_bias_to_fp16 = const()[name = tensor<string, []>("blocks_6_3_bias_to_fp16"), val = tensor<fp16, [64]>(BLOBFILE(path = tensor<string, []>("@model_path/weights/weight.bin"), offset = tensor<uint64, []>(813312)))];
            tensor<fp16, [1, 64, ?]> input_69_cast_fp16 = conv(bias = blocks_6_3_bias_to_fp16, dilations = input_69_dilations_0, groups = input_69_groups_0, pad = input_69_pad_0, pad_type = input_69_pad_type_0, strides = input_69_strides_0, weight = blocks_6_3_weight_to_fp16, x = input_67_cast_fp16)[name = tensor<string, []>("input_69_cast_fp16")];
            tensor<int32, [3]> shape_13_cast_fp16 = shape(x = input_69_cast_fp16)[name = tensor<string, []>("shape_13_cast_fp16")];
            tensor<int32, [4]> concat_13x = const()[name = tensor<string, []>("concat_13x"), val = tensor<int32, [4]>([1, 8, 8, -1])];
            tensor<fp16, [1, 8, 8, ?]> reshape_52_cast_fp16 = reshape(shape = concat_13x, x = input_69_cast_fp16)[name = tensor<string, []>("reshape_52_cast_fp16")];
            tensor<int32, [2]> reduce_mean_39_axes_0 = const()[name = tensor<string, []>("reduce_mean_39_axes_0"), val = tensor<int32, [2]>([2, 3])];
            tensor<bool, []> reduce_mean_39_keep_dims_0 = const()[name = tensor<string, []>("reduce_mean_39_keep_dims_0"), val = tensor<bool, []>(true)];
            tensor<fp16, [1, 8, 1, 1]> reduce_mean_39_cast_fp16 = reduce_mean(axes = reduce_mean_39_axes_0, keep_dims = reduce_mean_39_keep_dims_0, x = reshape_52_cast_fp16)[name = tensor<string, []>("reduce_mean_39_cast_fp16")];
            tensor<fp16, [1, 8, 8, ?]> sub_26_cast_fp16 = sub(x = reshape_52_cast_fp16, y = reduce_mean_39_cast_fp16)[name = tensor<string, []>("sub_26_cast_fp16")];
            tensor<fp16, [1, 8, 8, ?]> square_13_cast_fp16 = square(x = sub_26_cast_fp16)[name = tensor<string, []>("square_13_cast_fp16")];
            tensor<int32, [2]> reduce_mean_41_axes_0 = const()[name = tensor<string, []>("reduce_mean_41_axes_0"), val = tensor<int32, [2]>([2, 3])];
            tensor<bool, []> reduce_mean_41_keep_dims_0 = const()[name = tensor<string, []>("reduce_mean_41_keep_dims_0"), val = tensor<bool, []>(true)];
            tensor<fp16, [1, 8, 1, 1]> reduce_mean_41_cast_fp16 = reduce_mean(axes = reduce_mean_41_axes_0, keep_dims = reduce_mean_41_keep_dims_0, x = square_13_cast_fp16)[name = tensor<string, []>("reduce_mean_41_cast_fp16")];
            tensor<fp16, []> add_26_y_0_to_fp16 = const()[name = tensor<string, []>("add_26_y_0_to_fp16"), val = tensor<fp16, []>(0x1.5p-17)];
            tensor<fp16, [1, 8, 1, 1]> add_26_cast_fp16 = add(x = reduce_mean_41_cast_fp16, y = add_26_y_0_to_fp16)[name = tensor<string, []>("add_26_cast_fp16")];
            tensor<fp16, [1, 8, 1, 1]> sqrt_13_cast_fp16 = sqrt(x = add_26_cast_fp16)[name = tensor<string, []>("sqrt_13_cast_fp16")];
            tensor<fp16, [1, 8, 8, ?]> real_div_13_cast_fp16 = real_div(x = sub_26_cast_fp16, y = sqrt_13_cast_fp16)[name = tensor<string, []>("real_div_13_cast_fp16")];
            tensor<fp16, [1, 64, ?]> reshape_53_cast_fp16 = reshape(shape = shape_13_cast_fp16, x = real_div_13_cast_fp16)[name = tensor<string, []>("reshape_53_cast_fp16")];
            tensor<fp16, [1, 64, 1]> reshape_54_to_fp16 = const()[name = tensor<string, []>("reshape_54_to_fp16"), val = tensor<fp16, [1, 64, 1]>(BLOBFILE(path = tensor<string, []>("@model_path/weights/weight.bin"), offset = tensor<uint64, []>(813504)))];
            tensor<fp16, [1, 64, ?]> mul_13_cast_fp16 = mul(x = reshape_53_cast_fp16, y = reshape_54_to_fp16)[name = tensor<string, []>("mul_13_cast_fp16")];
            tensor<fp16, [1, 64, 1]> reshape_55_to_fp16 = const()[name = tensor<string, []>("reshape_55_to_fp16"), val = tensor<fp16, [1, 64, 1]>(BLOBFILE(path = tensor<string, []>("@model_path/weights/weight.bin"), offset = tensor<uint64, []>(813696)))];
            tensor<fp16, [1, 64, ?]> add_27_cast_fp16 = add(x = mul_13_cast_fp16, y = reshape_55_to_fp16)[name = tensor<string, []>("add_27_cast_fp16")];
            tensor<fp16, [1, 64, ?]> input_71_cast_fp16 = add(x = input_61_cast_fp16, y = add_27_cast_fp16)[name = tensor<string, []>("input_71_cast_fp16")];
            tensor<string, []> input_73_pad_type_0 = const()[name = tensor<string, []>("input_73_pad_type_0"), val = tensor<string, []>("custom")];
            tensor<int32, [2]> input_73_pad_0 = const()[name = tensor<string, []>("input_73_pad_0"), val = tensor<int32, [2]>([12, 12])];
            tensor<int32, [1]> input_73_dilations_0 = const()[name = tensor<string, []>("input_73_dilations_0"), val = tensor<int32, [1]>([4])];
            tensor<int32, [1]> input_73_strides_0 = const()[name = tensor<string, []>("input_73_strides_0"), val = tensor<int32, [1]>([1])];
            tensor<int32, []> input_73_groups_0 = const()[name = tensor<string, []>("input_73_groups_0"), val = tensor<int32, []>(1)];
            tensor<fp16, [64, 64, 7]> blocks_7_0_weight_to_fp16 = const()[name = tensor<string, []>("blocks_7_0_weight_to_fp16"), val = tensor<fp16, [64, 64, 7]>(BLOBFILE(path = tensor<string, []>("@model_path/weights/weight.bin"), offset = tensor<uint64, []>(813888)))];
            tensor<fp16, [64]> blocks_7_0_bias_to_fp16 = const()[name = tensor<string, []>("blocks_7_0_bias_to_fp16"), val = tensor<fp16, [64]>(BLOBFILE(path = tensor<string, []>("@model_path/weights/weight.bin"), offset = tensor<uint64, []>(871296)))];
            tensor<fp16, [1, 64, ?]> input_73_cast_fp16 = conv(bias = blocks_7_0_bias_to_fp16, dilations = input_73_dilations_0, groups = input_73_groups_0, pad = input_73_pad_0, pad_type = input_73_pad_type_0, strides = input_73_strides_0, weight = blocks_7_0_weight_to_fp16, x = input_71_cast_fp16)[name = tensor<string, []>("input_73_cast_fp16")];
            tensor<int32, [3]> shape_14_cast_fp16 = shape(x = input_73_cast_fp16)[name = tensor<string, []>("shape_14_cast_fp16")];
            tensor<int32, [4]> concat_14x = const()[name = tensor<string, []>("concat_14x"), val = tensor<int32, [4]>([1, 8, 8, -1])];
            tensor<fp16, [1, 8, 8, ?]> reshape_56_cast_fp16 = reshape(shape = concat_14x, x = input_73_cast_fp16)[name = tensor<string, []>("reshape_56_cast_fp16")];
            tensor<int32, [2]> reduce_mean_42_axes_0 = const()[name = tensor<string, []>("reduce_mean_42_axes_0"), val = tensor<int32, [2]>([2, 3])];
            tensor<bool, []> reduce_mean_42_keep_dims_0 = const()[name = tensor<string, []>("reduce_mean_42_keep_dims_0"), val = tensor<bool, []>(true)];
            tensor<fp16, [1, 8, 1, 1]> reduce_mean_42_cast_fp16 = reduce_mean(axes = reduce_mean_42_axes_0, keep_dims = reduce_mean_42_keep_dims_0, x = reshape_56_cast_fp16)[name = tensor<string, []>("reduce_mean_42_cast_fp16")];
            tensor<fp16, [1, 8, 8, ?]> sub_28_cast_fp16 = sub(x = reshape_56_cast_fp16, y = reduce_mean_42_cast_fp16)[name = tensor<string, []>("sub_28_cast_fp16")];
            tensor<fp16, [1, 8, 8, ?]> square_14_cast_fp16 = square(x = sub_28_cast_fp16)[name = tensor<string, []>("square_14_cast_fp16")];
            tensor<int32, [2]> reduce_mean_44_axes_0 = const()[name = tensor<string, []>("reduce_mean_44_axes_0"), val = tensor<int32, [2]>([2, 3])];
            tensor<bool, []> reduce_mean_44_keep_dims_0 = const()[name = tensor<string, []>("reduce_mean_44_keep_dims_0"), val = tensor<bool, []>(true)];
            tensor<fp16, [1, 8, 1, 1]> reduce_mean_44_cast_fp16 = reduce_mean(axes = reduce_mean_44_axes_0, keep_dims = reduce_mean_44_keep_dims_0, x = square_14_cast_fp16)[name = tensor<string, []>("reduce_mean_44_cast_fp16")];
            tensor<fp16, []> add_28_y_0_to_fp16 = const()[name = tensor<string, []>("add_28_y_0_to_fp16"), val = tensor<fp16, []>(0x1.5p-17)];
            tensor<fp16, [1, 8, 1, 1]> add_28_cast_fp16 = add(x = reduce_mean_44_cast_fp16, y = add_28_y_0_to_fp16)[name = tensor<string, []>("add_28_cast_fp16")];
            tensor<fp16, [1, 8, 1, 1]> sqrt_14_cast_fp16 = sqrt(x = add_28_cast_fp16)[name = tensor<string, []>("sqrt_14_cast_fp16")];
            tensor<fp16, [1, 8, 8, ?]> real_div_14_cast_fp16 = real_div(x = sub_28_cast_fp16, y = sqrt_14_cast_fp16)[name = tensor<string, []>("real_div_14_cast_fp16")];
            tensor<fp16, [1, 64, ?]> reshape_57_cast_fp16 = reshape(shape = shape_14_cast_fp16, x = real_div_14_cast_fp16)[name = tensor<string, []>("reshape_57_cast_fp16")];
            tensor<fp16, [1, 64, 1]> reshape_58_to_fp16 = const()[name = tensor<string, []>("reshape_58_to_fp16"), val = tensor<fp16, [1, 64, 1]>(BLOBFILE(path = tensor<string, []>("@model_path/weights/weight.bin"), offset = tensor<uint64, []>(871488)))];
            tensor<fp16, [1, 64, ?]> mul_14_cast_fp16 = mul(x = reshape_57_cast_fp16, y = reshape_58_to_fp16)[name = tensor<string, []>("mul_14_cast_fp16")];
            tensor<fp16, [1, 64, 1]> reshape_59_to_fp16 = const()[name = tensor<string, []>("reshape_59_to_fp16"), val = tensor<fp16, [1, 64, 1]>(BLOBFILE(path = tensor<string, []>("@model_path/weights/weight.bin"), offset = tensor<uint64, []>(871680)))];
            tensor<fp16, [1, 64, ?]> add_29_cast_fp16 = add(x = mul_14_cast_fp16, y = reshape_59_to_fp16)[name = tensor<string, []>("add_29_cast_fp16")];
            tensor<fp16, [1, 64, ?]> input_77_cast_fp16 = silu(x = add_29_cast_fp16)[name = tensor<string, []>("input_77_cast_fp16")];
            tensor<string, []> input_79_pad_type_0 = const()[name = tensor<string, []>("input_79_pad_type_0"), val = tensor<string, []>("custom")];
            tensor<int32, [2]> input_79_pad_0 = const()[name = tensor<string, []>("input_79_pad_0"), val = tensor<int32, [2]>([12, 12])];
            tensor<int32, [1]> input_79_dilations_0 = const()[name = tensor<string, []>("input_79_dilations_0"), val = tensor<int32, [1]>([4])];
            tensor<int32, [1]> input_79_strides_0 = const()[name = tensor<string, []>("input_79_strides_0"), val = tensor<int32, [1]>([1])];
            tensor<int32, []> input_79_groups_0 = const()[name = tensor<string, []>("input_79_groups_0"), val = tensor<int32, []>(1)];
            tensor<fp16, [64, 64, 7]> blocks_7_3_weight_to_fp16 = const()[name = tensor<string, []>("blocks_7_3_weight_to_fp16"), val = tensor<fp16, [64, 64, 7]>(BLOBFILE(path = tensor<string, []>("@model_path/weights/weight.bin"), offset = tensor<uint64, []>(871872)))];
            tensor<fp16, [64]> blocks_7_3_bias_to_fp16 = const()[name = tensor<string, []>("blocks_7_3_bias_to_fp16"), val = tensor<fp16, [64]>(BLOBFILE(path = tensor<string, []>("@model_path/weights/weight.bin"), offset = tensor<uint64, []>(929280)))];
            tensor<fp16, [1, 64, ?]> input_79_cast_fp16 = conv(bias = blocks_7_3_bias_to_fp16, dilations = input_79_dilations_0, groups = input_79_groups_0, pad = input_79_pad_0, pad_type = input_79_pad_type_0, strides = input_79_strides_0, weight = blocks_7_3_weight_to_fp16, x = input_77_cast_fp16)[name = tensor<string, []>("input_79_cast_fp16")];
            tensor<int32, [3]> shape_15_cast_fp16 = shape(x = input_79_cast_fp16)[name = tensor<string, []>("shape_15_cast_fp16")];
            tensor<int32, [4]> concat_15x = const()[name = tensor<string, []>("concat_15x"), val = tensor<int32, [4]>([1, 8, 8, -1])];
            tensor<fp16, [1, 8, 8, ?]> reshape_60_cast_fp16 = reshape(shape = concat_15x, x = input_79_cast_fp16)[name = tensor<string, []>("reshape_60_cast_fp16")];
            tensor<int32, [2]> reduce_mean_45_axes_0 = const()[name = tensor<string, []>("reduce_mean_45_axes_0"), val = tensor<int32, [2]>([2, 3])];
            tensor<bool, []> reduce_mean_45_keep_dims_0 = const()[name = tensor<string, []>("reduce_mean_45_keep_dims_0"), val = tensor<bool, []>(true)];
            tensor<fp16, [1, 8, 1, 1]> reduce_mean_45_cast_fp16 = reduce_mean(axes = reduce_mean_45_axes_0, keep_dims = reduce_mean_45_keep_dims_0, x = reshape_60_cast_fp16)[name = tensor<string, []>("reduce_mean_45_cast_fp16")];
            tensor<fp16, [1, 8, 8, ?]> sub_30_cast_fp16 = sub(x = reshape_60_cast_fp16, y = reduce_mean_45_cast_fp16)[name = tensor<string, []>("sub_30_cast_fp16")];
            tensor<fp16, [1, 8, 8, ?]> square_15_cast_fp16 = square(x = sub_30_cast_fp16)[name = tensor<string, []>("square_15_cast_fp16")];
            tensor<int32, [2]> reduce_mean_47_axes_0 = const()[name = tensor<string, []>("reduce_mean_47_axes_0"), val = tensor<int32, [2]>([2, 3])];
            tensor<bool, []> reduce_mean_47_keep_dims_0 = const()[name = tensor<string, []>("reduce_mean_47_keep_dims_0"), val = tensor<bool, []>(true)];
            tensor<fp16, [1, 8, 1, 1]> reduce_mean_47_cast_fp16 = reduce_mean(axes = reduce_mean_47_axes_0, keep_dims = reduce_mean_47_keep_dims_0, x = square_15_cast_fp16)[name = tensor<string, []>("reduce_mean_47_cast_fp16")];
            tensor<fp16, []> add_30_y_0_to_fp16 = const()[name = tensor<string, []>("add_30_y_0_to_fp16"), val = tensor<fp16, []>(0x1.5p-17)];
            tensor<fp16, [1, 8, 1, 1]> add_30_cast_fp16 = add(x = reduce_mean_47_cast_fp16, y = add_30_y_0_to_fp16)[name = tensor<string, []>("add_30_cast_fp16")];
            tensor<fp16, [1, 8, 1, 1]> sqrt_15_cast_fp16 = sqrt(x = add_30_cast_fp16)[name = tensor<string, []>("sqrt_15_cast_fp16")];
            tensor<fp16, [1, 8, 8, ?]> real_div_15_cast_fp16 = real_div(x = sub_30_cast_fp16, y = sqrt_15_cast_fp16)[name = tensor<string, []>("real_div_15_cast_fp16")];
            tensor<fp16, [1, 64, ?]> reshape_61_cast_fp16 = reshape(shape = shape_15_cast_fp16, x = real_div_15_cast_fp16)[name = tensor<string, []>("reshape_61_cast_fp16")];
            tensor<fp16, [1, 64, 1]> reshape_62_to_fp16 = const()[name = tensor<string, []>("reshape_62_to_fp16"), val = tensor<fp16, [1, 64, 1]>(BLOBFILE(path = tensor<string, []>("@model_path/weights/weight.bin"), offset = tensor<uint64, []>(929472)))];
            tensor<fp16, [1, 64, ?]> mul_15_cast_fp16 = mul(x = reshape_61_cast_fp16, y = reshape_62_to_fp16)[name = tensor<string, []>("mul_15_cast_fp16")];
            tensor<fp16, [1, 64, 1]> reshape_63_to_fp16 = const()[name = tensor<string, []>("reshape_63_to_fp16"), val = tensor<fp16, [1, 64, 1]>(BLOBFILE(path = tensor<string, []>("@model_path/weights/weight.bin"), offset = tensor<uint64, []>(929664)))];
            tensor<fp16, [1, 64, ?]> add_31_cast_fp16 = add(x = mul_15_cast_fp16, y = reshape_63_to_fp16)[name = tensor<string, []>("add_31_cast_fp16")];
            tensor<fp16, [1, 64, ?]> input_81_cast_fp16 = add(x = input_71_cast_fp16, y = add_31_cast_fp16)[name = tensor<string, []>("input_81_cast_fp16")];
            tensor<string, []> input_83_pad_type_0 = const()[name = tensor<string, []>("input_83_pad_type_0"), val = tensor<string, []>("custom")];
            tensor<int32, [2]> input_83_pad_0 = const()[name = tensor<string, []>("input_83_pad_0"), val = tensor<int32, [2]>([24, 24])];
            tensor<int32, [1]> input_83_dilations_0 = const()[name = tensor<string, []>("input_83_dilations_0"), val = tensor<int32, [1]>([8])];
            tensor<int32, [1]> input_83_strides_0 = const()[name = tensor<string, []>("input_83_strides_0"), val = tensor<int32, [1]>([1])];
            tensor<int32, []> input_83_groups_0 = const()[name = tensor<string, []>("input_83_groups_0"), val = tensor<int32, []>(1)];
            tensor<fp16, [64, 64, 7]> blocks_8_0_weight_to_fp16 = const()[name = tensor<string, []>("blocks_8_0_weight_to_fp16"), val = tensor<fp16, [64, 64, 7]>(BLOBFILE(path = tensor<string, []>("@model_path/weights/weight.bin"), offset = tensor<uint64, []>(929856)))];
            tensor<fp16, [64]> blocks_8_0_bias_to_fp16 = const()[name = tensor<string, []>("blocks_8_0_bias_to_fp16"), val = tensor<fp16, [64]>(BLOBFILE(path = tensor<string, []>("@model_path/weights/weight.bin"), offset = tensor<uint64, []>(987264)))];
            tensor<fp16, [1, 64, ?]> input_83_cast_fp16 = conv(bias = blocks_8_0_bias_to_fp16, dilations = input_83_dilations_0, groups = input_83_groups_0, pad = input_83_pad_0, pad_type = input_83_pad_type_0, strides = input_83_strides_0, weight = blocks_8_0_weight_to_fp16, x = input_81_cast_fp16)[name = tensor<string, []>("input_83_cast_fp16")];
            tensor<int32, [3]> shape_16_cast_fp16 = shape(x = input_83_cast_fp16)[name = tensor<string, []>("shape_16_cast_fp16")];
            tensor<int32, [4]> concat_16x = const()[name = tensor<string, []>("concat_16x"), val = tensor<int32, [4]>([1, 8, 8, -1])];
            tensor<fp16, [1, 8, 8, ?]> reshape_64_cast_fp16 = reshape(shape = concat_16x, x = input_83_cast_fp16)[name = tensor<string, []>("reshape_64_cast_fp16")];
            tensor<int32, [2]> reduce_mean_48_axes_0 = const()[name = tensor<string, []>("reduce_mean_48_axes_0"), val = tensor<int32, [2]>([2, 3])];
            tensor<bool, []> reduce_mean_48_keep_dims_0 = const()[name = tensor<string, []>("reduce_mean_48_keep_dims_0"), val = tensor<bool, []>(true)];
            tensor<fp16, [1, 8, 1, 1]> reduce_mean_48_cast_fp16 = reduce_mean(axes = reduce_mean_48_axes_0, keep_dims = reduce_mean_48_keep_dims_0, x = reshape_64_cast_fp16)[name = tensor<string, []>("reduce_mean_48_cast_fp16")];
            tensor<fp16, [1, 8, 8, ?]> sub_32_cast_fp16 = sub(x = reshape_64_cast_fp16, y = reduce_mean_48_cast_fp16)[name = tensor<string, []>("sub_32_cast_fp16")];
            tensor<fp16, [1, 8, 8, ?]> square_16_cast_fp16 = square(x = sub_32_cast_fp16)[name = tensor<string, []>("square_16_cast_fp16")];
            tensor<int32, [2]> reduce_mean_50_axes_0 = const()[name = tensor<string, []>("reduce_mean_50_axes_0"), val = tensor<int32, [2]>([2, 3])];
            tensor<bool, []> reduce_mean_50_keep_dims_0 = const()[name = tensor<string, []>("reduce_mean_50_keep_dims_0"), val = tensor<bool, []>(true)];
            tensor<fp16, [1, 8, 1, 1]> reduce_mean_50_cast_fp16 = reduce_mean(axes = reduce_mean_50_axes_0, keep_dims = reduce_mean_50_keep_dims_0, x = square_16_cast_fp16)[name = tensor<string, []>("reduce_mean_50_cast_fp16")];
            tensor<fp16, []> add_32_y_0_to_fp16 = const()[name = tensor<string, []>("add_32_y_0_to_fp16"), val = tensor<fp16, []>(0x1.5p-17)];
            tensor<fp16, [1, 8, 1, 1]> add_32_cast_fp16 = add(x = reduce_mean_50_cast_fp16, y = add_32_y_0_to_fp16)[name = tensor<string, []>("add_32_cast_fp16")];
            tensor<fp16, [1, 8, 1, 1]> sqrt_16_cast_fp16 = sqrt(x = add_32_cast_fp16)[name = tensor<string, []>("sqrt_16_cast_fp16")];
            tensor<fp16, [1, 8, 8, ?]> real_div_16_cast_fp16 = real_div(x = sub_32_cast_fp16, y = sqrt_16_cast_fp16)[name = tensor<string, []>("real_div_16_cast_fp16")];
            tensor<fp16, [1, 64, ?]> reshape_65_cast_fp16 = reshape(shape = shape_16_cast_fp16, x = real_div_16_cast_fp16)[name = tensor<string, []>("reshape_65_cast_fp16")];
            tensor<fp16, [1, 64, 1]> reshape_66_to_fp16 = const()[name = tensor<string, []>("reshape_66_to_fp16"), val = tensor<fp16, [1, 64, 1]>(BLOBFILE(path = tensor<string, []>("@model_path/weights/weight.bin"), offset = tensor<uint64, []>(987456)))];
            tensor<fp16, [1, 64, ?]> mul_16_cast_fp16 = mul(x = reshape_65_cast_fp16, y = reshape_66_to_fp16)[name = tensor<string, []>("mul_16_cast_fp16")];
            tensor<fp16, [1, 64, 1]> reshape_67_to_fp16 = const()[name = tensor<string, []>("reshape_67_to_fp16"), val = tensor<fp16, [1, 64, 1]>(BLOBFILE(path = tensor<string, []>("@model_path/weights/weight.bin"), offset = tensor<uint64, []>(987648)))];
            tensor<fp16, [1, 64, ?]> add_33_cast_fp16 = add(x = mul_16_cast_fp16, y = reshape_67_to_fp16)[name = tensor<string, []>("add_33_cast_fp16")];
            tensor<fp16, [1, 64, ?]> input_87_cast_fp16 = silu(x = add_33_cast_fp16)[name = tensor<string, []>("input_87_cast_fp16")];
            tensor<string, []> input_89_pad_type_0 = const()[name = tensor<string, []>("input_89_pad_type_0"), val = tensor<string, []>("custom")];
            tensor<int32, [2]> input_89_pad_0 = const()[name = tensor<string, []>("input_89_pad_0"), val = tensor<int32, [2]>([24, 24])];
            tensor<int32, [1]> input_89_dilations_0 = const()[name = tensor<string, []>("input_89_dilations_0"), val = tensor<int32, [1]>([8])];
            tensor<int32, [1]> input_89_strides_0 = const()[name = tensor<string, []>("input_89_strides_0"), val = tensor<int32, [1]>([1])];
            tensor<int32, []> input_89_groups_0 = const()[name = tensor<string, []>("input_89_groups_0"), val = tensor<int32, []>(1)];
            tensor<fp16, [64, 64, 7]> blocks_8_3_weight_to_fp16 = const()[name = tensor<string, []>("blocks_8_3_weight_to_fp16"), val = tensor<fp16, [64, 64, 7]>(BLOBFILE(path = tensor<string, []>("@model_path/weights/weight.bin"), offset = tensor<uint64, []>(987840)))];
            tensor<fp16, [64]> blocks_8_3_bias_to_fp16 = const()[name = tensor<string, []>("blocks_8_3_bias_to_fp16"), val = tensor<fp16, [64]>(BLOBFILE(path = tensor<string, []>("@model_path/weights/weight.bin"), offset = tensor<uint64, []>(1045248)))];
            tensor<fp16, [1, 64, ?]> input_89_cast_fp16 = conv(bias = blocks_8_3_bias_to_fp16, dilations = input_89_dilations_0, groups = input_89_groups_0, pad = input_89_pad_0, pad_type = input_89_pad_type_0, strides = input_89_strides_0, weight = blocks_8_3_weight_to_fp16, x = input_87_cast_fp16)[name = tensor<string, []>("input_89_cast_fp16")];
            tensor<int32, [3]> shape_17_cast_fp16 = shape(x = input_89_cast_fp16)[name = tensor<string, []>("shape_17_cast_fp16")];
            tensor<int32, [4]> concat_17x = const()[name = tensor<string, []>("concat_17x"), val = tensor<int32, [4]>([1, 8, 8, -1])];
            tensor<fp16, [1, 8, 8, ?]> reshape_68_cast_fp16 = reshape(shape = concat_17x, x = input_89_cast_fp16)[name = tensor<string, []>("reshape_68_cast_fp16")];
            tensor<int32, [2]> reduce_mean_51_axes_0 = const()[name = tensor<string, []>("reduce_mean_51_axes_0"), val = tensor<int32, [2]>([2, 3])];
            tensor<bool, []> reduce_mean_51_keep_dims_0 = const()[name = tensor<string, []>("reduce_mean_51_keep_dims_0"), val = tensor<bool, []>(true)];
            tensor<fp16, [1, 8, 1, 1]> reduce_mean_51_cast_fp16 = reduce_mean(axes = reduce_mean_51_axes_0, keep_dims = reduce_mean_51_keep_dims_0, x = reshape_68_cast_fp16)[name = tensor<string, []>("reduce_mean_51_cast_fp16")];
            tensor<fp16, [1, 8, 8, ?]> sub_34_cast_fp16 = sub(x = reshape_68_cast_fp16, y = reduce_mean_51_cast_fp16)[name = tensor<string, []>("sub_34_cast_fp16")];
            tensor<fp16, [1, 8, 8, ?]> square_17_cast_fp16 = square(x = sub_34_cast_fp16)[name = tensor<string, []>("square_17_cast_fp16")];
            tensor<int32, [2]> reduce_mean_53_axes_0 = const()[name = tensor<string, []>("reduce_mean_53_axes_0"), val = tensor<int32, [2]>([2, 3])];
            tensor<bool, []> reduce_mean_53_keep_dims_0 = const()[name = tensor<string, []>("reduce_mean_53_keep_dims_0"), val = tensor<bool, []>(true)];
            tensor<fp16, [1, 8, 1, 1]> reduce_mean_53_cast_fp16 = reduce_mean(axes = reduce_mean_53_axes_0, keep_dims = reduce_mean_53_keep_dims_0, x = square_17_cast_fp16)[name = tensor<string, []>("reduce_mean_53_cast_fp16")];
            tensor<fp16, []> add_34_y_0_to_fp16 = const()[name = tensor<string, []>("add_34_y_0_to_fp16"), val = tensor<fp16, []>(0x1.5p-17)];
            tensor<fp16, [1, 8, 1, 1]> add_34_cast_fp16 = add(x = reduce_mean_53_cast_fp16, y = add_34_y_0_to_fp16)[name = tensor<string, []>("add_34_cast_fp16")];
            tensor<fp16, [1, 8, 1, 1]> sqrt_17_cast_fp16 = sqrt(x = add_34_cast_fp16)[name = tensor<string, []>("sqrt_17_cast_fp16")];
            tensor<fp16, [1, 8, 8, ?]> real_div_17_cast_fp16 = real_div(x = sub_34_cast_fp16, y = sqrt_17_cast_fp16)[name = tensor<string, []>("real_div_17_cast_fp16")];
            tensor<fp16, [1, 64, ?]> reshape_69_cast_fp16 = reshape(shape = shape_17_cast_fp16, x = real_div_17_cast_fp16)[name = tensor<string, []>("reshape_69_cast_fp16")];
            tensor<fp16, [1, 64, 1]> reshape_70_to_fp16 = const()[name = tensor<string, []>("reshape_70_to_fp16"), val = tensor<fp16, [1, 64, 1]>(BLOBFILE(path = tensor<string, []>("@model_path/weights/weight.bin"), offset = tensor<uint64, []>(1045440)))];
            tensor<fp16, [1, 64, ?]> mul_17_cast_fp16 = mul(x = reshape_69_cast_fp16, y = reshape_70_to_fp16)[name = tensor<string, []>("mul_17_cast_fp16")];
            tensor<fp16, [1, 64, 1]> reshape_71_to_fp16 = const()[name = tensor<string, []>("reshape_71_to_fp16"), val = tensor<fp16, [1, 64, 1]>(BLOBFILE(path = tensor<string, []>("@model_path/weights/weight.bin"), offset = tensor<uint64, []>(1045632)))];
            tensor<fp16, [1, 64, ?]> add_35_cast_fp16 = add(x = mul_17_cast_fp16, y = reshape_71_to_fp16)[name = tensor<string, []>("add_35_cast_fp16")];
            tensor<fp16, [1, 64, ?]> input_91_cast_fp16 = add(x = input_81_cast_fp16, y = add_35_cast_fp16)[name = tensor<string, []>("input_91_cast_fp16")];
            tensor<string, []> input_93_pad_type_0 = const()[name = tensor<string, []>("input_93_pad_type_0"), val = tensor<string, []>("custom")];
            tensor<int32, [2]> input_93_pad_0 = const()[name = tensor<string, []>("input_93_pad_0"), val = tensor<int32, [2]>([48, 48])];
            tensor<int32, [1]> input_93_dilations_0 = const()[name = tensor<string, []>("input_93_dilations_0"), val = tensor<int32, [1]>([16])];
            tensor<int32, [1]> input_93_strides_0 = const()[name = tensor<string, []>("input_93_strides_0"), val = tensor<int32, [1]>([1])];
            tensor<int32, []> input_93_groups_0 = const()[name = tensor<string, []>("input_93_groups_0"), val = tensor<int32, []>(1)];
            tensor<fp16, [64, 64, 7]> blocks_9_0_weight_to_fp16 = const()[name = tensor<string, []>("blocks_9_0_weight_to_fp16"), val = tensor<fp16, [64, 64, 7]>(BLOBFILE(path = tensor<string, []>("@model_path/weights/weight.bin"), offset = tensor<uint64, []>(1045824)))];
            tensor<fp16, [64]> blocks_9_0_bias_to_fp16 = const()[name = tensor<string, []>("blocks_9_0_bias_to_fp16"), val = tensor<fp16, [64]>(BLOBFILE(path = tensor<string, []>("@model_path/weights/weight.bin"), offset = tensor<uint64, []>(1103232)))];
            tensor<fp16, [1, 64, ?]> input_93_cast_fp16 = conv(bias = blocks_9_0_bias_to_fp16, dilations = input_93_dilations_0, groups = input_93_groups_0, pad = input_93_pad_0, pad_type = input_93_pad_type_0, strides = input_93_strides_0, weight = blocks_9_0_weight_to_fp16, x = input_91_cast_fp16)[name = tensor<string, []>("input_93_cast_fp16")];
            tensor<int32, [3]> shape_18_cast_fp16 = shape(x = input_93_cast_fp16)[name = tensor<string, []>("shape_18_cast_fp16")];
            tensor<int32, [4]> concat_18x = const()[name = tensor<string, []>("concat_18x"), val = tensor<int32, [4]>([1, 8, 8, -1])];
            tensor<fp16, [1, 8, 8, ?]> reshape_72_cast_fp16 = reshape(shape = concat_18x, x = input_93_cast_fp16)[name = tensor<string, []>("reshape_72_cast_fp16")];
            tensor<int32, [2]> reduce_mean_54_axes_0 = const()[name = tensor<string, []>("reduce_mean_54_axes_0"), val = tensor<int32, [2]>([2, 3])];
            tensor<bool, []> reduce_mean_54_keep_dims_0 = const()[name = tensor<string, []>("reduce_mean_54_keep_dims_0"), val = tensor<bool, []>(true)];
            tensor<fp16, [1, 8, 1, 1]> reduce_mean_54_cast_fp16 = reduce_mean(axes = reduce_mean_54_axes_0, keep_dims = reduce_mean_54_keep_dims_0, x = reshape_72_cast_fp16)[name = tensor<string, []>("reduce_mean_54_cast_fp16")];
            tensor<fp16, [1, 8, 8, ?]> sub_36_cast_fp16 = sub(x = reshape_72_cast_fp16, y = reduce_mean_54_cast_fp16)[name = tensor<string, []>("sub_36_cast_fp16")];
            tensor<fp16, [1, 8, 8, ?]> square_18_cast_fp16 = square(x = sub_36_cast_fp16)[name = tensor<string, []>("square_18_cast_fp16")];
            tensor<int32, [2]> reduce_mean_56_axes_0 = const()[name = tensor<string, []>("reduce_mean_56_axes_0"), val = tensor<int32, [2]>([2, 3])];
            tensor<bool, []> reduce_mean_56_keep_dims_0 = const()[name = tensor<string, []>("reduce_mean_56_keep_dims_0"), val = tensor<bool, []>(true)];
            tensor<fp16, [1, 8, 1, 1]> reduce_mean_56_cast_fp16 = reduce_mean(axes = reduce_mean_56_axes_0, keep_dims = reduce_mean_56_keep_dims_0, x = square_18_cast_fp16)[name = tensor<string, []>("reduce_mean_56_cast_fp16")];
            tensor<fp16, []> add_36_y_0_to_fp16 = const()[name = tensor<string, []>("add_36_y_0_to_fp16"), val = tensor<fp16, []>(0x1.5p-17)];
            tensor<fp16, [1, 8, 1, 1]> add_36_cast_fp16 = add(x = reduce_mean_56_cast_fp16, y = add_36_y_0_to_fp16)[name = tensor<string, []>("add_36_cast_fp16")];
            tensor<fp16, [1, 8, 1, 1]> sqrt_18_cast_fp16 = sqrt(x = add_36_cast_fp16)[name = tensor<string, []>("sqrt_18_cast_fp16")];
            tensor<fp16, [1, 8, 8, ?]> real_div_18_cast_fp16 = real_div(x = sub_36_cast_fp16, y = sqrt_18_cast_fp16)[name = tensor<string, []>("real_div_18_cast_fp16")];
            tensor<fp16, [1, 64, ?]> reshape_73_cast_fp16 = reshape(shape = shape_18_cast_fp16, x = real_div_18_cast_fp16)[name = tensor<string, []>("reshape_73_cast_fp16")];
            tensor<fp16, [1, 64, 1]> reshape_74_to_fp16 = const()[name = tensor<string, []>("reshape_74_to_fp16"), val = tensor<fp16, [1, 64, 1]>(BLOBFILE(path = tensor<string, []>("@model_path/weights/weight.bin"), offset = tensor<uint64, []>(1103424)))];
            tensor<fp16, [1, 64, ?]> mul_18_cast_fp16 = mul(x = reshape_73_cast_fp16, y = reshape_74_to_fp16)[name = tensor<string, []>("mul_18_cast_fp16")];
            tensor<fp16, [1, 64, 1]> reshape_75_to_fp16 = const()[name = tensor<string, []>("reshape_75_to_fp16"), val = tensor<fp16, [1, 64, 1]>(BLOBFILE(path = tensor<string, []>("@model_path/weights/weight.bin"), offset = tensor<uint64, []>(1103616)))];
            tensor<fp16, [1, 64, ?]> add_37_cast_fp16 = add(x = mul_18_cast_fp16, y = reshape_75_to_fp16)[name = tensor<string, []>("add_37_cast_fp16")];
            tensor<fp16, [1, 64, ?]> input_97_cast_fp16 = silu(x = add_37_cast_fp16)[name = tensor<string, []>("input_97_cast_fp16")];
            tensor<string, []> input_99_pad_type_0 = const()[name = tensor<string, []>("input_99_pad_type_0"), val = tensor<string, []>("custom")];
            tensor<int32, [2]> input_99_pad_0 = const()[name = tensor<string, []>("input_99_pad_0"), val = tensor<int32, [2]>([48, 48])];
            tensor<int32, [1]> input_99_dilations_0 = const()[name = tensor<string, []>("input_99_dilations_0"), val = tensor<int32, [1]>([16])];
            tensor<int32, [1]> input_99_strides_0 = const()[name = tensor<string, []>("input_99_strides_0"), val = tensor<int32, [1]>([1])];
            tensor<int32, []> input_99_groups_0 = const()[name = tensor<string, []>("input_99_groups_0"), val = tensor<int32, []>(1)];
            tensor<fp16, [64, 64, 7]> blocks_9_3_weight_to_fp16 = const()[name = tensor<string, []>("blocks_9_3_weight_to_fp16"), val = tensor<fp16, [64, 64, 7]>(BLOBFILE(path = tensor<string, []>("@model_path/weights/weight.bin"), offset = tensor<uint64, []>(1103808)))];
            tensor<fp16, [64]> blocks_9_3_bias_to_fp16 = const()[name = tensor<string, []>("blocks_9_3_bias_to_fp16"), val = tensor<fp16, [64]>(BLOBFILE(path = tensor<string, []>("@model_path/weights/weight.bin"), offset = tensor<uint64, []>(1161216)))];
            tensor<fp16, [1, 64, ?]> input_99_cast_fp16 = conv(bias = blocks_9_3_bias_to_fp16, dilations = input_99_dilations_0, groups = input_99_groups_0, pad = input_99_pad_0, pad_type = input_99_pad_type_0, strides = input_99_strides_0, weight = blocks_9_3_weight_to_fp16, x = input_97_cast_fp16)[name = tensor<string, []>("input_99_cast_fp16")];
            tensor<int32, [3]> shape_19_cast_fp16 = shape(x = input_99_cast_fp16)[name = tensor<string, []>("shape_19_cast_fp16")];
            tensor<int32, [4]> concat_19x = const()[name = tensor<string, []>("concat_19x"), val = tensor<int32, [4]>([1, 8, 8, -1])];
            tensor<fp16, [1, 8, 8, ?]> reshape_76_cast_fp16 = reshape(shape = concat_19x, x = input_99_cast_fp16)[name = tensor<string, []>("reshape_76_cast_fp16")];
            tensor<int32, [2]> reduce_mean_57_axes_0 = const()[name = tensor<string, []>("reduce_mean_57_axes_0"), val = tensor<int32, [2]>([2, 3])];
            tensor<bool, []> reduce_mean_57_keep_dims_0 = const()[name = tensor<string, []>("reduce_mean_57_keep_dims_0"), val = tensor<bool, []>(true)];
            tensor<fp16, [1, 8, 1, 1]> reduce_mean_57_cast_fp16 = reduce_mean(axes = reduce_mean_57_axes_0, keep_dims = reduce_mean_57_keep_dims_0, x = reshape_76_cast_fp16)[name = tensor<string, []>("reduce_mean_57_cast_fp16")];
            tensor<fp16, [1, 8, 8, ?]> sub_38_cast_fp16 = sub(x = reshape_76_cast_fp16, y = reduce_mean_57_cast_fp16)[name = tensor<string, []>("sub_38_cast_fp16")];
            tensor<fp16, [1, 8, 8, ?]> square_19_cast_fp16 = square(x = sub_38_cast_fp16)[name = tensor<string, []>("square_19_cast_fp16")];
            tensor<int32, [2]> reduce_mean_59_axes_0 = const()[name = tensor<string, []>("reduce_mean_59_axes_0"), val = tensor<int32, [2]>([2, 3])];
            tensor<bool, []> reduce_mean_59_keep_dims_0 = const()[name = tensor<string, []>("reduce_mean_59_keep_dims_0"), val = tensor<bool, []>(true)];
            tensor<fp16, [1, 8, 1, 1]> reduce_mean_59_cast_fp16 = reduce_mean(axes = reduce_mean_59_axes_0, keep_dims = reduce_mean_59_keep_dims_0, x = square_19_cast_fp16)[name = tensor<string, []>("reduce_mean_59_cast_fp16")];
            tensor<fp16, []> add_38_y_0_to_fp16 = const()[name = tensor<string, []>("add_38_y_0_to_fp16"), val = tensor<fp16, []>(0x1.5p-17)];
            tensor<fp16, [1, 8, 1, 1]> add_38_cast_fp16 = add(x = reduce_mean_59_cast_fp16, y = add_38_y_0_to_fp16)[name = tensor<string, []>("add_38_cast_fp16")];
            tensor<fp16, [1, 8, 1, 1]> sqrt_19_cast_fp16 = sqrt(x = add_38_cast_fp16)[name = tensor<string, []>("sqrt_19_cast_fp16")];
            tensor<fp16, [1, 8, 8, ?]> real_div_19_cast_fp16 = real_div(x = sub_38_cast_fp16, y = sqrt_19_cast_fp16)[name = tensor<string, []>("real_div_19_cast_fp16")];
            tensor<fp16, [1, 64, ?]> reshape_77_cast_fp16 = reshape(shape = shape_19_cast_fp16, x = real_div_19_cast_fp16)[name = tensor<string, []>("reshape_77_cast_fp16")];
            tensor<fp16, [1, 64, 1]> reshape_78_to_fp16 = const()[name = tensor<string, []>("reshape_78_to_fp16"), val = tensor<fp16, [1, 64, 1]>(BLOBFILE(path = tensor<string, []>("@model_path/weights/weight.bin"), offset = tensor<uint64, []>(1161408)))];
            tensor<fp16, [1, 64, ?]> mul_19_cast_fp16 = mul(x = reshape_77_cast_fp16, y = reshape_78_to_fp16)[name = tensor<string, []>("mul_19_cast_fp16")];
            tensor<fp16, [1, 64, 1]> reshape_79_to_fp16 = const()[name = tensor<string, []>("reshape_79_to_fp16"), val = tensor<fp16, [1, 64, 1]>(BLOBFILE(path = tensor<string, []>("@model_path/weights/weight.bin"), offset = tensor<uint64, []>(1161600)))];
            tensor<fp16, [1, 64, ?]> add_39_cast_fp16 = add(x = mul_19_cast_fp16, y = reshape_79_to_fp16)[name = tensor<string, []>("add_39_cast_fp16")];
            tensor<fp16, [1, 64, ?]> input_101_cast_fp16 = add(x = input_91_cast_fp16, y = add_39_cast_fp16)[name = tensor<string, []>("input_101_cast_fp16")];
            tensor<string, []> input_103_pad_type_0 = const()[name = tensor<string, []>("input_103_pad_type_0"), val = tensor<string, []>("custom")];
            tensor<int32, [2]> input_103_pad_0 = const()[name = tensor<string, []>("input_103_pad_0"), val = tensor<int32, [2]>([3, 3])];
            tensor<int32, [1]> input_103_strides_0 = const()[name = tensor<string, []>("input_103_strides_0"), val = tensor<int32, [1]>([1])];
            tensor<int32, [1]> input_103_dilations_0 = const()[name = tensor<string, []>("input_103_dilations_0"), val = tensor<int32, [1]>([1])];
            tensor<int32, []> input_103_groups_0 = const()[name = tensor<string, []>("input_103_groups_0"), val = tensor<int32, []>(1)];
            tensor<fp16, [64, 64, 7]> blocks_10_0_weight_to_fp16 = const()[name = tensor<string, []>("blocks_10_0_weight_to_fp16"), val = tensor<fp16, [64, 64, 7]>(BLOBFILE(path = tensor<string, []>("@model_path/weights/weight.bin"), offset = tensor<uint64, []>(1161792)))];
            tensor<fp16, [64]> blocks_10_0_bias_to_fp16 = const()[name = tensor<string, []>("blocks_10_0_bias_to_fp16"), val = tensor<fp16, [64]>(BLOBFILE(path = tensor<string, []>("@model_path/weights/weight.bin"), offset = tensor<uint64, []>(1219200)))];
            tensor<fp16, [1, 64, ?]> input_103_cast_fp16 = conv(bias = blocks_10_0_bias_to_fp16, dilations = input_103_dilations_0, groups = input_103_groups_0, pad = input_103_pad_0, pad_type = input_103_pad_type_0, strides = input_103_strides_0, weight = blocks_10_0_weight_to_fp16, x = input_101_cast_fp16)[name = tensor<string, []>("input_103_cast_fp16")];
            tensor<int32, [3]> shape_20_cast_fp16 = shape(x = input_103_cast_fp16)[name = tensor<string, []>("shape_20_cast_fp16")];
            tensor<int32, [4]> concat_20x = const()[name = tensor<string, []>("concat_20x"), val = tensor<int32, [4]>([1, 8, 8, -1])];
            tensor<fp16, [1, 8, 8, ?]> reshape_80_cast_fp16 = reshape(shape = concat_20x, x = input_103_cast_fp16)[name = tensor<string, []>("reshape_80_cast_fp16")];
            tensor<int32, [2]> reduce_mean_60_axes_0 = const()[name = tensor<string, []>("reduce_mean_60_axes_0"), val = tensor<int32, [2]>([2, 3])];
            tensor<bool, []> reduce_mean_60_keep_dims_0 = const()[name = tensor<string, []>("reduce_mean_60_keep_dims_0"), val = tensor<bool, []>(true)];
            tensor<fp16, [1, 8, 1, 1]> reduce_mean_60_cast_fp16 = reduce_mean(axes = reduce_mean_60_axes_0, keep_dims = reduce_mean_60_keep_dims_0, x = reshape_80_cast_fp16)[name = tensor<string, []>("reduce_mean_60_cast_fp16")];
            tensor<fp16, [1, 8, 8, ?]> sub_40_cast_fp16 = sub(x = reshape_80_cast_fp16, y = reduce_mean_60_cast_fp16)[name = tensor<string, []>("sub_40_cast_fp16")];
            tensor<fp16, [1, 8, 8, ?]> square_20_cast_fp16 = square(x = sub_40_cast_fp16)[name = tensor<string, []>("square_20_cast_fp16")];
            tensor<int32, [2]> reduce_mean_62_axes_0 = const()[name = tensor<string, []>("reduce_mean_62_axes_0"), val = tensor<int32, [2]>([2, 3])];
            tensor<bool, []> reduce_mean_62_keep_dims_0 = const()[name = tensor<string, []>("reduce_mean_62_keep_dims_0"), val = tensor<bool, []>(true)];
            tensor<fp16, [1, 8, 1, 1]> reduce_mean_62_cast_fp16 = reduce_mean(axes = reduce_mean_62_axes_0, keep_dims = reduce_mean_62_keep_dims_0, x = square_20_cast_fp16)[name = tensor<string, []>("reduce_mean_62_cast_fp16")];
            tensor<fp16, []> add_40_y_0_to_fp16 = const()[name = tensor<string, []>("add_40_y_0_to_fp16"), val = tensor<fp16, []>(0x1.5p-17)];
            tensor<fp16, [1, 8, 1, 1]> add_40_cast_fp16 = add(x = reduce_mean_62_cast_fp16, y = add_40_y_0_to_fp16)[name = tensor<string, []>("add_40_cast_fp16")];
            tensor<fp16, [1, 8, 1, 1]> sqrt_20_cast_fp16 = sqrt(x = add_40_cast_fp16)[name = tensor<string, []>("sqrt_20_cast_fp16")];
            tensor<fp16, [1, 8, 8, ?]> real_div_20_cast_fp16 = real_div(x = sub_40_cast_fp16, y = sqrt_20_cast_fp16)[name = tensor<string, []>("real_div_20_cast_fp16")];
            tensor<fp16, [1, 64, ?]> reshape_81_cast_fp16 = reshape(shape = shape_20_cast_fp16, x = real_div_20_cast_fp16)[name = tensor<string, []>("reshape_81_cast_fp16")];
            tensor<fp16, [1, 64, 1]> reshape_82_to_fp16 = const()[name = tensor<string, []>("reshape_82_to_fp16"), val = tensor<fp16, [1, 64, 1]>(BLOBFILE(path = tensor<string, []>("@model_path/weights/weight.bin"), offset = tensor<uint64, []>(1219392)))];
            tensor<fp16, [1, 64, ?]> mul_20_cast_fp16 = mul(x = reshape_81_cast_fp16, y = reshape_82_to_fp16)[name = tensor<string, []>("mul_20_cast_fp16")];
            tensor<fp16, [1, 64, 1]> reshape_83_to_fp16 = const()[name = tensor<string, []>("reshape_83_to_fp16"), val = tensor<fp16, [1, 64, 1]>(BLOBFILE(path = tensor<string, []>("@model_path/weights/weight.bin"), offset = tensor<uint64, []>(1219584)))];
            tensor<fp16, [1, 64, ?]> add_41_cast_fp16 = add(x = mul_20_cast_fp16, y = reshape_83_to_fp16)[name = tensor<string, []>("add_41_cast_fp16")];
            tensor<fp16, [1, 64, ?]> input_107_cast_fp16 = silu(x = add_41_cast_fp16)[name = tensor<string, []>("input_107_cast_fp16")];
            tensor<string, []> input_109_pad_type_0 = const()[name = tensor<string, []>("input_109_pad_type_0"), val = tensor<string, []>("custom")];
            tensor<int32, [2]> input_109_pad_0 = const()[name = tensor<string, []>("input_109_pad_0"), val = tensor<int32, [2]>([3, 3])];
            tensor<int32, [1]> input_109_strides_0 = const()[name = tensor<string, []>("input_109_strides_0"), val = tensor<int32, [1]>([1])];
            tensor<int32, [1]> input_109_dilations_0 = const()[name = tensor<string, []>("input_109_dilations_0"), val = tensor<int32, [1]>([1])];
            tensor<int32, []> input_109_groups_0 = const()[name = tensor<string, []>("input_109_groups_0"), val = tensor<int32, []>(1)];
            tensor<fp16, [64, 64, 7]> blocks_10_3_weight_to_fp16 = const()[name = tensor<string, []>("blocks_10_3_weight_to_fp16"), val = tensor<fp16, [64, 64, 7]>(BLOBFILE(path = tensor<string, []>("@model_path/weights/weight.bin"), offset = tensor<uint64, []>(1219776)))];
            tensor<fp16, [64]> blocks_10_3_bias_to_fp16 = const()[name = tensor<string, []>("blocks_10_3_bias_to_fp16"), val = tensor<fp16, [64]>(BLOBFILE(path = tensor<string, []>("@model_path/weights/weight.bin"), offset = tensor<uint64, []>(1277184)))];
            tensor<fp16, [1, 64, ?]> input_109_cast_fp16 = conv(bias = blocks_10_3_bias_to_fp16, dilations = input_109_dilations_0, groups = input_109_groups_0, pad = input_109_pad_0, pad_type = input_109_pad_type_0, strides = input_109_strides_0, weight = blocks_10_3_weight_to_fp16, x = input_107_cast_fp16)[name = tensor<string, []>("input_109_cast_fp16")];
            tensor<int32, [3]> shape_21_cast_fp16 = shape(x = input_109_cast_fp16)[name = tensor<string, []>("shape_21_cast_fp16")];
            tensor<int32, [4]> concat_21x = const()[name = tensor<string, []>("concat_21x"), val = tensor<int32, [4]>([1, 8, 8, -1])];
            tensor<fp16, [1, 8, 8, ?]> reshape_84_cast_fp16 = reshape(shape = concat_21x, x = input_109_cast_fp16)[name = tensor<string, []>("reshape_84_cast_fp16")];
            tensor<int32, [2]> reduce_mean_63_axes_0 = const()[name = tensor<string, []>("reduce_mean_63_axes_0"), val = tensor<int32, [2]>([2, 3])];
            tensor<bool, []> reduce_mean_63_keep_dims_0 = const()[name = tensor<string, []>("reduce_mean_63_keep_dims_0"), val = tensor<bool, []>(true)];
            tensor<fp16, [1, 8, 1, 1]> reduce_mean_63_cast_fp16 = reduce_mean(axes = reduce_mean_63_axes_0, keep_dims = reduce_mean_63_keep_dims_0, x = reshape_84_cast_fp16)[name = tensor<string, []>("reduce_mean_63_cast_fp16")];
            tensor<fp16, [1, 8, 8, ?]> sub_42_cast_fp16 = sub(x = reshape_84_cast_fp16, y = reduce_mean_63_cast_fp16)[name = tensor<string, []>("sub_42_cast_fp16")];
            tensor<fp16, [1, 8, 8, ?]> square_21_cast_fp16 = square(x = sub_42_cast_fp16)[name = tensor<string, []>("square_21_cast_fp16")];
            tensor<int32, [2]> reduce_mean_65_axes_0 = const()[name = tensor<string, []>("reduce_mean_65_axes_0"), val = tensor<int32, [2]>([2, 3])];
            tensor<bool, []> reduce_mean_65_keep_dims_0 = const()[name = tensor<string, []>("reduce_mean_65_keep_dims_0"), val = tensor<bool, []>(true)];
            tensor<fp16, [1, 8, 1, 1]> reduce_mean_65_cast_fp16 = reduce_mean(axes = reduce_mean_65_axes_0, keep_dims = reduce_mean_65_keep_dims_0, x = square_21_cast_fp16)[name = tensor<string, []>("reduce_mean_65_cast_fp16")];
            tensor<fp16, []> add_42_y_0_to_fp16 = const()[name = tensor<string, []>("add_42_y_0_to_fp16"), val = tensor<fp16, []>(0x1.5p-17)];
            tensor<fp16, [1, 8, 1, 1]> add_42_cast_fp16 = add(x = reduce_mean_65_cast_fp16, y = add_42_y_0_to_fp16)[name = tensor<string, []>("add_42_cast_fp16")];
            tensor<fp16, [1, 8, 1, 1]> sqrt_21_cast_fp16 = sqrt(x = add_42_cast_fp16)[name = tensor<string, []>("sqrt_21_cast_fp16")];
            tensor<fp16, [1, 8, 8, ?]> real_div_21_cast_fp16 = real_div(x = sub_42_cast_fp16, y = sqrt_21_cast_fp16)[name = tensor<string, []>("real_div_21_cast_fp16")];
            tensor<fp16, [1, 64, ?]> reshape_85_cast_fp16 = reshape(shape = shape_21_cast_fp16, x = real_div_21_cast_fp16)[name = tensor<string, []>("reshape_85_cast_fp16")];
            tensor<fp16, [1, 64, 1]> reshape_86_to_fp16 = const()[name = tensor<string, []>("reshape_86_to_fp16"), val = tensor<fp16, [1, 64, 1]>(BLOBFILE(path = tensor<string, []>("@model_path/weights/weight.bin"), offset = tensor<uint64, []>(1277376)))];
            tensor<fp16, [1, 64, ?]> mul_21_cast_fp16 = mul(x = reshape_85_cast_fp16, y = reshape_86_to_fp16)[name = tensor<string, []>("mul_21_cast_fp16")];
            tensor<fp16, [1, 64, 1]> reshape_87_to_fp16 = const()[name = tensor<string, []>("reshape_87_to_fp16"), val = tensor<fp16, [1, 64, 1]>(BLOBFILE(path = tensor<string, []>("@model_path/weights/weight.bin"), offset = tensor<uint64, []>(1277568)))];
            tensor<fp16, [1, 64, ?]> add_43_cast_fp16 = add(x = mul_21_cast_fp16, y = reshape_87_to_fp16)[name = tensor<string, []>("add_43_cast_fp16")];
            tensor<fp16, [1, 64, ?]> input_111_cast_fp16 = add(x = input_101_cast_fp16, y = add_43_cast_fp16)[name = tensor<string, []>("input_111_cast_fp16")];
            tensor<string, []> input_113_pad_type_0 = const()[name = tensor<string, []>("input_113_pad_type_0"), val = tensor<string, []>("custom")];
            tensor<int32, [2]> input_113_pad_0 = const()[name = tensor<string, []>("input_113_pad_0"), val = tensor<int32, [2]>([6, 6])];
            tensor<int32, [1]> input_113_dilations_0 = const()[name = tensor<string, []>("input_113_dilations_0"), val = tensor<int32, [1]>([2])];
            tensor<int32, [1]> input_113_strides_0 = const()[name = tensor<string, []>("input_113_strides_0"), val = tensor<int32, [1]>([1])];
            tensor<int32, []> input_113_groups_0 = const()[name = tensor<string, []>("input_113_groups_0"), val = tensor<int32, []>(1)];
            tensor<fp16, [64, 64, 7]> blocks_11_0_weight_to_fp16 = const()[name = tensor<string, []>("blocks_11_0_weight_to_fp16"), val = tensor<fp16, [64, 64, 7]>(BLOBFILE(path = tensor<string, []>("@model_path/weights/weight.bin"), offset = tensor<uint64, []>(1277760)))];
            tensor<fp16, [64]> blocks_11_0_bias_to_fp16 = const()[name = tensor<string, []>("blocks_11_0_bias_to_fp16"), val = tensor<fp16, [64]>(BLOBFILE(path = tensor<string, []>("@model_path/weights/weight.bin"), offset = tensor<uint64, []>(1335168)))];
            tensor<fp16, [1, 64, ?]> input_113_cast_fp16 = conv(bias = blocks_11_0_bias_to_fp16, dilations = input_113_dilations_0, groups = input_113_groups_0, pad = input_113_pad_0, pad_type = input_113_pad_type_0, strides = input_113_strides_0, weight = blocks_11_0_weight_to_fp16, x = input_111_cast_fp16)[name = tensor<string, []>("input_113_cast_fp16")];
            tensor<int32, [3]> shape_22_cast_fp16 = shape(x = input_113_cast_fp16)[name = tensor<string, []>("shape_22_cast_fp16")];
            tensor<int32, [4]> concat_22x = const()[name = tensor<string, []>("concat_22x"), val = tensor<int32, [4]>([1, 8, 8, -1])];
            tensor<fp16, [1, 8, 8, ?]> reshape_88_cast_fp16 = reshape(shape = concat_22x, x = input_113_cast_fp16)[name = tensor<string, []>("reshape_88_cast_fp16")];
            tensor<int32, [2]> reduce_mean_66_axes_0 = const()[name = tensor<string, []>("reduce_mean_66_axes_0"), val = tensor<int32, [2]>([2, 3])];
            tensor<bool, []> reduce_mean_66_keep_dims_0 = const()[name = tensor<string, []>("reduce_mean_66_keep_dims_0"), val = tensor<bool, []>(true)];
            tensor<fp16, [1, 8, 1, 1]> reduce_mean_66_cast_fp16 = reduce_mean(axes = reduce_mean_66_axes_0, keep_dims = reduce_mean_66_keep_dims_0, x = reshape_88_cast_fp16)[name = tensor<string, []>("reduce_mean_66_cast_fp16")];
            tensor<fp16, [1, 8, 8, ?]> sub_44_cast_fp16 = sub(x = reshape_88_cast_fp16, y = reduce_mean_66_cast_fp16)[name = tensor<string, []>("sub_44_cast_fp16")];
            tensor<fp16, [1, 8, 8, ?]> square_22_cast_fp16 = square(x = sub_44_cast_fp16)[name = tensor<string, []>("square_22_cast_fp16")];
            tensor<int32, [2]> reduce_mean_68_axes_0 = const()[name = tensor<string, []>("reduce_mean_68_axes_0"), val = tensor<int32, [2]>([2, 3])];
            tensor<bool, []> reduce_mean_68_keep_dims_0 = const()[name = tensor<string, []>("reduce_mean_68_keep_dims_0"), val = tensor<bool, []>(true)];
            tensor<fp16, [1, 8, 1, 1]> reduce_mean_68_cast_fp16 = reduce_mean(axes = reduce_mean_68_axes_0, keep_dims = reduce_mean_68_keep_dims_0, x = square_22_cast_fp16)[name = tensor<string, []>("reduce_mean_68_cast_fp16")];
            tensor<fp16, []> add_44_y_0_to_fp16 = const()[name = tensor<string, []>("add_44_y_0_to_fp16"), val = tensor<fp16, []>(0x1.5p-17)];
            tensor<fp16, [1, 8, 1, 1]> add_44_cast_fp16 = add(x = reduce_mean_68_cast_fp16, y = add_44_y_0_to_fp16)[name = tensor<string, []>("add_44_cast_fp16")];
            tensor<fp16, [1, 8, 1, 1]> sqrt_22_cast_fp16 = sqrt(x = add_44_cast_fp16)[name = tensor<string, []>("sqrt_22_cast_fp16")];
            tensor<fp16, [1, 8, 8, ?]> real_div_22_cast_fp16 = real_div(x = sub_44_cast_fp16, y = sqrt_22_cast_fp16)[name = tensor<string, []>("real_div_22_cast_fp16")];
            tensor<fp16, [1, 64, ?]> reshape_89_cast_fp16 = reshape(shape = shape_22_cast_fp16, x = real_div_22_cast_fp16)[name = tensor<string, []>("reshape_89_cast_fp16")];
            tensor<fp16, [1, 64, 1]> reshape_90_to_fp16 = const()[name = tensor<string, []>("reshape_90_to_fp16"), val = tensor<fp16, [1, 64, 1]>(BLOBFILE(path = tensor<string, []>("@model_path/weights/weight.bin"), offset = tensor<uint64, []>(1335360)))];
            tensor<fp16, [1, 64, ?]> mul_22_cast_fp16 = mul(x = reshape_89_cast_fp16, y = reshape_90_to_fp16)[name = tensor<string, []>("mul_22_cast_fp16")];
            tensor<fp16, [1, 64, 1]> reshape_91_to_fp16 = const()[name = tensor<string, []>("reshape_91_to_fp16"), val = tensor<fp16, [1, 64, 1]>(BLOBFILE(path = tensor<string, []>("@model_path/weights/weight.bin"), offset = tensor<uint64, []>(1335552)))];
            tensor<fp16, [1, 64, ?]> add_45_cast_fp16 = add(x = mul_22_cast_fp16, y = reshape_91_to_fp16)[name = tensor<string, []>("add_45_cast_fp16")];
            tensor<fp16, [1, 64, ?]> input_117_cast_fp16 = silu(x = add_45_cast_fp16)[name = tensor<string, []>("input_117_cast_fp16")];
            tensor<string, []> input_119_pad_type_0 = const()[name = tensor<string, []>("input_119_pad_type_0"), val = tensor<string, []>("custom")];
            tensor<int32, [2]> input_119_pad_0 = const()[name = tensor<string, []>("input_119_pad_0"), val = tensor<int32, [2]>([6, 6])];
            tensor<int32, [1]> input_119_dilations_0 = const()[name = tensor<string, []>("input_119_dilations_0"), val = tensor<int32, [1]>([2])];
            tensor<int32, [1]> input_119_strides_0 = const()[name = tensor<string, []>("input_119_strides_0"), val = tensor<int32, [1]>([1])];
            tensor<int32, []> input_119_groups_0 = const()[name = tensor<string, []>("input_119_groups_0"), val = tensor<int32, []>(1)];
            tensor<fp16, [64, 64, 7]> blocks_11_3_weight_to_fp16 = const()[name = tensor<string, []>("blocks_11_3_weight_to_fp16"), val = tensor<fp16, [64, 64, 7]>(BLOBFILE(path = tensor<string, []>("@model_path/weights/weight.bin"), offset = tensor<uint64, []>(1335744)))];
            tensor<fp16, [64]> blocks_11_3_bias_to_fp16 = const()[name = tensor<string, []>("blocks_11_3_bias_to_fp16"), val = tensor<fp16, [64]>(BLOBFILE(path = tensor<string, []>("@model_path/weights/weight.bin"), offset = tensor<uint64, []>(1393152)))];
            tensor<fp16, [1, 64, ?]> input_119_cast_fp16 = conv(bias = blocks_11_3_bias_to_fp16, dilations = input_119_dilations_0, groups = input_119_groups_0, pad = input_119_pad_0, pad_type = input_119_pad_type_0, strides = input_119_strides_0, weight = blocks_11_3_weight_to_fp16, x = input_117_cast_fp16)[name = tensor<string, []>("input_119_cast_fp16")];
            tensor<int32, [3]> shape_23_cast_fp16 = shape(x = input_119_cast_fp16)[name = tensor<string, []>("shape_23_cast_fp16")];
            tensor<int32, [4]> concat_23x = const()[name = tensor<string, []>("concat_23x"), val = tensor<int32, [4]>([1, 8, 8, -1])];
            tensor<fp16, [1, 8, 8, ?]> reshape_92_cast_fp16 = reshape(shape = concat_23x, x = input_119_cast_fp16)[name = tensor<string, []>("reshape_92_cast_fp16")];
            tensor<int32, [2]> reduce_mean_69_axes_0 = const()[name = tensor<string, []>("reduce_mean_69_axes_0"), val = tensor<int32, [2]>([2, 3])];
            tensor<bool, []> reduce_mean_69_keep_dims_0 = const()[name = tensor<string, []>("reduce_mean_69_keep_dims_0"), val = tensor<bool, []>(true)];
            tensor<fp16, [1, 8, 1, 1]> reduce_mean_69_cast_fp16 = reduce_mean(axes = reduce_mean_69_axes_0, keep_dims = reduce_mean_69_keep_dims_0, x = reshape_92_cast_fp16)[name = tensor<string, []>("reduce_mean_69_cast_fp16")];
            tensor<fp16, [1, 8, 8, ?]> sub_46_cast_fp16 = sub(x = reshape_92_cast_fp16, y = reduce_mean_69_cast_fp16)[name = tensor<string, []>("sub_46_cast_fp16")];
            tensor<fp16, [1, 8, 8, ?]> square_23_cast_fp16 = square(x = sub_46_cast_fp16)[name = tensor<string, []>("square_23_cast_fp16")];
            tensor<int32, [2]> reduce_mean_71_axes_0 = const()[name = tensor<string, []>("reduce_mean_71_axes_0"), val = tensor<int32, [2]>([2, 3])];
            tensor<bool, []> reduce_mean_71_keep_dims_0 = const()[name = tensor<string, []>("reduce_mean_71_keep_dims_0"), val = tensor<bool, []>(true)];
            tensor<fp16, [1, 8, 1, 1]> reduce_mean_71_cast_fp16 = reduce_mean(axes = reduce_mean_71_axes_0, keep_dims = reduce_mean_71_keep_dims_0, x = square_23_cast_fp16)[name = tensor<string, []>("reduce_mean_71_cast_fp16")];
            tensor<fp16, []> add_46_y_0_to_fp16 = const()[name = tensor<string, []>("add_46_y_0_to_fp16"), val = tensor<fp16, []>(0x1.5p-17)];
            tensor<fp16, [1, 8, 1, 1]> add_46_cast_fp16 = add(x = reduce_mean_71_cast_fp16, y = add_46_y_0_to_fp16)[name = tensor<string, []>("add_46_cast_fp16")];
            tensor<fp16, [1, 8, 1, 1]> sqrt_23_cast_fp16 = sqrt(x = add_46_cast_fp16)[name = tensor<string, []>("sqrt_23_cast_fp16")];
            tensor<fp16, [1, 8, 8, ?]> real_div_23_cast_fp16 = real_div(x = sub_46_cast_fp16, y = sqrt_23_cast_fp16)[name = tensor<string, []>("real_div_23_cast_fp16")];
            tensor<fp16, [1, 64, ?]> reshape_93_cast_fp16 = reshape(shape = shape_23_cast_fp16, x = real_div_23_cast_fp16)[name = tensor<string, []>("reshape_93_cast_fp16")];
            tensor<fp16, [1, 64, 1]> reshape_94_to_fp16 = const()[name = tensor<string, []>("reshape_94_to_fp16"), val = tensor<fp16, [1, 64, 1]>(BLOBFILE(path = tensor<string, []>("@model_path/weights/weight.bin"), offset = tensor<uint64, []>(1393344)))];
            tensor<fp16, [1, 64, ?]> mul_23_cast_fp16 = mul(x = reshape_93_cast_fp16, y = reshape_94_to_fp16)[name = tensor<string, []>("mul_23_cast_fp16")];
            tensor<fp16, [1, 64, 1]> reshape_95_to_fp16 = const()[name = tensor<string, []>("reshape_95_to_fp16"), val = tensor<fp16, [1, 64, 1]>(BLOBFILE(path = tensor<string, []>("@model_path/weights/weight.bin"), offset = tensor<uint64, []>(1393536)))];
            tensor<fp16, [1, 64, ?]> add_47_cast_fp16 = add(x = mul_23_cast_fp16, y = reshape_95_to_fp16)[name = tensor<string, []>("add_47_cast_fp16")];
            tensor<fp16, [1, 64, ?]> input_cast_fp16 = add(x = input_111_cast_fp16, y = add_47_cast_fp16)[name = tensor<string, []>("input_cast_fp16")];
            tensor<string, []> residual_pad_type_0 = const()[name = tensor<string, []>("residual_pad_type_0"), val = tensor<string, []>("custom")];
            tensor<int32, [2]> residual_pad_0 = const()[name = tensor<string, []>("residual_pad_0"), val = tensor<int32, [2]>([3, 3])];
            tensor<int32, [1]> residual_strides_0 = const()[name = tensor<string, []>("residual_strides_0"), val = tensor<int32, [1]>([1])];
            tensor<int32, [1]> residual_dilations_0 = const()[name = tensor<string, []>("residual_dilations_0"), val = tensor<int32, [1]>([1])];
            tensor<int32, []> residual_groups_0 = const()[name = tensor<string, []>("residual_groups_0"), val = tensor<int32, []>(1)];
            tensor<fp16, [2, 64, 7]> var_468_weight_0_to_fp16 = const()[name = tensor<string, []>("op_468_weight_0_to_fp16"), val = tensor<fp16, [2, 64, 7]>(BLOBFILE(path = tensor<string, []>("@model_path/weights/weight.bin"), offset = tensor<uint64, []>(1393728)))];
            tensor<fp16, [2]> var_468_bias_0_to_fp16 = const()[name = tensor<string, []>("op_468_bias_0_to_fp16"), val = tensor<fp16, [2]>([-0x1.c4p-17, -0x1.2cp-15])];
            tensor<fp16, [1, 2, ?]> var_468_cast_fp16 = conv(bias = var_468_bias_0_to_fp16, dilations = residual_dilations_0, groups = residual_groups_0, pad = residual_pad_0, pad_type = residual_pad_type_0, strides = residual_strides_0, weight = var_468_weight_0_to_fp16, x = input_cast_fp16)[name = tensor<string, []>("op_468_cast_fp16")];
            tensor<fp16, [1, 2, ?]> audio_out = add(x = audio_in, y = var_468_cast_fp16)[name = tensor<string, []>("op_470_cast_fp16")];
        } -> (audio_out);
}