program(1.0)
[buildInfo = dict<tensor<string, []>, tensor<string, []>>({{"coremlc-component-MIL", "3304.5.2"}, {"coremlc-version", "3304.6.2"}, {"coremltools-component-torch", "2.7.1"}, {"coremltools-source-dialect", "TorchScript"}, {"coremltools-version", "8.3.0"}})]
{
    func main<ios16>(tensor<fp32, [1, 2, ?]> audio_in) [FlexibleShapeInformation = tuple<tuple<tensor<string, []>, dict<tensor<string, []>, tensor<int32, [?]>>>, tuple<tensor<string, []>, dict<tensor<string, []>, list<tensor<int32, [2]>, ?>>>>((("DefaultShapes", {{"audio_in", [1, 2, 1]}}), ("RangeDims", {{"audio_in", [[1, 1], [2, 2], [1, 65536]]}})))] {
            tensor<fp32, []> residual_scale = const()[name = tensor<string, []>("residual_scale"), val = tensor<fp32, []>(0x1.b1764ap-4)];
            tensor<fp32, [64]> input_proj_bias = const()[name = tensor<string, []>("input_proj_bias"), val = tensor<fp32, [64]>(BLOBFILE(path = tensor<string, []>("@model_path/weights/weight.bin"), offset = tensor<uint64, []>(64)))];
            tensor<fp32, [64, 2, 7]> input_proj_weight = const()[name = tensor<string, []>("input_proj_weight"), val = tensor<fp32, [64, 2, 7]>(BLOBFILE(path = tensor<string, []>("@model_path/weights/weight.bin"), offset = tensor<uint64, []>(384)))];
            tensor<fp32, [64]> blocks_0_conv1_bias = const()[name = tensor<string, []>("blocks_0_conv1_bias"), val = tensor<fp32, [64]>(BLOBFILE(path = tensor<string, []>("@model_path/weights/weight.bin"), offset = tensor<uint64, []>(4032)))];
            tensor<fp32, [64, 64, 7]> blocks_0_conv1_weight = const()[name = tensor<string, []>("blocks_0_conv1_weight"), val = tensor<fp32, [64, 64, 7]>(BLOBFILE(path = tensor<string, []>("@model_path/weights/weight.bin"), offset = tensor<uint64, []>(4352)))];
            tensor<fp32, [64]> blocks_0_conv2_bias = const()[name = tensor<string, []>("blocks_0_conv2_bias"), val = tensor<fp32, [64]>(BLOBFILE(path = tensor<string, []>("@model_path/weights/weight.bin"), offset = tensor<uint64, []>(119104)))];
            tensor<fp32, [64, 64, 7]> blocks_0_conv2_weight = const()[name = tensor<string, []>("blocks_0_conv2_weight"), val = tensor<fp32, [64, 64, 7]>(BLOBFILE(path = tensor<string, []>("@model_path/weights/weight.bin"), offset = tensor<uint64, []>(119424)))];
            tensor<fp32, [64]> blocks_1_conv1_bias = const()[name = tensor<string, []>("blocks_1_conv1_bias"), val = tensor<fp32, [64]>(BLOBFILE(path = tensor<string, []>("@model_path/weights/weight.bin"), offset = tensor<uint64, []>(234176)))];
            tensor<fp32, [64, 64, 7]> blocks_1_conv1_weight = const()[name = tensor<string, []>("blocks_1_conv1_weight"), val = tensor<fp32, [64, 64, 7]>(BLOBFILE(path = tensor<string, []>("@model_path/weights/weight.bin"), offset = tensor<uint64, []>(234496)))];
            tensor<fp32, [64]> blocks_1_conv2_bias = const()[name = tensor<string, []>("blocks_1_conv2_bias"), val = tensor<fp32, [64]>(BLOBFILE(path = tensor<string, []>("@model_path/weights/weight.bin"), offset = tensor<uint64, []>(349248)))];
            tensor<fp32, [64, 64, 7]> blocks_1_conv2_weight = const()[name = tensor<string, []>("blocks_1_conv2_weight"), val = tensor<fp32, [64, 64, 7]>(BLOBFILE(path = tensor<string, []>("@model_path/weights/weight.bin"), offset = tensor<uint64, []>(349568)))];
            tensor<fp32, [64]> blocks_2_conv1_bias = const()[name = tensor<string, []>("blocks_2_conv1_bias"), val = tensor<fp32, [64]>(BLOBFILE(path = tensor<string, []>("@model_path/weights/weight.bin"), offset = tensor<uint64, []>(464320)))];
            tensor<fp32, [64, 64, 7]> blocks_2_conv1_weight = const()[name = tensor<string, []>("blocks_2_conv1_weight"), val = tensor<fp32, [64, 64, 7]>(BLOBFILE(path = tensor<string, []>("@model_path/weights/weight.bin"), offset = tensor<uint64, []>(464640)))];
            tensor<fp32, [64]> blocks_2_conv2_bias = const()[name = tensor<string, []>("blocks_2_conv2_bias"), val = tensor<fp32, [64]>(BLOBFILE(path = tensor<string, []>("@model_path/weights/weight.bin"), offset = tensor<uint64, []>(579392)))];
            tensor<fp32, [64, 64, 7]> blocks_2_conv2_weight = const()[name = tensor<string, []>("blocks_2_conv2_weight"), val = tensor<fp32, [64, 64, 7]>(BLOBFILE(path = tensor<string, []>("@model_path/weights/weight.bin"), offset = tensor<uint64, []>(579712)))];
            tensor<fp32, [64]> blocks_3_conv1_bias = const()[name = tensor<string, []>("blocks_3_conv1_bias"), val = tensor<fp32, [64]>(BLOBFILE(path = tensor<string, []>("@model_path/weights/weight.bin"), offset = tensor<uint64, []>(694464)))];
            tensor<fp32, [64, 64, 7]> blocks_3_conv1_weight = const()[name = tensor<string, []>("blocks_3_conv1_weight"), val = tensor<fp32, [64, 64, 7]>(BLOBFILE(path = tensor<string, []>("@model_path/weights/weight.bin"), offset = tensor<uint64, []>(694784)))];
            tensor<fp32, [64]> blocks_3_conv2_bias = const()[name = tensor<string, []>("blocks_3_conv2_bias"), val = tensor<fp32, [64]>(BLOBFILE(path = tensor<string, []>("@model_path/weights/weight.bin"), offset = tensor<uint64, []>(809536)))];
            tensor<fp32, [64, 64, 7]> blocks_3_conv2_weight = const()[name = tensor<string, []>("blocks_3_conv2_weight"), val = tensor<fp32, [64, 64, 7]>(BLOBFILE(path = tensor<string, []>("@model_path/weights/weight.bin"), offset = tensor<uint64, []>(809856)))];
            tensor<fp32, [64]> blocks_4_conv1_bias = const()[name = tensor<string, []>("blocks_4_conv1_bias"), val = tensor<fp32, [64]>(BLOBFILE(path = tensor<string, []>("@model_path/weights/weight.bin"), offset = tensor<uint64, []>(924608)))];
            tensor<fp32, [64, 64, 7]> blocks_4_conv1_weight = const()[name = tensor<string, []>("blocks_4_conv1_weight"), val = tensor<fp32, [64, 64, 7]>(BLOBFILE(path = tensor<string, []>("@model_path/weights/weight.bin"), offset = tensor<uint64, []>(924928)))];
            tensor<fp32, [64]> blocks_4_conv2_bias = const()[name = tensor<string, []>("blocks_4_conv2_bias"), val = tensor<fp32, [64]>(BLOBFILE(path = tensor<string, []>("@model_path/weights/weight.bin"), offset = tensor<uint64, []>(1039680)))];
            tensor<fp32, [64, 64, 7]> blocks_4_conv2_weight = const()[name = tensor<string, []>("blocks_4_conv2_weight"), val = tensor<fp32, [64, 64, 7]>(BLOBFILE(path = tensor<string, []>("@model_path/weights/weight.bin"), offset = tensor<uint64, []>(1040000)))];
            tensor<fp32, [64]> blocks_5_conv1_bias = const()[name = tensor<string, []>("blocks_5_conv1_bias"), val = tensor<fp32, [64]>(BLOBFILE(path = tensor<string, []>("@model_path/weights/weight.bin"), offset = tensor<uint64, []>(1154752)))];
            tensor<fp32, [64, 64, 7]> blocks_5_conv1_weight = const()[name = tensor<string, []>("blocks_5_conv1_weight"), val = tensor<fp32, [64, 64, 7]>(BLOBFILE(path = tensor<string, []>("@model_path/weights/weight.bin"), offset = tensor<uint64, []>(1155072)))];
            tensor<fp32, [64]> blocks_5_conv2_bias = const()[name = tensor<string, []>("blocks_5_conv2_bias"), val = tensor<fp32, [64]>(BLOBFILE(path = tensor<string, []>("@model_path/weights/weight.bin"), offset = tensor<uint64, []>(1269824)))];
            tensor<fp32, [64, 64, 7]> blocks_5_conv2_weight = const()[name = tensor<string, []>("blocks_5_conv2_weight"), val = tensor<fp32, [64, 64, 7]>(BLOBFILE(path = tensor<string, []>("@model_path/weights/weight.bin"), offset = tensor<uint64, []>(1270144)))];
            tensor<fp32, [64]> blocks_6_conv1_bias = const()[name = tensor<string, []>("blocks_6_conv1_bias"), val = tensor<fp32, [64]>(BLOBFILE(path = tensor<string, []>("@model_path/weights/weight.bin"), offset = tensor<uint64, []>(1384896)))];
            tensor<fp32, [64, 64, 7]> blocks_6_conv1_weight = const()[name = tensor<string, []>("blocks_6_conv1_weight"), val = tensor<fp32, [64, 64, 7]>(BLOBFILE(path = tensor<string, []>("@model_path/weights/weight.bin"), offset = tensor<uint64, []>(1385216)))];
            tensor<fp32, [64]> blocks_6_conv2_bias = const()[name = tensor<string, []>("blocks_6_conv2_bias"), val = tensor<fp32, [64]>(BLOBFILE(path = tensor<string, []>("@model_path/weights/weight.bin"), offset = tensor<uint64, []>(1499968)))];
            tensor<fp32, [64, 64, 7]> blocks_6_conv2_weight = const()[name = tensor<string, []>("blocks_6_conv2_weight"), val = tensor<fp32, [64, 64, 7]>(BLOBFILE(path = tensor<string, []>("@model_path/weights/weight.bin"), offset = tensor<uint64, []>(1500288)))];
            tensor<fp32, [64]> blocks_7_conv1_bias = const()[name = tensor<string, []>("blocks_7_conv1_bias"), val = tensor<fp32, [64]>(BLOBFILE(path = tensor<string, []>("@model_path/weights/weight.bin"), offset = tensor<uint64, []>(1615040)))];
            tensor<fp32, [64, 64, 7]> blocks_7_conv1_weight = const()[name = tensor<string, []>("blocks_7_conv1_weight"), val = tensor<fp32, [64, 64, 7]>(BLOBFILE(path = tensor<string, []>("@model_path/weights/weight.bin"), offset = tensor<uint64, []>(1615360)))];
            tensor<fp32, [64]> blocks_7_conv2_bias = const()[name = tensor<string, []>("blocks_7_conv2_bias"), val = tensor<fp32, [64]>(BLOBFILE(path = tensor<string, []>("@model_path/weights/weight.bin"), offset = tensor<uint64, []>(1730112)))];
            tensor<fp32, [64, 64, 7]> blocks_7_conv2_weight = const()[name = tensor<string, []>("blocks_7_conv2_weight"), val = tensor<fp32, [64, 64, 7]>(BLOBFILE(path = tensor<string, []>("@model_path/weights/weight.bin"), offset = tensor<uint64, []>(1730432)))];
            tensor<fp32, [64]> blocks_8_conv1_bias = const()[name = tensor<string, []>("blocks_8_conv1_bias"), val = tensor<fp32, [64]>(BLOBFILE(path = tensor<string, []>("@model_path/weights/weight.bin"), offset = tensor<uint64, []>(1845184)))];
            tensor<fp32, [64, 64, 7]> blocks_8_conv1_weight = const()[name = tensor<string, []>("blocks_8_conv1_weight"), val = tensor<fp32, [64, 64, 7]>(BLOBFILE(path = tensor<string, []>("@model_path/weights/weight.bin"), offset = tensor<uint64, []>(1845504)))];
            tensor<fp32, [64]> blocks_8_conv2_bias = const()[name = tensor<string, []>("blocks_8_conv2_bias"), val = tensor<fp32, [64]>(BLOBFILE(path = tensor<string, []>("@model_path/weights/weight.bin"), offset = tensor<uint64, []>(1960256)))];
            tensor<fp32, [64, 64, 7]> blocks_8_conv2_weight = const()[name = tensor<string, []>("blocks_8_conv2_weight"), val = tensor<fp32, [64, 64, 7]>(BLOBFILE(path = tensor<string, []>("@model_path/weights/weight.bin"), offset = tensor<uint64, []>(1960576)))];
            tensor<fp32, [64]> blocks_9_conv1_bias = const()[name = tensor<string, []>("blocks_9_conv1_bias"), val = tensor<fp32, [64]>(BLOBFILE(path = tensor<string, []>("@model_path/weights/weight.bin"), offset = tensor<uint64, []>(2075328)))];
            tensor<fp32, [64, 64, 7]> blocks_9_conv1_weight = const()[name = tensor<string, []>("blocks_9_conv1_weight"), val = tensor<fp32, [64, 64, 7]>(BLOBFILE(path = tensor<string, []>("@model_path/weights/weight.bin"), offset = tensor<uint64, []>(2075648)))];
            tensor<fp32, [64]> blocks_9_conv2_bias = const()[name = tensor<string, []>("blocks_9_conv2_bias"), val = tensor<fp32, [64]>(BLOBFILE(path = tensor<string, []>("@model_path/weights/weight.bin"), offset = tensor<uint64, []>(2190400)))];
            tensor<fp32, [64, 64, 7]> blocks_9_conv2_weight = const()[name = tensor<string, []>("blocks_9_conv2_weight"), val = tensor<fp32, [64, 64, 7]>(BLOBFILE(path = tensor<string, []>("@model_path/weights/weight.bin"), offset = tensor<uint64, []>(2190720)))];
            tensor<fp32, [64]> blocks_10_conv1_bias = const()[name = tensor<string, []>("blocks_10_conv1_bias"), val = tensor<fp32, [64]>(BLOBFILE(path = tensor<string, []>("@model_path/weights/weight.bin"), offset = tensor<uint64, []>(2305472)))];
            tensor<fp32, [64, 64, 7]> blocks_10_conv1_weight = const()[name = tensor<string, []>("blocks_10_conv1_weight"), val = tensor<fp32, [64, 64, 7]>(BLOBFILE(path = tensor<string, []>("@model_path/weights/weight.bin"), offset = tensor<uint64, []>(2305792)))];
            tensor<fp32, [64]> blocks_10_conv2_bias = const()[name = tensor<string, []>("blocks_10_conv2_bias"), val = tensor<fp32, [64]>(BLOBFILE(path = tensor<string, []>("@model_path/weights/weight.bin"), offset = tensor<uint64, []>(2420544)))];
            tensor<fp32, [64, 64, 7]> blocks_10_conv2_weight = const()[name = tensor<string, []>("blocks_10_conv2_weight"), val = tensor<fp32, [64, 64, 7]>(BLOBFILE(path = tensor<string, []>("@model_path/weights/weight.bin"), offset = tensor<uint64, []>(2420864)))];
            tensor<fp32, [64]> blocks_11_conv1_bias = const()[name = tensor<string, []>("blocks_11_conv1_bias"), val = tensor<fp32, [64]>(BLOBFILE(path = tensor<string, []>("@model_path/weights/weight.bin"), offset = tensor<uint64, []>(2535616)))];
            tensor<fp32, [64, 64, 7]> blocks_11_conv1_weight = const()[name = tensor<string, []>("blocks_11_conv1_weight"), val = tensor<fp32, [64, 64, 7]>(BLOBFILE(path = tensor<string, []>("@model_path/weights/weight.bin"), offset = tensor<uint64, []>(2535936)))];
            tensor<fp32, [64]> blocks_11_conv2_bias = const()[name = tensor<string, []>("blocks_11_conv2_bias"), val = tensor<fp32, [64]>(BLOBFILE(path = tensor<string, []>("@model_path/weights/weight.bin"), offset = tensor<uint64, []>(2650688)))];
            tensor<fp32, [64, 64, 7]> blocks_11_conv2_weight = const()[name = tensor<string, []>("blocks_11_conv2_weight"), val = tensor<fp32, [64, 64, 7]>(BLOBFILE(path = tensor<string, []>("@model_path/weights/weight.bin"), offset = tensor<uint64, []>(2651008)))];
            tensor<fp32, [2]> output_proj_bias = const()[name = tensor<string, []>("output_proj_bias"), val = tensor<fp32, [2]>([-0x1.847262p-12, -0x1.9951f6p-16])];
            tensor<fp32, [2, 64, 7]> output_proj_weight = const()[name = tensor<string, []>("output_proj_weight"), val = tensor<fp32, [2, 64, 7]>(BLOBFILE(path = tensor<string, []>("@model_path/weights/weight.bin"), offset = tensor<uint64, []>(2765760)))];
            tensor<string, []> input_1_pad_type_0 = const()[name = tensor<string, []>("input_1_pad_type_0"), val = tensor<string, []>("custom")];
            tensor<int32, [2]> input_1_pad_0 = const()[name = tensor<string, []>("input_1_pad_0"), val = tensor<int32, [2]>([3, 3])];
            tensor<int32, [1]> input_1_strides_0 = const()[name = tensor<string, []>("input_1_strides_0"), val = tensor<int32, [1]>([1])];
            tensor<int32, [1]> input_1_dilations_0 = const()[name = tensor<string, []>("input_1_dilations_0"), val = tensor<int32, [1]>([1])];
            tensor<int32, []> input_1_groups_0 = const()[name = tensor<string, []>("input_1_groups_0"), val = tensor<int32, []>(1)];
            tensor<fp32, [1, 64, ?]> input_1 = conv(bias = input_proj_bias, dilations = input_1_dilations_0, groups = input_1_groups_0, pad = input_1_pad_0, pad_type = input_1_pad_type_0, strides = input_1_strides_0, weight = input_proj_weight, x = audio_in)[name = tensor<string, []>("input_1")];
            tensor<string, []> input_3_pad_type_0 = const()[name = tensor<string, []>("input_3_pad_type_0"), val = tensor<string, []>("custom")];
            tensor<int32, [2]> input_3_pad_0 = const()[name = tensor<string, []>("input_3_pad_0"), val = tensor<int32, [2]>([3, 3])];
            tensor<int32, [1]> input_3_strides_0 = const()[name = tensor<string, []>("input_3_strides_0"), val = tensor<int32, [1]>([1])];
            tensor<int32, [1]> input_3_dilations_0 = const()[name = tensor<string, []>("input_3_dilations_0"), val = tensor<int32, [1]>([1])];
            tensor<int32, []> input_3_groups_0 = const()[name = tensor<string, []>("input_3_groups_0"), val = tensor<int32, []>(1)];
            tensor<fp32, [1, 64, ?]> input_3 = conv(bias = blocks_0_conv1_bias, dilations = input_3_dilations_0, groups = input_3_groups_0, pad = input_3_pad_0, pad_type = input_3_pad_type_0, strides = input_3_strides_0, weight = blocks_0_conv1_weight, x = input_1)[name = tensor<string, []>("input_3")];
            tensor<int32, [3]> shape_0 = shape(x = input_3)[name = tensor<string, []>("shape_0")];
            tensor<int32, [4]> concat_0x = const()[name = tensor<string, []>("concat_0x"), val = tensor<int32, [4]>([1, 8, 8, -1])];
            tensor<fp32, [1, 8, 8, ?]> reshape_0 = reshape(shape = concat_0x, x = input_3)[name = tensor<string, []>("reshape_0")];
            tensor<int32, [2]> reduce_mean_0_axes_0 = const()[name = tensor<string, []>("reduce_mean_0_axes_0"), val = tensor<int32, [2]>([2, 3])];
            tensor<bool, []> reduce_mean_0_keep_dims_0 = const()[name = tensor<string, []>("reduce_mean_0_keep_dims_0"), val = tensor<bool, []>(true)];
            tensor<fp32, [1, 8, 1, 1]> reduce_mean_0 = reduce_mean(axes = reduce_mean_0_axes_0, keep_dims = reduce_mean_0_keep_dims_0, x = reshape_0)[name = tensor<string, []>("reduce_mean_0")];
            tensor<fp32, [1, 8, 8, ?]> sub_0 = sub(x = reshape_0, y = reduce_mean_0)[name = tensor<string, []>("sub_0")];
            tensor<fp32, [1, 8, 8, ?]> square_0 = square(x = sub_0)[name = tensor<string, []>("square_0")];
            tensor<int32, [2]> reduce_mean_2_axes_0 = const()[name = tensor<string, []>("reduce_mean_2_axes_0"), val = tensor<int32, [2]>([2, 3])];
            tensor<bool, []> reduce_mean_2_keep_dims_0 = const()[name = tensor<string, []>("reduce_mean_2_keep_dims_0"), val = tensor<bool, []>(true)];
            tensor<fp32, [1, 8, 1, 1]> reduce_mean_2 = reduce_mean(axes = reduce_mean_2_axes_0, keep_dims = reduce_mean_2_keep_dims_0, x = square_0)[name = tensor<string, []>("reduce_mean_2")];
            tensor<fp32, []> add_0_y_0 = const()[name = tensor<string, []>("add_0_y_0"), val = tensor<fp32, []>(0x1.4f8b58p-17)];
            tensor<fp32, [1, 8, 1, 1]> add_0 = add(x = reduce_mean_2, y = add_0_y_0)[name = tensor<string, []>("add_0")];
            tensor<fp32, [1, 8, 1, 1]> sqrt_0 = sqrt(x = add_0)[name = tensor<string, []>("sqrt_0")];
            tensor<fp32, [1, 8, 8, ?]> real_div_0 = real_div(x = sub_0, y = sqrt_0)[name = tensor<string, []>("real_div_0")];
            tensor<fp32, [1, 64, ?]> reshape_1 = reshape(shape = shape_0, x = real_div_0)[name = tensor<string, []>("reshape_1")];
            tensor<fp32, [1, 64, 1]> reshape_2 = const()[name = tensor<string, []>("reshape_2"), val = tensor<fp32, [1, 64, 1]>(BLOBFILE(path = tensor<string, []>("@model_path/weights/weight.bin"), offset = tensor<uint64, []>(2769408)))];
            tensor<fp32, [1, 64, ?]> mul_0 = mul(x = reshape_1, y = reshape_2)[name = tensor<string, []>("mul_0")];
            tensor<fp32, [1, 64, 1]> reshape_3 = const()[name = tensor<string, []>("reshape_3"), val = tensor<fp32, [1, 64, 1]>(BLOBFILE(path = tensor<string, []>("@model_path/weights/weight.bin"), offset = tensor<uint64, []>(2769728)))];
            tensor<fp32, [1, 64, ?]> add_1 = add(x = mul_0, y = reshape_3)[name = tensor<string, []>("add_1")];
            tensor<fp32, [1, 64, ?]> input_5 = silu(x = add_1)[name = tensor<string, []>("input_5")];
            tensor<string, []> input_7_pad_type_0 = const()[name = tensor<string, []>("input_7_pad_type_0"), val = tensor<string, []>("custom")];
            tensor<int32, [2]> input_7_pad_0 = const()[name = tensor<string, []>("input_7_pad_0"), val = tensor<int32, [2]>([3, 3])];
            tensor<int32, [1]> input_7_strides_0 = const()[name = tensor<string, []>("input_7_strides_0"), val = tensor<int32, [1]>([1])];
            tensor<int32, [1]> input_7_dilations_0 = const()[name = tensor<string, []>("input_7_dilations_0"), val = tensor<int32, [1]>([1])];
            tensor<int32, []> input_7_groups_0 = const()[name = tensor<string, []>("input_7_groups_0"), val = tensor<int32, []>(1)];
            tensor<fp32, [1, 64, ?]> input_7 = conv(bias = blocks_0_conv2_bias, dilations = input_7_dilations_0, groups = input_7_groups_0, pad = input_7_pad_0, pad_type = input_7_pad_type_0, strides = input_7_strides_0, weight = blocks_0_conv2_weight, x = input_5)[name = tensor<string, []>("input_7")];
            tensor<int32, [3]> shape_1 = shape(x = input_7)[name = tensor<string, []>("shape_1")];
            tensor<int32, [4]> concat_1x = const()[name = tensor<string, []>("concat_1x"), val = tensor<int32, [4]>([1, 8, 8, -1])];
            tensor<fp32, [1, 8, 8, ?]> reshape_4 = reshape(shape = concat_1x, x = input_7)[name = tensor<string, []>("reshape_4")];
            tensor<int32, [2]> reduce_mean_3_axes_0 = const()[name = tensor<string, []>("reduce_mean_3_axes_0"), val = tensor<int32, [2]>([2, 3])];
            tensor<bool, []> reduce_mean_3_keep_dims_0 = const()[name = tensor<string, []>("reduce_mean_3_keep_dims_0"), val = tensor<bool, []>(true)];
            tensor<fp32, [1, 8, 1, 1]> reduce_mean_3 = reduce_mean(axes = reduce_mean_3_axes_0, keep_dims = reduce_mean_3_keep_dims_0, x = reshape_4)[name = tensor<string, []>("reduce_mean_3")];
            tensor<fp32, [1, 8, 8, ?]> sub_2 = sub(x = reshape_4, y = reduce_mean_3)[name = tensor<string, []>("sub_2")];
            tensor<fp32, [1, 8, 8, ?]> square_1 = square(x = sub_2)[name = tensor<string, []>("square_1")];
            tensor<int32, [2]> reduce_mean_5_axes_0 = const()[name = tensor<string, []>("reduce_mean_5_axes_0"), val = tensor<int32, [2]>([2, 3])];
            tensor<bool, []> reduce_mean_5_keep_dims_0 = const()[name = tensor<string, []>("reduce_mean_5_keep_dims_0"), val = tensor<bool, []>(true)];
            tensor<fp32, [1, 8, 1, 1]> reduce_mean_5 = reduce_mean(axes = reduce_mean_5_axes_0, keep_dims = reduce_mean_5_keep_dims_0, x = square_1)[name = tensor<string, []>("reduce_mean_5")];
            tensor<fp32, []> add_2_y_0 = const()[name = tensor<string, []>("add_2_y_0"), val = tensor<fp32, []>(0x1.4f8b58p-17)];
            tensor<fp32, [1, 8, 1, 1]> add_2 = add(x = reduce_mean_5, y = add_2_y_0)[name = tensor<string, []>("add_2")];
            tensor<fp32, [1, 8, 1, 1]> sqrt_1 = sqrt(x = add_2)[name = tensor<string, []>("sqrt_1")];
            tensor<fp32, [1, 8, 8, ?]> real_div_1 = real_div(x = sub_2, y = sqrt_1)[name = tensor<string, []>("real_div_1")];
            tensor<fp32, [1, 64, ?]> reshape_5 = reshape(shape = shape_1, x = real_div_1)[name = tensor<string, []>("reshape_5")];
            tensor<fp32, [1, 64, 1]> reshape_6 = const()[name = tensor<string, []>("reshape_6"), val = tensor<fp32, [1, 64, 1]>(BLOBFILE(path = tensor<string, []>("@model_path/weights/weight.bin"), offset = tensor<uint64, []>(2770048)))];
            tensor<fp32, [1, 64, ?]> mul_1 = mul(x = reshape_5, y = reshape_6)[name = tensor<string, []>("mul_1")];
            tensor<fp32, [1, 64, 1]> reshape_7 = const()[name = tensor<string, []>("reshape_7"), val = tensor<fp32, [1, 64, 1]>(BLOBFILE(path = tensor<string, []>("@model_path/weights/weight.bin"), offset = tensor<uint64, []>(2770368)))];
            tensor<fp32, [1, 64, ?]> add_3 = add(x = mul_1, y = reshape_7)[name = tensor<string, []>("add_3")];
            tensor<fp32, [1, 64, ?]> input_9 = add(x = add_3, y = input_1)[name = tensor<string, []>("input_9")];
            tensor<string, []> input_11_pad_type_0 = const()[name = tensor<string, []>("input_11_pad_type_0"), val = tensor<string, []>("custom")];
            tensor<int32, [2]> input_11_pad_0 = const()[name = tensor<string, []>("input_11_pad_0"), val = tensor<int32, [2]>([3, 3])];
            tensor<int32, [1]> input_11_strides_0 = const()[name = tensor<string, []>("input_11_strides_0"), val = tensor<int32, [1]>([1])];
            tensor<int32, [1]> input_11_dilations_0 = const()[name = tensor<string, []>("input_11_dilations_0"), val = tensor<int32, [1]>([1])];
            tensor<int32, []> input_11_groups_0 = const()[name = tensor<string, []>("input_11_groups_0"), val = tensor<int32, []>(1)];
            tensor<fp32, [1, 64, ?]> input_11 = conv(bias = blocks_1_conv1_bias, dilations = input_11_dilations_0, groups = input_11_groups_0, pad = input_11_pad_0, pad_type = input_11_pad_type_0, strides = input_11_strides_0, weight = blocks_1_conv1_weight, x = input_9)[name = tensor<string, []>("input_11")];
            tensor<int32, [3]> shape_2 = shape(x = input_11)[name = tensor<string, []>("shape_2")];
            tensor<int32, [4]> concat_2x = const()[name = tensor<string, []>("concat_2x"), val = tensor<int32, [4]>([1, 8, 8, -1])];
            tensor<fp32, [1, 8, 8, ?]> reshape_8 = reshape(shape = concat_2x, x = input_11)[name = tensor<string, []>("reshape_8")];
            tensor<int32, [2]> reduce_mean_6_axes_0 = const()[name = tensor<string, []>("reduce_mean_6_axes_0"), val = tensor<int32, [2]>([2, 3])];
            tensor<bool, []> reduce_mean_6_keep_dims_0 = const()[name = tensor<string, []>("reduce_mean_6_keep_dims_0"), val = tensor<bool, []>(true)];
            tensor<fp32, [1, 8, 1, 1]> reduce_mean_6 = reduce_mean(axes = reduce_mean_6_axes_0, keep_dims = reduce_mean_6_keep_dims_0, x = reshape_8)[name = tensor<string, []>("reduce_mean_6")];
            tensor<fp32, [1, 8, 8, ?]> sub_4 = sub(x = reshape_8, y = reduce_mean_6)[name = tensor<string, []>("sub_4")];
            tensor<fp32, [1, 8, 8, ?]> square_2 = square(x = sub_4)[name = tensor<string, []>("square_2")];
            tensor<int32, [2]> reduce_mean_8_axes_0 = const()[name = tensor<string, []>("reduce_mean_8_axes_0"), val = tensor<int32, [2]>([2, 3])];
            tensor<bool, []> reduce_mean_8_keep_dims_0 = const()[name = tensor<string, []>("reduce_mean_8_keep_dims_0"), val = tensor<bool, []>(true)];
            tensor<fp32, [1, 8, 1, 1]> reduce_mean_8 = reduce_mean(axes = reduce_mean_8_axes_0, keep_dims = reduce_mean_8_keep_dims_0, x = square_2)[name = tensor<string, []>("reduce_mean_8")];
            tensor<fp32, []> add_4_y_0 = const()[name = tensor<string, []>("add_4_y_0"), val = tensor<fp32, []>(0x1.4f8b58p-17)];
            tensor<fp32, [1, 8, 1, 1]> add_4 = add(x = reduce_mean_8, y = add_4_y_0)[name = tensor<string, []>("add_4")];
            tensor<fp32, [1, 8, 1, 1]> sqrt_2 = sqrt(x = add_4)[name = tensor<string, []>("sqrt_2")];
            tensor<fp32, [1, 8, 8, ?]> real_div_2 = real_div(x = sub_4, y = sqrt_2)[name = tensor<string, []>("real_div_2")];
            tensor<fp32, [1, 64, ?]> reshape_9 = reshape(shape = shape_2, x = real_div_2)[name = tensor<string, []>("reshape_9")];
            tensor<fp32, [1, 64, 1]> reshape_10 = const()[name = tensor<string, []>("reshape_10"), val = tensor<fp32, [1, 64, 1]>(BLOBFILE(path = tensor<string, []>("@model_path/weights/weight.bin"), offset = tensor<uint64, []>(2770688)))];
            tensor<fp32, [1, 64, ?]> mul_2 = mul(x = reshape_9, y = reshape_10)[name = tensor<string, []>("mul_2")];
            tensor<fp32, [1, 64, 1]> reshape_11 = const()[name = tensor<string, []>("reshape_11"), val = tensor<fp32, [1, 64, 1]>(BLOBFILE(path = tensor<string, []>("@model_path/weights/weight.bin"), offset = tensor<uint64, []>(2771008)))];
            tensor<fp32, [1, 64, ?]> add_5 = add(x = mul_2, y = reshape_11)[name = tensor<string, []>("add_5")];
            tensor<fp32, [1, 64, ?]> input_13 = silu(x = add_5)[name = tensor<string, []>("input_13")];
            tensor<string, []> input_15_pad_type_0 = const()[name = tensor<string, []>("input_15_pad_type_0"), val = tensor<string, []>("custom")];
            tensor<int32, [2]> input_15_pad_0 = const()[name = tensor<string, []>("input_15_pad_0"), val = tensor<int32, [2]>([3, 3])];
            tensor<int32, [1]> input_15_strides_0 = const()[name = tensor<string, []>("input_15_strides_0"), val = tensor<int32, [1]>([1])];
            tensor<int32, [1]> input_15_dilations_0 = const()[name = tensor<string, []>("input_15_dilations_0"), val = tensor<int32, [1]>([1])];
            tensor<int32, []> input_15_groups_0 = const()[name = tensor<string, []>("input_15_groups_0"), val = tensor<int32, []>(1)];
            tensor<fp32, [1, 64, ?]> input_15 = conv(bias = blocks_1_conv2_bias, dilations = input_15_dilations_0, groups = input_15_groups_0, pad = input_15_pad_0, pad_type = input_15_pad_type_0, strides = input_15_strides_0, weight = blocks_1_conv2_weight, x = input_13)[name = tensor<string, []>("input_15")];
            tensor<int32, [3]> shape_3 = shape(x = input_15)[name = tensor<string, []>("shape_3")];
            tensor<int32, [4]> concat_3x = const()[name = tensor<string, []>("concat_3x"), val = tensor<int32, [4]>([1, 8, 8, -1])];
            tensor<fp32, [1, 8, 8, ?]> reshape_12 = reshape(shape = concat_3x, x = input_15)[name = tensor<string, []>("reshape_12")];
            tensor<int32, [2]> reduce_mean_9_axes_0 = const()[name = tensor<string, []>("reduce_mean_9_axes_0"), val = tensor<int32, [2]>([2, 3])];
            tensor<bool, []> reduce_mean_9_keep_dims_0 = const()[name = tensor<string, []>("reduce_mean_9_keep_dims_0"), val = tensor<bool, []>(true)];
            tensor<fp32, [1, 8, 1, 1]> reduce_mean_9 = reduce_mean(axes = reduce_mean_9_axes_0, keep_dims = reduce_mean_9_keep_dims_0, x = reshape_12)[name = tensor<string, []>("reduce_mean_9")];
            tensor<fp32, [1, 8, 8, ?]> sub_6 = sub(x = reshape_12, y = reduce_mean_9)[name = tensor<string, []>("sub_6")];
            tensor<fp32, [1, 8, 8, ?]> square_3 = square(x = sub_6)[name = tensor<string, []>("square_3")];
            tensor<int32, [2]> reduce_mean_11_axes_0 = const()[name = tensor<string, []>("reduce_mean_11_axes_0"), val = tensor<int32, [2]>([2, 3])];
            tensor<bool, []> reduce_mean_11_keep_dims_0 = const()[name = tensor<string, []>("reduce_mean_11_keep_dims_0"), val = tensor<bool, []>(true)];
            tensor<fp32, [1, 8, 1, 1]> reduce_mean_11 = reduce_mean(axes = reduce_mean_11_axes_0, keep_dims = reduce_mean_11_keep_dims_0, x = square_3)[name = tensor<string, []>("reduce_mean_11")];
            tensor<fp32, []> add_6_y_0 = const()[name = tensor<string, []>("add_6_y_0"), val = tensor<fp32, []>(0x1.4f8b58p-17)];
            tensor<fp32, [1, 8, 1, 1]> add_6 = add(x = reduce_mean_11, y = add_6_y_0)[name = tensor<string, []>("add_6")];
            tensor<fp32, [1, 8, 1, 1]> sqrt_3 = sqrt(x = add_6)[name = tensor<string, []>("sqrt_3")];
            tensor<fp32, [1, 8, 8, ?]> real_div_3 = real_div(x = sub_6, y = sqrt_3)[name = tensor<string, []>("real_div_3")];
            tensor<fp32, [1, 64, ?]> reshape_13 = reshape(shape = shape_3, x = real_div_3)[name = tensor<string, []>("reshape_13")];
            tensor<fp32, [1, 64, 1]> reshape_14 = const()[name = tensor<string, []>("reshape_14"), val = tensor<fp32, [1, 64, 1]>(BLOBFILE(path = tensor<string, []>("@model_path/weights/weight.bin"), offset = tensor<uint64, []>(2771328)))];
            tensor<fp32, [1, 64, ?]> mul_3 = mul(x = reshape_13, y = reshape_14)[name = tensor<string, []>("mul_3")];
            tensor<fp32, [1, 64, 1]> reshape_15 = const()[name = tensor<string, []>("reshape_15"), val = tensor<fp32, [1, 64, 1]>(BLOBFILE(path = tensor<string, []>("@model_path/weights/weight.bin"), offset = tensor<uint64, []>(2771648)))];
            tensor<fp32, [1, 64, ?]> add_7 = add(x = mul_3, y = reshape_15)[name = tensor<string, []>("add_7")];
            tensor<fp32, [1, 64, ?]> input_17 = add(x = add_7, y = input_9)[name = tensor<string, []>("input_17")];
            tensor<string, []> input_19_pad_type_0 = const()[name = tensor<string, []>("input_19_pad_type_0"), val = tensor<string, []>("custom")];
            tensor<int32, [2]> input_19_pad_0 = const()[name = tensor<string, []>("input_19_pad_0"), val = tensor<int32, [2]>([3, 3])];
            tensor<int32, [1]> input_19_strides_0 = const()[name = tensor<string, []>("input_19_strides_0"), val = tensor<int32, [1]>([1])];
            tensor<int32, [1]> input_19_dilations_0 = const()[name = tensor<string, []>("input_19_dilations_0"), val = tensor<int32, [1]>([1])];
            tensor<int32, []> input_19_groups_0 = const()[name = tensor<string, []>("input_19_groups_0"), val = tensor<int32, []>(1)];
            tensor<fp32, [1, 64, ?]> input_19 = conv(bias = blocks_2_conv1_bias, dilations = input_19_dilations_0, groups = input_19_groups_0, pad = input_19_pad_0, pad_type = input_19_pad_type_0, strides = input_19_strides_0, weight = blocks_2_conv1_weight, x = input_17)[name = tensor<string, []>("input_19")];
            tensor<int32, [3]> shape_4 = shape(x = input_19)[name = tensor<string, []>("shape_4")];
            tensor<int32, [4]> concat_4x = const()[name = tensor<string, []>("concat_4x"), val = tensor<int32, [4]>([1, 8, 8, -1])];
            tensor<fp32, [1, 8, 8, ?]> reshape_16 = reshape(shape = concat_4x, x = input_19)[name = tensor<string, []>("reshape_16")];
            tensor<int32, [2]> reduce_mean_12_axes_0 = const()[name = tensor<string, []>("reduce_mean_12_axes_0"), val = tensor<int32, [2]>([2, 3])];
            tensor<bool, []> reduce_mean_12_keep_dims_0 = const()[name = tensor<string, []>("reduce_mean_12_keep_dims_0"), val = tensor<bool, []>(true)];
            tensor<fp32, [1, 8, 1, 1]> reduce_mean_12 = reduce_mean(axes = reduce_mean_12_axes_0, keep_dims = reduce_mean_12_keep_dims_0, x = reshape_16)[name = tensor<string, []>("reduce_mean_12")];
            tensor<fp32, [1, 8, 8, ?]> sub_8 = sub(x = reshape_16, y = reduce_mean_12)[name = tensor<string, []>("sub_8")];
            tensor<fp32, [1, 8, 8, ?]> square_4 = square(x = sub_8)[name = tensor<string, []>("square_4")];
            tensor<int32, [2]> reduce_mean_14_axes_0 = const()[name = tensor<string, []>("reduce_mean_14_axes_0"), val = tensor<int32, [2]>([2, 3])];
            tensor<bool, []> reduce_mean_14_keep_dims_0 = const()[name = tensor<string, []>("reduce_mean_14_keep_dims_0"), val = tensor<bool, []>(true)];
            tensor<fp32, [1, 8, 1, 1]> reduce_mean_14 = reduce_mean(axes = reduce_mean_14_axes_0, keep_dims = reduce_mean_14_keep_dims_0, x = square_4)[name = tensor<string, []>("reduce_mean_14")];
            tensor<fp32, []> add_8_y_0 = const()[name = tensor<string, []>("add_8_y_0"), val = tensor<fp32, []>(0x1.4f8b58p-17)];
            tensor<fp32, [1, 8, 1, 1]> add_8 = add(x = reduce_mean_14, y = add_8_y_0)[name = tensor<string, []>("add_8")];
            tensor<fp32, [1, 8, 1, 1]> sqrt_4 = sqrt(x = add_8)[name = tensor<string, []>("sqrt_4")];
            tensor<fp32, [1, 8, 8, ?]> real_div_4 = real_div(x = sub_8, y = sqrt_4)[name = tensor<string, []>("real_div_4")];
            tensor<fp32, [1, 64, ?]> reshape_17 = reshape(shape = shape_4, x = real_div_4)[name = tensor<string, []>("reshape_17")];
            tensor<fp32, [1, 64, 1]> reshape_18 = const()[name = tensor<string, []>("reshape_18"), val = tensor<fp32, [1, 64, 1]>(BLOBFILE(path = tensor<string, []>("@model_path/weights/weight.bin"), offset = tensor<uint64, []>(2771968)))];
            tensor<fp32, [1, 64, ?]> mul_4 = mul(x = reshape_17, y = reshape_18)[name = tensor<string, []>("mul_4")];
            tensor<fp32, [1, 64, 1]> reshape_19 = const()[name = tensor<string, []>("reshape_19"), val = tensor<fp32, [1, 64, 1]>(BLOBFILE(path = tensor<string, []>("@model_path/weights/weight.bin"), offset = tensor<uint64, []>(2772288)))];
            tensor<fp32, [1, 64, ?]> add_9 = add(x = mul_4, y = reshape_19)[name = tensor<string, []>("add_9")];
            tensor<fp32, [1, 64, ?]> input_21 = silu(x = add_9)[name = tensor<string, []>("input_21")];
            tensor<string, []> input_23_pad_type_0 = const()[name = tensor<string, []>("input_23_pad_type_0"), val = tensor<string, []>("custom")];
            tensor<int32, [2]> input_23_pad_0 = const()[name = tensor<string, []>("input_23_pad_0"), val = tensor<int32, [2]>([3, 3])];
            tensor<int32, [1]> input_23_strides_0 = const()[name = tensor<string, []>("input_23_strides_0"), val = tensor<int32, [1]>([1])];
            tensor<int32, [1]> input_23_dilations_0 = const()[name = tensor<string, []>("input_23_dilations_0"), val = tensor<int32, [1]>([1])];
            tensor<int32, []> input_23_groups_0 = const()[name = tensor<string, []>("input_23_groups_0"), val = tensor<int32, []>(1)];
            tensor<fp32, [1, 64, ?]> input_23 = conv(bias = blocks_2_conv2_bias, dilations = input_23_dilations_0, groups = input_23_groups_0, pad = input_23_pad_0, pad_type = input_23_pad_type_0, strides = input_23_strides_0, weight = blocks_2_conv2_weight, x = input_21)[name = tensor<string, []>("input_23")];
            tensor<int32, [3]> shape_5 = shape(x = input_23)[name = tensor<string, []>("shape_5")];
            tensor<int32, [4]> concat_5x = const()[name = tensor<string, []>("concat_5x"), val = tensor<int32, [4]>([1, 8, 8, -1])];
            tensor<fp32, [1, 8, 8, ?]> reshape_20 = reshape(shape = concat_5x, x = input_23)[name = tensor<string, []>("reshape_20")];
            tensor<int32, [2]> reduce_mean_15_axes_0 = const()[name = tensor<string, []>("reduce_mean_15_axes_0"), val = tensor<int32, [2]>([2, 3])];
            tensor<bool, []> reduce_mean_15_keep_dims_0 = const()[name = tensor<string, []>("reduce_mean_15_keep_dims_0"), val = tensor<bool, []>(true)];
            tensor<fp32, [1, 8, 1, 1]> reduce_mean_15 = reduce_mean(axes = reduce_mean_15_axes_0, keep_dims = reduce_mean_15_keep_dims_0, x = reshape_20)[name = tensor<string, []>("reduce_mean_15")];
            tensor<fp32, [1, 8, 8, ?]> sub_10 = sub(x = reshape_20, y = reduce_mean_15)[name = tensor<string, []>("sub_10")];
            tensor<fp32, [1, 8, 8, ?]> square_5 = square(x = sub_10)[name = tensor<string, []>("square_5")];
            tensor<int32, [2]> reduce_mean_17_axes_0 = const()[name = tensor<string, []>("reduce_mean_17_axes_0"), val = tensor<int32, [2]>([2, 3])];
            tensor<bool, []> reduce_mean_17_keep_dims_0 = const()[name = tensor<string, []>("reduce_mean_17_keep_dims_0"), val = tensor<bool, []>(true)];
            tensor<fp32, [1, 8, 1, 1]> reduce_mean_17 = reduce_mean(axes = reduce_mean_17_axes_0, keep_dims = reduce_mean_17_keep_dims_0, x = square_5)[name = tensor<string, []>("reduce_mean_17")];
            tensor<fp32, []> add_10_y_0 = const()[name = tensor<string, []>("add_10_y_0"), val = tensor<fp32, []>(0x1.4f8b58p-17)];
            tensor<fp32, [1, 8, 1, 1]> add_10 = add(x = reduce_mean_17, y = add_10_y_0)[name = tensor<string, []>("add_10")];
            tensor<fp32, [1, 8, 1, 1]> sqrt_5 = sqrt(x = add_10)[name = tensor<string, []>("sqrt_5")];
            tensor<fp32, [1, 8, 8, ?]> real_div_5 = real_div(x = sub_10, y = sqrt_5)[name = tensor<string, []>("real_div_5")];
            tensor<fp32, [1, 64, ?]> reshape_21 = reshape(shape = shape_5, x = real_div_5)[name = tensor<string, []>("reshape_21")];
            tensor<fp32, [1, 64, 1]> reshape_22 = const()[name = tensor<string, []>("reshape_22"), val = tensor<fp32, [1, 64, 1]>(BLOBFILE(path = tensor<string, []>("@model_path/weights/weight.bin"), offset = tensor<uint64, []>(2772608)))];
            tensor<fp32, [1, 64, ?]> mul_5 = mul(x = reshape_21, y = reshape_22)[name = tensor<string, []>("mul_5")];
            tensor<fp32, [1, 64, 1]> reshape_23 = const()[name = tensor<string, []>("reshape_23"), val = tensor<fp32, [1, 64, 1]>(BLOBFILE(path = tensor<string, []>("@model_path/weights/weight.bin"), offset = tensor<uint64, []>(2772928)))];
            tensor<fp32, [1, 64, ?]> add_11 = add(x = mul_5, y = reshape_23)[name = tensor<string, []>("add_11")];
            tensor<fp32, [1, 64, ?]> input_25 = add(x = add_11, y = input_17)[name = tensor<string, []>("input_25")];
            tensor<string, []> input_27_pad_type_0 = const()[name = tensor<string, []>("input_27_pad_type_0"), val = tensor<string, []>("custom")];
            tensor<int32, [2]> input_27_pad_0 = const()[name = tensor<string, []>("input_27_pad_0"), val = tensor<int32, [2]>([3, 3])];
            tensor<int32, [1]> input_27_strides_0 = const()[name = tensor<string, []>("input_27_strides_0"), val = tensor<int32, [1]>([1])];
            tensor<int32, [1]> input_27_dilations_0 = const()[name = tensor<string, []>("input_27_dilations_0"), val = tensor<int32, [1]>([1])];
            tensor<int32, []> input_27_groups_0 = const()[name = tensor<string, []>("input_27_groups_0"), val = tensor<int32, []>(1)];
            tensor<fp32, [1, 64, ?]> input_27 = conv(bias = blocks_3_conv1_bias, dilations = input_27_dilations_0, groups = input_27_groups_0, pad = input_27_pad_0, pad_type = input_27_pad_type_0, strides = input_27_strides_0, weight = blocks_3_conv1_weight, x = input_25)[name = tensor<string, []>("input_27")];
            tensor<int32, [3]> shape_6 = shape(x = input_27)[name = tensor<string, []>("shape_6")];
            tensor<int32, [4]> concat_6x = const()[name = tensor<string, []>("concat_6x"), val = tensor<int32, [4]>([1, 8, 8, -1])];
            tensor<fp32, [1, 8, 8, ?]> reshape_24 = reshape(shape = concat_6x, x = input_27)[name = tensor<string, []>("reshape_24")];
            tensor<int32, [2]> reduce_mean_18_axes_0 = const()[name = tensor<string, []>("reduce_mean_18_axes_0"), val = tensor<int32, [2]>([2, 3])];
            tensor<bool, []> reduce_mean_18_keep_dims_0 = const()[name = tensor<string, []>("reduce_mean_18_keep_dims_0"), val = tensor<bool, []>(true)];
            tensor<fp32, [1, 8, 1, 1]> reduce_mean_18 = reduce_mean(axes = reduce_mean_18_axes_0, keep_dims = reduce_mean_18_keep_dims_0, x = reshape_24)[name = tensor<string, []>("reduce_mean_18")];
            tensor<fp32, [1, 8, 8, ?]> sub_12 = sub(x = reshape_24, y = reduce_mean_18)[name = tensor<string, []>("sub_12")];
            tensor<fp32, [1, 8, 8, ?]> square_6 = square(x = sub_12)[name = tensor<string, []>("square_6")];
            tensor<int32, [2]> reduce_mean_20_axes_0 = const()[name = tensor<string, []>("reduce_mean_20_axes_0"), val = tensor<int32, [2]>([2, 3])];
            tensor<bool, []> reduce_mean_20_keep_dims_0 = const()[name = tensor<string, []>("reduce_mean_20_keep_dims_0"), val = tensor<bool, []>(true)];
            tensor<fp32, [1, 8, 1, 1]> reduce_mean_20 = reduce_mean(axes = reduce_mean_20_axes_0, keep_dims = reduce_mean_20_keep_dims_0, x = square_6)[name = tensor<string, []>("reduce_mean_20")];
            tensor<fp32, []> add_12_y_0 = const()[name = tensor<string, []>("add_12_y_0"), val = tensor<fp32, []>(0x1.4f8b58p-17)];
            tensor<fp32, [1, 8, 1, 1]> add_12 = add(x = reduce_mean_20, y = add_12_y_0)[name = tensor<string, []>("add_12")];
            tensor<fp32, [1, 8, 1, 1]> sqrt_6 = sqrt(x = add_12)[name = tensor<string, []>("sqrt_6")];
            tensor<fp32, [1, 8, 8, ?]> real_div_6 = real_div(x = sub_12, y = sqrt_6)[name = tensor<string, []>("real_div_6")];
            tensor<fp32, [1, 64, ?]> reshape_25 = reshape(shape = shape_6, x = real_div_6)[name = tensor<string, []>("reshape_25")];
            tensor<fp32, [1, 64, 1]> reshape_26 = const()[name = tensor<string, []>("reshape_26"), val = tensor<fp32, [1, 64, 1]>(BLOBFILE(path = tensor<string, []>("@model_path/weights/weight.bin"), offset = tensor<uint64, []>(2773248)))];
            tensor<fp32, [1, 64, ?]> mul_6 = mul(x = reshape_25, y = reshape_26)[name = tensor<string, []>("mul_6")];
            tensor<fp32, [1, 64, 1]> reshape_27 = const()[name = tensor<string, []>("reshape_27"), val = tensor<fp32, [1, 64, 1]>(BLOBFILE(path = tensor<string, []>("@model_path/weights/weight.bin"), offset = tensor<uint64, []>(2773568)))];
            tensor<fp32, [1, 64, ?]> add_13 = add(x = mul_6, y = reshape_27)[name = tensor<string, []>("add_13")];
            tensor<fp32, [1, 64, ?]> input_29 = silu(x = add_13)[name = tensor<string, []>("input_29")];
            tensor<string, []> input_31_pad_type_0 = const()[name = tensor<string, []>("input_31_pad_type_0"), val = tensor<string, []>("custom")];
            tensor<int32, [2]> input_31_pad_0 = const()[name = tensor<string, []>("input_31_pad_0"), val = tensor<int32, [2]>([3, 3])];
            tensor<int32, [1]> input_31_strides_0 = const()[name = tensor<string, []>("input_31_strides_0"), val = tensor<int32, [1]>([1])];
            tensor<int32, [1]> input_31_dilations_0 = const()[name = tensor<string, []>("input_31_dilations_0"), val = tensor<int32, [1]>([1])];
            tensor<int32, []> input_31_groups_0 = const()[name = tensor<string, []>("input_31_groups_0"), val = tensor<int32, []>(1)];
            tensor<fp32, [1, 64, ?]> input_31 = conv(bias = blocks_3_conv2_bias, dilations = input_31_dilations_0, groups = input_31_groups_0, pad = input_31_pad_0, pad_type = input_31_pad_type_0, strides = input_31_strides_0, weight = blocks_3_conv2_weight, x = input_29)[name = tensor<string, []>("input_31")];
            tensor<int32, [3]> shape_7 = shape(x = input_31)[name = tensor<string, []>("shape_7")];
            tensor<int32, [4]> concat_7x = const()[name = tensor<string, []>("concat_7x"), val = tensor<int32, [4]>([1, 8, 8, -1])];
            tensor<fp32, [1, 8, 8, ?]> reshape_28 = reshape(shape = concat_7x, x = input_31)[name = tensor<string, []>("reshape_28")];
            tensor<int32, [2]> reduce_mean_21_axes_0 = const()[name = tensor<string, []>("reduce_mean_21_axes_0"), val = tensor<int32, [2]>([2, 3])];
            tensor<bool, []> reduce_mean_21_keep_dims_0 = const()[name = tensor<string, []>("reduce_mean_21_keep_dims_0"), val = tensor<bool, []>(true)];
            tensor<fp32, [1, 8, 1, 1]> reduce_mean_21 = reduce_mean(axes = reduce_mean_21_axes_0, keep_dims = reduce_mean_21_keep_dims_0, x = reshape_28)[name = tensor<string, []>("reduce_mean_21")];
            tensor<fp32, [1, 8, 8, ?]> sub_14 = sub(x = reshape_28, y = reduce_mean_21)[name = tensor<string, []>("sub_14")];
            tensor<fp32, [1, 8, 8, ?]> square_7 = square(x = sub_14)[name = tensor<string, []>("square_7")];
            tensor<int32, [2]> reduce_mean_23_axes_0 = const()[name = tensor<string, []>("reduce_mean_23_axes_0"), val = tensor<int32, [2]>([2, 3])];
            tensor<bool, []> reduce_mean_23_keep_dims_0 = const()[name = tensor<string, []>("reduce_mean_23_keep_dims_0"), val = tensor<bool, []>(true)];
            tensor<fp32, [1, 8, 1, 1]> reduce_mean_23 = reduce_mean(axes = reduce_mean_23_axes_0, keep_dims = reduce_mean_23_keep_dims_0, x = square_7)[name = tensor<string, []>("reduce_mean_23")];
            tensor<fp32, []> add_14_y_0 = const()[name = tensor<string, []>("add_14_y_0"), val = tensor<fp32, []>(0x1.4f8b58p-17)];
            tensor<fp32, [1, 8, 1, 1]> add_14 = add(x = reduce_mean_23, y = add_14_y_0)[name = tensor<string, []>("add_14")];
            tensor<fp32, [1, 8, 1, 1]> sqrt_7 = sqrt(x = add_14)[name = tensor<string, []>("sqrt_7")];
            tensor<fp32, [1, 8, 8, ?]> real_div_7 = real_div(x = sub_14, y = sqrt_7)[name = tensor<string, []>("real_div_7")];
            tensor<fp32, [1, 64, ?]> reshape_29 = reshape(shape = shape_7, x = real_div_7)[name = tensor<string, []>("reshape_29")];
            tensor<fp32, [1, 64, 1]> reshape_30 = const()[name = tensor<string, []>("reshape_30"), val = tensor<fp32, [1, 64, 1]>(BLOBFILE(path = tensor<string, []>("@model_path/weights/weight.bin"), offset = tensor<uint64, []>(2773888)))];
            tensor<fp32, [1, 64, ?]> mul_7 = mul(x = reshape_29, y = reshape_30)[name = tensor<string, []>("mul_7")];
            tensor<fp32, [1, 64, 1]> reshape_31 = const()[name = tensor<string, []>("reshape_31"), val = tensor<fp32, [1, 64, 1]>(BLOBFILE(path = tensor<string, []>("@model_path/weights/weight.bin"), offset = tensor<uint64, []>(2774208)))];
            tensor<fp32, [1, 64, ?]> add_15 = add(x = mul_7, y = reshape_31)[name = tensor<string, []>("add_15")];
            tensor<fp32, [1, 64, ?]> input_33 = add(x = add_15, y = input_25)[name = tensor<string, []>("input_33")];
            tensor<string, []> input_35_pad_type_0 = const()[name = tensor<string, []>("input_35_pad_type_0"), val = tensor<string, []>("custom")];
            tensor<int32, [2]> input_35_pad_0 = const()[name = tensor<string, []>("input_35_pad_0"), val = tensor<int32, [2]>([3, 3])];
            tensor<int32, [1]> input_35_strides_0 = const()[name = tensor<string, []>("input_35_strides_0"), val = tensor<int32, [1]>([1])];
            tensor<int32, [1]> input_35_dilations_0 = const()[name = tensor<string, []>("input_35_dilations_0"), val = tensor<int32, [1]>([1])];
            tensor<int32, []> input_35_groups_0 = const()[name = tensor<string, []>("input_35_groups_0"), val = tensor<int32, []>(1)];
            tensor<fp32, [1, 64, ?]> input_35 = conv(bias = blocks_4_conv1_bias, dilations = input_35_dilations_0, groups = input_35_groups_0, pad = input_35_pad_0, pad_type = input_35_pad_type_0, strides = input_35_strides_0, weight = blocks_4_conv1_weight, x = input_33)[name = tensor<string, []>("input_35")];
            tensor<int32, [3]> shape_8 = shape(x = input_35)[name = tensor<string, []>("shape_8")];
            tensor<int32, [4]> concat_8x = const()[name = tensor<string, []>("concat_8x"), val = tensor<int32, [4]>([1, 8, 8, -1])];
            tensor<fp32, [1, 8, 8, ?]> reshape_32 = reshape(shape = concat_8x, x = input_35)[name = tensor<string, []>("reshape_32")];
            tensor<int32, [2]> reduce_mean_24_axes_0 = const()[name = tensor<string, []>("reduce_mean_24_axes_0"), val = tensor<int32, [2]>([2, 3])];
            tensor<bool, []> reduce_mean_24_keep_dims_0 = const()[name = tensor<string, []>("reduce_mean_24_keep_dims_0"), val = tensor<bool, []>(true)];
            tensor<fp32, [1, 8, 1, 1]> reduce_mean_24 = reduce_mean(axes = reduce_mean_24_axes_0, keep_dims = reduce_mean_24_keep_dims_0, x = reshape_32)[name = tensor<string, []>("reduce_mean_24")];
            tensor<fp32, [1, 8, 8, ?]> sub_16 = sub(x = reshape_32, y = reduce_mean_24)[name = tensor<string, []>("sub_16")];
            tensor<fp32, [1, 8, 8, ?]> square_8 = square(x = sub_16)[name = tensor<string, []>("square_8")];
            tensor<int32, [2]> reduce_mean_26_axes_0 = const()[name = tensor<string, []>("reduce_mean_26_axes_0"), val = tensor<int32, [2]>([2, 3])];
            tensor<bool, []> reduce_mean_26_keep_dims_0 = const()[name = tensor<string, []>("reduce_mean_26_keep_dims_0"), val = tensor<bool, []>(true)];
            tensor<fp32, [1, 8, 1, 1]> reduce_mean_26 = reduce_mean(axes = reduce_mean_26_axes_0, keep_dims = reduce_mean_26_keep_dims_0, x = square_8)[name = tensor<string, []>("reduce_mean_26")];
            tensor<fp32, []> add_16_y_0 = const()[name = tensor<string, []>("add_16_y_0"), val = tensor<fp32, []>(0x1.4f8b58p-17)];
            tensor<fp32, [1, 8, 1, 1]> add_16 = add(x = reduce_mean_26, y = add_16_y_0)[name = tensor<string, []>("add_16")];
            tensor<fp32, [1, 8, 1, 1]> sqrt_8 = sqrt(x = add_16)[name = tensor<string, []>("sqrt_8")];
            tensor<fp32, [1, 8, 8, ?]> real_div_8 = real_div(x = sub_16, y = sqrt_8)[name = tensor<string, []>("real_div_8")];
            tensor<fp32, [1, 64, ?]> reshape_33 = reshape(shape = shape_8, x = real_div_8)[name = tensor<string, []>("reshape_33")];
            tensor<fp32, [1, 64, 1]> reshape_34 = const()[name = tensor<string, []>("reshape_34"), val = tensor<fp32, [1, 64, 1]>(BLOBFILE(path = tensor<string, []>("@model_path/weights/weight.bin"), offset = tensor<uint64, []>(2774528)))];
            tensor<fp32, [1, 64, ?]> mul_8 = mul(x = reshape_33, y = reshape_34)[name = tensor<string, []>("mul_8")];
            tensor<fp32, [1, 64, 1]> reshape_35 = const()[name = tensor<string, []>("reshape_35"), val = tensor<fp32, [1, 64, 1]>(BLOBFILE(path = tensor<string, []>("@model_path/weights/weight.bin"), offset = tensor<uint64, []>(2774848)))];
            tensor<fp32, [1, 64, ?]> add_17 = add(x = mul_8, y = reshape_35)[name = tensor<string, []>("add_17")];
            tensor<fp32, [1, 64, ?]> input_37 = silu(x = add_17)[name = tensor<string, []>("input_37")];
            tensor<string, []> input_39_pad_type_0 = const()[name = tensor<string, []>("input_39_pad_type_0"), val = tensor<string, []>("custom")];
            tensor<int32, [2]> input_39_pad_0 = const()[name = tensor<string, []>("input_39_pad_0"), val = tensor<int32, [2]>([3, 3])];
            tensor<int32, [1]> input_39_strides_0 = const()[name = tensor<string, []>("input_39_strides_0"), val = tensor<int32, [1]>([1])];
            tensor<int32, [1]> input_39_dilations_0 = const()[name = tensor<string, []>("input_39_dilations_0"), val = tensor<int32, [1]>([1])];
            tensor<int32, []> input_39_groups_0 = const()[name = tensor<string, []>("input_39_groups_0"), val = tensor<int32, []>(1)];
            tensor<fp32, [1, 64, ?]> input_39 = conv(bias = blocks_4_conv2_bias, dilations = input_39_dilations_0, groups = input_39_groups_0, pad = input_39_pad_0, pad_type = input_39_pad_type_0, strides = input_39_strides_0, weight = blocks_4_conv2_weight, x = input_37)[name = tensor<string, []>("input_39")];
            tensor<int32, [3]> shape_9 = shape(x = input_39)[name = tensor<string, []>("shape_9")];
            tensor<int32, [4]> concat_9x = const()[name = tensor<string, []>("concat_9x"), val = tensor<int32, [4]>([1, 8, 8, -1])];
            tensor<fp32, [1, 8, 8, ?]> reshape_36 = reshape(shape = concat_9x, x = input_39)[name = tensor<string, []>("reshape_36")];
            tensor<int32, [2]> reduce_mean_27_axes_0 = const()[name = tensor<string, []>("reduce_mean_27_axes_0"), val = tensor<int32, [2]>([2, 3])];
            tensor<bool, []> reduce_mean_27_keep_dims_0 = const()[name = tensor<string, []>("reduce_mean_27_keep_dims_0"), val = tensor<bool, []>(true)];
            tensor<fp32, [1, 8, 1, 1]> reduce_mean_27 = reduce_mean(axes = reduce_mean_27_axes_0, keep_dims = reduce_mean_27_keep_dims_0, x = reshape_36)[name = tensor<string, []>("reduce_mean_27")];
            tensor<fp32, [1, 8, 8, ?]> sub_18 = sub(x = reshape_36, y = reduce_mean_27)[name = tensor<string, []>("sub_18")];
            tensor<fp32, [1, 8, 8, ?]> square_9 = square(x = sub_18)[name = tensor<string, []>("square_9")];
            tensor<int32, [2]> reduce_mean_29_axes_0 = const()[name = tensor<string, []>("reduce_mean_29_axes_0"), val = tensor<int32, [2]>([2, 3])];
            tensor<bool, []> reduce_mean_29_keep_dims_0 = const()[name = tensor<string, []>("reduce_mean_29_keep_dims_0"), val = tensor<bool, []>(true)];
            tensor<fp32, [1, 8, 1, 1]> reduce_mean_29 = reduce_mean(axes = reduce_mean_29_axes_0, keep_dims = reduce_mean_29_keep_dims_0, x = square_9)[name = tensor<string, []>("reduce_mean_29")];
            tensor<fp32, []> add_18_y_0 = const()[name = tensor<string, []>("add_18_y_0"), val = tensor<fp32, []>(0x1.4f8b58p-17)];
            tensor<fp32, [1, 8, 1, 1]> add_18 = add(x = reduce_mean_29, y = add_18_y_0)[name = tensor<string, []>("add_18")];
            tensor<fp32, [1, 8, 1, 1]> sqrt_9 = sqrt(x = add_18)[name = tensor<string, []>("sqrt_9")];
            tensor<fp32, [1, 8, 8, ?]> real_div_9 = real_div(x = sub_18, y = sqrt_9)[name = tensor<string, []>("real_div_9")];
            tensor<fp32, [1, 64, ?]> reshape_37 = reshape(shape = shape_9, x = real_div_9)[name = tensor<string, []>("reshape_37")];
            tensor<fp32, [1, 64, 1]> reshape_38 = const()[name = tensor<string, []>("reshape_38"), val = tensor<fp32, [1, 64, 1]>(BLOBFILE(path = tensor<string, []>("@model_path/weights/weight.bin"), offset = tensor<uint64, []>(2775168)))];
            tensor<fp32, [1, 64, ?]> mul_9 = mul(x = reshape_37, y = reshape_38)[name = tensor<string, []>("mul_9")];
            tensor<fp32, [1, 64, 1]> reshape_39 = const()[name = tensor<string, []>("reshape_39"), val = tensor<fp32, [1, 64, 1]>(BLOBFILE(path = tensor<string, []>("@model_path/weights/weight.bin"), offset = tensor<uint64, []>(2775488)))];
            tensor<fp32, [1, 64, ?]> add_19 = add(x = mul_9, y = reshape_39)[name = tensor<string, []>("add_19")];
            tensor<fp32, [1, 64, ?]> input_41 = add(x = add_19, y = input_33)[name = tensor<string, []>("input_41")];
            tensor<string, []> input_43_pad_type_0 = const()[name = tensor<string, []>("input_43_pad_type_0"), val = tensor<string, []>("custom")];
            tensor<int32, [2]> input_43_pad_0 = const()[name = tensor<string, []>("input_43_pad_0"), val = tensor<int32, [2]>([3, 3])];
            tensor<int32, [1]> input_43_strides_0 = const()[name = tensor<string, []>("input_43_strides_0"), val = tensor<int32, [1]>([1])];
            tensor<int32, [1]> input_43_dilations_0 = const()[name = tensor<string, []>("input_43_dilations_0"), val = tensor<int32, [1]>([1])];
            tensor<int32, []> input_43_groups_0 = const()[name = tensor<string, []>("input_43_groups_0"), val = tensor<int32, []>(1)];
            tensor<fp32, [1, 64, ?]> input_43 = conv(bias = blocks_5_conv1_bias, dilations = input_43_dilations_0, groups = input_43_groups_0, pad = input_43_pad_0, pad_type = input_43_pad_type_0, strides = input_43_strides_0, weight = blocks_5_conv1_weight, x = input_41)[name = tensor<string, []>("input_43")];
            tensor<int32, [3]> shape_10 = shape(x = input_43)[name = tensor<string, []>("shape_10")];
            tensor<int32, [4]> concat_10x = const()[name = tensor<string, []>("concat_10x"), val = tensor<int32, [4]>([1, 8, 8, -1])];
            tensor<fp32, [1, 8, 8, ?]> reshape_40 = reshape(shape = concat_10x, x = input_43)[name = tensor<string, []>("reshape_40")];
            tensor<int32, [2]> reduce_mean_30_axes_0 = const()[name = tensor<string, []>("reduce_mean_30_axes_0"), val = tensor<int32, [2]>([2, 3])];
            tensor<bool, []> reduce_mean_30_keep_dims_0 = const()[name = tensor<string, []>("reduce_mean_30_keep_dims_0"), val = tensor<bool, []>(true)];
            tensor<fp32, [1, 8, 1, 1]> reduce_mean_30 = reduce_mean(axes = reduce_mean_30_axes_0, keep_dims = reduce_mean_30_keep_dims_0, x = reshape_40)[name = tensor<string, []>("reduce_mean_30")];
            tensor<fp32, [1, 8, 8, ?]> sub_20 = sub(x = reshape_40, y = reduce_mean_30)[name = tensor<string, []>("sub_20")];
            tensor<fp32, [1, 8, 8, ?]> square_10 = square(x = sub_20)[name = tensor<string, []>("square_10")];
            tensor<int32, [2]> reduce_mean_32_axes_0 = const()[name = tensor<string, []>("reduce_mean_32_axes_0"), val = tensor<int32, [2]>([2, 3])];
            tensor<bool, []> reduce_mean_32_keep_dims_0 = const()[name = tensor<string, []>("reduce_mean_32_keep_dims_0"), val = tensor<bool, []>(true)];
            tensor<fp32, [1, 8, 1, 1]> reduce_mean_32 = reduce_mean(axes = reduce_mean_32_axes_0, keep_dims = reduce_mean_32_keep_dims_0, x = square_10)[name = tensor<string, []>("reduce_mean_32")];
            tensor<fp32, []> add_20_y_0 = const()[name = tensor<string, []>("add_20_y_0"), val = tensor<fp32, []>(0x1.4f8b58p-17)];
            tensor<fp32, [1, 8, 1, 1]> add_20 = add(x = reduce_mean_32, y = add_20_y_0)[name = tensor<string, []>("add_20")];
            tensor<fp32, [1, 8, 1, 1]> sqrt_10 = sqrt(x = add_20)[name = tensor<string, []>("sqrt_10")];
            tensor<fp32, [1, 8, 8, ?]> real_div_10 = real_div(x = sub_20, y = sqrt_10)[name = tensor<string, []>("real_div_10")];
            tensor<fp32, [1, 64, ?]> reshape_41 = reshape(shape = shape_10, x = real_div_10)[name = tensor<string, []>("reshape_41")];
            tensor<fp32, [1, 64, 1]> reshape_42 = const()[name = tensor<string, []>("reshape_42"), val = tensor<fp32, [1, 64, 1]>(BLOBFILE(path = tensor<string, []>("@model_path/weights/weight.bin"), offset = tensor<uint64, []>(2775808)))];
            tensor<fp32, [1, 64, ?]> mul_10 = mul(x = reshape_41, y = reshape_42)[name = tensor<string, []>("mul_10")];
            tensor<fp32, [1, 64, 1]> reshape_43 = const()[name = tensor<string, []>("reshape_43"), val = tensor<fp32, [1, 64, 1]>(BLOBFILE(path = tensor<string, []>("@model_path/weights/weight.bin"), offset = tensor<uint64, []>(2776128)))];
            tensor<fp32, [1, 64, ?]> add_21 = add(x = mul_10, y = reshape_43)[name = tensor<string, []>("add_21")];
            tensor<fp32, [1, 64, ?]> input_45 = silu(x = add_21)[name = tensor<string, []>("input_45")];
            tensor<string, []> input_47_pad_type_0 = const()[name = tensor<string, []>("input_47_pad_type_0"), val = tensor<string, []>("custom")];
            tensor<int32, [2]> input_47_pad_0 = const()[name = tensor<string, []>("input_47_pad_0"), val = tensor<int32, [2]>([3, 3])];
            tensor<int32, [1]> input_47_strides_0 = const()[name = tensor<string, []>("input_47_strides_0"), val = tensor<int32, [1]>([1])];
            tensor<int32, [1]> input_47_dilations_0 = const()[name = tensor<string, []>("input_47_dilations_0"), val = tensor<int32, [1]>([1])];
            tensor<int32, []> input_47_groups_0 = const()[name = tensor<string, []>("input_47_groups_0"), val = tensor<int32, []>(1)];
            tensor<fp32, [1, 64, ?]> input_47 = conv(bias = blocks_5_conv2_bias, dilations = input_47_dilations_0, groups = input_47_groups_0, pad = input_47_pad_0, pad_type = input_47_pad_type_0, strides = input_47_strides_0, weight = blocks_5_conv2_weight, x = input_45)[name = tensor<string, []>("input_47")];
            tensor<int32, [3]> shape_11 = shape(x = input_47)[name = tensor<string, []>("shape_11")];
            tensor<int32, [4]> concat_11x = const()[name = tensor<string, []>("concat_11x"), val = tensor<int32, [4]>([1, 8, 8, -1])];
            tensor<fp32, [1, 8, 8, ?]> reshape_44 = reshape(shape = concat_11x, x = input_47)[name = tensor<string, []>("reshape_44")];
            tensor<int32, [2]> reduce_mean_33_axes_0 = const()[name = tensor<string, []>("reduce_mean_33_axes_0"), val = tensor<int32, [2]>([2, 3])];
            tensor<bool, []> reduce_mean_33_keep_dims_0 = const()[name = tensor<string, []>("reduce_mean_33_keep_dims_0"), val = tensor<bool, []>(true)];
            tensor<fp32, [1, 8, 1, 1]> reduce_mean_33 = reduce_mean(axes = reduce_mean_33_axes_0, keep_dims = reduce_mean_33_keep_dims_0, x = reshape_44)[name = tensor<string, []>("reduce_mean_33")];
            tensor<fp32, [1, 8, 8, ?]> sub_22 = sub(x = reshape_44, y = reduce_mean_33)[name = tensor<string, []>("sub_22")];
            tensor<fp32, [1, 8, 8, ?]> square_11 = square(x = sub_22)[name = tensor<string, []>("square_11")];
            tensor<int32, [2]> reduce_mean_35_axes_0 = const()[name = tensor<string, []>("reduce_mean_35_axes_0"), val = tensor<int32, [2]>([2, 3])];
            tensor<bool, []> reduce_mean_35_keep_dims_0 = const()[name = tensor<string, []>("reduce_mean_35_keep_dims_0"), val = tensor<bool, []>(true)];
            tensor<fp32, [1, 8, 1, 1]> reduce_mean_35 = reduce_mean(axes = reduce_mean_35_axes_0, keep_dims = reduce_mean_35_keep_dims_0, x = square_11)[name = tensor<string, []>("reduce_mean_35")];
            tensor<fp32, []> add_22_y_0 = const()[name = tensor<string, []>("add_22_y_0"), val = tensor<fp32, []>(0x1.4f8b58p-17)];
            tensor<fp32, [1, 8, 1, 1]> add_22 = add(x = reduce_mean_35, y = add_22_y_0)[name = tensor<string, []>("add_22")];
            tensor<fp32, [1, 8, 1, 1]> sqrt_11 = sqrt(x = add_22)[name = tensor<string, []>("sqrt_11")];
            tensor<fp32, [1, 8, 8, ?]> real_div_11 = real_div(x = sub_22, y = sqrt_11)[name = tensor<string, []>("real_div_11")];
            tensor<fp32, [1, 64, ?]> reshape_45 = reshape(shape = shape_11, x = real_div_11)[name = tensor<string, []>("reshape_45")];
            tensor<fp32, [1, 64, 1]> reshape_46 = const()[name = tensor<string, []>("reshape_46"), val = tensor<fp32, [1, 64, 1]>(BLOBFILE(path = tensor<string, []>("@model_path/weights/weight.bin"), offset = tensor<uint64, []>(2776448)))];
            tensor<fp32, [1, 64, ?]> mul_11 = mul(x = reshape_45, y = reshape_46)[name = tensor<string, []>("mul_11")];
            tensor<fp32, [1, 64, 1]> reshape_47 = const()[name = tensor<string, []>("reshape_47"), val = tensor<fp32, [1, 64, 1]>(BLOBFILE(path = tensor<string, []>("@model_path/weights/weight.bin"), offset = tensor<uint64, []>(2776768)))];
            tensor<fp32, [1, 64, ?]> add_23 = add(x = mul_11, y = reshape_47)[name = tensor<string, []>("add_23")];
            tensor<fp32, [1, 64, ?]> input_49 = add(x = add_23, y = input_41)[name = tensor<string, []>("input_49")];
            tensor<string, []> input_51_pad_type_0 = const()[name = tensor<string, []>("input_51_pad_type_0"), val = tensor<string, []>("custom")];
            tensor<int32, [2]> input_51_pad_0 = const()[name = tensor<string, []>("input_51_pad_0"), val = tensor<int32, [2]>([3, 3])];
            tensor<int32, [1]> input_51_strides_0 = const()[name = tensor<string, []>("input_51_strides_0"), val = tensor<int32, [1]>([1])];
            tensor<int32, [1]> input_51_dilations_0 = const()[name = tensor<string, []>("input_51_dilations_0"), val = tensor<int32, [1]>([1])];
            tensor<int32, []> input_51_groups_0 = const()[name = tensor<string, []>("input_51_groups_0"), val = tensor<int32, []>(1)];
            tensor<fp32, [1, 64, ?]> input_51 = conv(bias = blocks_6_conv1_bias, dilations = input_51_dilations_0, groups = input_51_groups_0, pad = input_51_pad_0, pad_type = input_51_pad_type_0, strides = input_51_strides_0, weight = blocks_6_conv1_weight, x = input_49)[name = tensor<string, []>("input_51")];
            tensor<int32, [3]> shape_12 = shape(x = input_51)[name = tensor<string, []>("shape_12")];
            tensor<int32, [4]> concat_12x = const()[name = tensor<string, []>("concat_12x"), val = tensor<int32, [4]>([1, 8, 8, -1])];
            tensor<fp32, [1, 8, 8, ?]> reshape_48 = reshape(shape = concat_12x, x = input_51)[name = tensor<string, []>("reshape_48")];
            tensor<int32, [2]> reduce_mean_36_axes_0 = const()[name = tensor<string, []>("reduce_mean_36_axes_0"), val = tensor<int32, [2]>([2, 3])];
            tensor<bool, []> reduce_mean_36_keep_dims_0 = const()[name = tensor<string, []>("reduce_mean_36_keep_dims_0"), val = tensor<bool, []>(true)];
            tensor<fp32, [1, 8, 1, 1]> reduce_mean_36 = reduce_mean(axes = reduce_mean_36_axes_0, keep_dims = reduce_mean_36_keep_dims_0, x = reshape_48)[name = tensor<string, []>("reduce_mean_36")];
            tensor<fp32, [1, 8, 8, ?]> sub_24 = sub(x = reshape_48, y = reduce_mean_36)[name = tensor<string, []>("sub_24")];
            tensor<fp32, [1, 8, 8, ?]> square_12 = square(x = sub_24)[name = tensor<string, []>("square_12")];
            tensor<int32, [2]> reduce_mean_38_axes_0 = const()[name = tensor<string, []>("reduce_mean_38_axes_0"), val = tensor<int32, [2]>([2, 3])];
            tensor<bool, []> reduce_mean_38_keep_dims_0 = const()[name = tensor<string, []>("reduce_mean_38_keep_dims_0"), val = tensor<bool, []>(true)];
            tensor<fp32, [1, 8, 1, 1]> reduce_mean_38 = reduce_mean(axes = reduce_mean_38_axes_0, keep_dims = reduce_mean_38_keep_dims_0, x = square_12)[name = tensor<string, []>("reduce_mean_38")];
            tensor<fp32, []> add_24_y_0 = const()[name = tensor<string, []>("add_24_y_0"), val = tensor<fp32, []>(0x1.4f8b58p-17)];
            tensor<fp32, [1, 8, 1, 1]> add_24 = add(x = reduce_mean_38, y = add_24_y_0)[name = tensor<string, []>("add_24")];
            tensor<fp32, [1, 8, 1, 1]> sqrt_12 = sqrt(x = add_24)[name = tensor<string, []>("sqrt_12")];
            tensor<fp32, [1, 8, 8, ?]> real_div_12 = real_div(x = sub_24, y = sqrt_12)[name = tensor<string, []>("real_div_12")];
            tensor<fp32, [1, 64, ?]> reshape_49 = reshape(shape = shape_12, x = real_div_12)[name = tensor<string, []>("reshape_49")];
            tensor<fp32, [1, 64, 1]> reshape_50 = const()[name = tensor<string, []>("reshape_50"), val = tensor<fp32, [1, 64, 1]>(BLOBFILE(path = tensor<string, []>("@model_path/weights/weight.bin"), offset = tensor<uint64, []>(2777088)))];
            tensor<fp32, [1, 64, ?]> mul_12 = mul(x = reshape_49, y = reshape_50)[name = tensor<string, []>("mul_12")];
            tensor<fp32, [1, 64, 1]> reshape_51 = const()[name = tensor<string, []>("reshape_51"), val = tensor<fp32, [1, 64, 1]>(BLOBFILE(path = tensor<string, []>("@model_path/weights/weight.bin"), offset = tensor<uint64, []>(2777408)))];
            tensor<fp32, [1, 64, ?]> add_25 = add(x = mul_12, y = reshape_51)[name = tensor<string, []>("add_25")];
            tensor<fp32, [1, 64, ?]> input_53 = silu(x = add_25)[name = tensor<string, []>("input_53")];
            tensor<string, []> input_55_pad_type_0 = const()[name = tensor<string, []>("input_55_pad_type_0"), val = tensor<string, []>("custom")];
            tensor<int32, [2]> input_55_pad_0 = const()[name = tensor<string, []>("input_55_pad_0"), val = tensor<int32, [2]>([3, 3])];
            tensor<int32, [1]> input_55_strides_0 = const()[name = tensor<string, []>("input_55_strides_0"), val = tensor<int32, [1]>([1])];
            tensor<int32, [1]> input_55_dilations_0 = const()[name = tensor<string, []>("input_55_dilations_0"), val = tensor<int32, [1]>([1])];
            tensor<int32, []> input_55_groups_0 = const()[name = tensor<string, []>("input_55_groups_0"), val = tensor<int32, []>(1)];
            tensor<fp32, [1, 64, ?]> input_55 = conv(bias = blocks_6_conv2_bias, dilations = input_55_dilations_0, groups = input_55_groups_0, pad = input_55_pad_0, pad_type = input_55_pad_type_0, strides = input_55_strides_0, weight = blocks_6_conv2_weight, x = input_53)[name = tensor<string, []>("input_55")];
            tensor<int32, [3]> shape_13 = shape(x = input_55)[name = tensor<string, []>("shape_13")];
            tensor<int32, [4]> concat_13x = const()[name = tensor<string, []>("concat_13x"), val = tensor<int32, [4]>([1, 8, 8, -1])];
            tensor<fp32, [1, 8, 8, ?]> reshape_52 = reshape(shape = concat_13x, x = input_55)[name = tensor<string, []>("reshape_52")];
            tensor<int32, [2]> reduce_mean_39_axes_0 = const()[name = tensor<string, []>("reduce_mean_39_axes_0"), val = tensor<int32, [2]>([2, 3])];
            tensor<bool, []> reduce_mean_39_keep_dims_0 = const()[name = tensor<string, []>("reduce_mean_39_keep_dims_0"), val = tensor<bool, []>(true)];
            tensor<fp32, [1, 8, 1, 1]> reduce_mean_39 = reduce_mean(axes = reduce_mean_39_axes_0, keep_dims = reduce_mean_39_keep_dims_0, x = reshape_52)[name = tensor<string, []>("reduce_mean_39")];
            tensor<fp32, [1, 8, 8, ?]> sub_26 = sub(x = reshape_52, y = reduce_mean_39)[name = tensor<string, []>("sub_26")];
            tensor<fp32, [1, 8, 8, ?]> square_13 = square(x = sub_26)[name = tensor<string, []>("square_13")];
            tensor<int32, [2]> reduce_mean_41_axes_0 = const()[name = tensor<string, []>("reduce_mean_41_axes_0"), val = tensor<int32, [2]>([2, 3])];
            tensor<bool, []> reduce_mean_41_keep_dims_0 = const()[name = tensor<string, []>("reduce_mean_41_keep_dims_0"), val = tensor<bool, []>(true)];
            tensor<fp32, [1, 8, 1, 1]> reduce_mean_41 = reduce_mean(axes = reduce_mean_41_axes_0, keep_dims = reduce_mean_41_keep_dims_0, x = square_13)[name = tensor<string, []>("reduce_mean_41")];
            tensor<fp32, []> add_26_y_0 = const()[name = tensor<string, []>("add_26_y_0"), val = tensor<fp32, []>(0x1.4f8b58p-17)];
            tensor<fp32, [1, 8, 1, 1]> add_26 = add(x = reduce_mean_41, y = add_26_y_0)[name = tensor<string, []>("add_26")];
            tensor<fp32, [1, 8, 1, 1]> sqrt_13 = sqrt(x = add_26)[name = tensor<string, []>("sqrt_13")];
            tensor<fp32, [1, 8, 8, ?]> real_div_13 = real_div(x = sub_26, y = sqrt_13)[name = tensor<string, []>("real_div_13")];
            tensor<fp32, [1, 64, ?]> reshape_53 = reshape(shape = shape_13, x = real_div_13)[name = tensor<string, []>("reshape_53")];
            tensor<fp32, [1, 64, 1]> reshape_54 = const()[name = tensor<string, []>("reshape_54"), val = tensor<fp32, [1, 64, 1]>(BLOBFILE(path = tensor<string, []>("@model_path/weights/weight.bin"), offset = tensor<uint64, []>(2777728)))];
            tensor<fp32, [1, 64, ?]> mul_13 = mul(x = reshape_53, y = reshape_54)[name = tensor<string, []>("mul_13")];
            tensor<fp32, [1, 64, 1]> reshape_55 = const()[name = tensor<string, []>("reshape_55"), val = tensor<fp32, [1, 64, 1]>(BLOBFILE(path = tensor<string, []>("@model_path/weights/weight.bin"), offset = tensor<uint64, []>(2778048)))];
            tensor<fp32, [1, 64, ?]> add_27 = add(x = mul_13, y = reshape_55)[name = tensor<string, []>("add_27")];
            tensor<fp32, [1, 64, ?]> input_57 = add(x = add_27, y = input_49)[name = tensor<string, []>("input_57")];
            tensor<string, []> input_59_pad_type_0 = const()[name = tensor<string, []>("input_59_pad_type_0"), val = tensor<string, []>("custom")];
            tensor<int32, [2]> input_59_pad_0 = const()[name = tensor<string, []>("input_59_pad_0"), val = tensor<int32, [2]>([3, 3])];
            tensor<int32, [1]> input_59_strides_0 = const()[name = tensor<string, []>("input_59_strides_0"), val = tensor<int32, [1]>([1])];
            tensor<int32, [1]> input_59_dilations_0 = const()[name = tensor<string, []>("input_59_dilations_0"), val = tensor<int32, [1]>([1])];
            tensor<int32, []> input_59_groups_0 = const()[name = tensor<string, []>("input_59_groups_0"), val = tensor<int32, []>(1)];
            tensor<fp32, [1, 64, ?]> input_59 = conv(bias = blocks_7_conv1_bias, dilations = input_59_dilations_0, groups = input_59_groups_0, pad = input_59_pad_0, pad_type = input_59_pad_type_0, strides = input_59_strides_0, weight = blocks_7_conv1_weight, x = input_57)[name = tensor<string, []>("input_59")];
            tensor<int32, [3]> shape_14 = shape(x = input_59)[name = tensor<string, []>("shape_14")];
            tensor<int32, [4]> concat_14x = const()[name = tensor<string, []>("concat_14x"), val = tensor<int32, [4]>([1, 8, 8, -1])];
            tensor<fp32, [1, 8, 8, ?]> reshape_56 = reshape(shape = concat_14x, x = input_59)[name = tensor<string, []>("reshape_56")];
            tensor<int32, [2]> reduce_mean_42_axes_0 = const()[name = tensor<string, []>("reduce_mean_42_axes_0"), val = tensor<int32, [2]>([2, 3])];
            tensor<bool, []> reduce_mean_42_keep_dims_0 = const()[name = tensor<string, []>("reduce_mean_42_keep_dims_0"), val = tensor<bool, []>(true)];
            tensor<fp32, [1, 8, 1, 1]> reduce_mean_42 = reduce_mean(axes = reduce_mean_42_axes_0, keep_dims = reduce_mean_42_keep_dims_0, x = reshape_56)[name = tensor<string, []>("reduce_mean_42")];
            tensor<fp32, [1, 8, 8, ?]> sub_28 = sub(x = reshape_56, y = reduce_mean_42)[name = tensor<string, []>("sub_28")];
            tensor<fp32, [1, 8, 8, ?]> square_14 = square(x = sub_28)[name = tensor<string, []>("square_14")];
            tensor<int32, [2]> reduce_mean_44_axes_0 = const()[name = tensor<string, []>("reduce_mean_44_axes_0"), val = tensor<int32, [2]>([2, 3])];
            tensor<bool, []> reduce_mean_44_keep_dims_0 = const()[name = tensor<string, []>("reduce_mean_44_keep_dims_0"), val = tensor<bool, []>(true)];
            tensor<fp32, [1, 8, 1, 1]> reduce_mean_44 = reduce_mean(axes = reduce_mean_44_axes_0, keep_dims = reduce_mean_44_keep_dims_0, x = square_14)[name = tensor<string, []>("reduce_mean_44")];
            tensor<fp32, []> add_28_y_0 = const()[name = tensor<string, []>("add_28_y_0"), val = tensor<fp32, []>(0x1.4f8b58p-17)];
            tensor<fp32, [1, 8, 1, 1]> add_28 = add(x = reduce_mean_44, y = add_28_y_0)[name = tensor<string, []>("add_28")];
            tensor<fp32, [1, 8, 1, 1]> sqrt_14 = sqrt(x = add_28)[name = tensor<string, []>("sqrt_14")];
            tensor<fp32, [1, 8, 8, ?]> real_div_14 = real_div(x = sub_28, y = sqrt_14)[name = tensor<string, []>("real_div_14")];
            tensor<fp32, [1, 64, ?]> reshape_57 = reshape(shape = shape_14, x = real_div_14)[name = tensor<string, []>("reshape_57")];
            tensor<fp32, [1, 64, 1]> reshape_58 = const()[name = tensor<string, []>("reshape_58"), val = tensor<fp32, [1, 64, 1]>(BLOBFILE(path = tensor<string, []>("@model_path/weights/weight.bin"), offset = tensor<uint64, []>(2778368)))];
            tensor<fp32, [1, 64, ?]> mul_14 = mul(x = reshape_57, y = reshape_58)[name = tensor<string, []>("mul_14")];
            tensor<fp32, [1, 64, 1]> reshape_59 = const()[name = tensor<string, []>("reshape_59"), val = tensor<fp32, [1, 64, 1]>(BLOBFILE(path = tensor<string, []>("@model_path/weights/weight.bin"), offset = tensor<uint64, []>(2778688)))];
            tensor<fp32, [1, 64, ?]> add_29 = add(x = mul_14, y = reshape_59)[name = tensor<string, []>("add_29")];
            tensor<fp32, [1, 64, ?]> input_61 = silu(x = add_29)[name = tensor<string, []>("input_61")];
            tensor<string, []> input_63_pad_type_0 = const()[name = tensor<string, []>("input_63_pad_type_0"), val = tensor<string, []>("custom")];
            tensor<int32, [2]> input_63_pad_0 = const()[name = tensor<string, []>("input_63_pad_0"), val = tensor<int32, [2]>([3, 3])];
            tensor<int32, [1]> input_63_strides_0 = const()[name = tensor<string, []>("input_63_strides_0"), val = tensor<int32, [1]>([1])];
            tensor<int32, [1]> input_63_dilations_0 = const()[name = tensor<string, []>("input_63_dilations_0"), val = tensor<int32, [1]>([1])];
            tensor<int32, []> input_63_groups_0 = const()[name = tensor<string, []>("input_63_groups_0"), val = tensor<int32, []>(1)];
            tensor<fp32, [1, 64, ?]> input_63 = conv(bias = blocks_7_conv2_bias, dilations = input_63_dilations_0, groups = input_63_groups_0, pad = input_63_pad_0, pad_type = input_63_pad_type_0, strides = input_63_strides_0, weight = blocks_7_conv2_weight, x = input_61)[name = tensor<string, []>("input_63")];
            tensor<int32, [3]> shape_15 = shape(x = input_63)[name = tensor<string, []>("shape_15")];
            tensor<int32, [4]> concat_15x = const()[name = tensor<string, []>("concat_15x"), val = tensor<int32, [4]>([1, 8, 8, -1])];
            tensor<fp32, [1, 8, 8, ?]> reshape_60 = reshape(shape = concat_15x, x = input_63)[name = tensor<string, []>("reshape_60")];
            tensor<int32, [2]> reduce_mean_45_axes_0 = const()[name = tensor<string, []>("reduce_mean_45_axes_0"), val = tensor<int32, [2]>([2, 3])];
            tensor<bool, []> reduce_mean_45_keep_dims_0 = const()[name = tensor<string, []>("reduce_mean_45_keep_dims_0"), val = tensor<bool, []>(true)];
            tensor<fp32, [1, 8, 1, 1]> reduce_mean_45 = reduce_mean(axes = reduce_mean_45_axes_0, keep_dims = reduce_mean_45_keep_dims_0, x = reshape_60)[name = tensor<string, []>("reduce_mean_45")];
            tensor<fp32, [1, 8, 8, ?]> sub_30 = sub(x = reshape_60, y = reduce_mean_45)[name = tensor<string, []>("sub_30")];
            tensor<fp32, [1, 8, 8, ?]> square_15 = square(x = sub_30)[name = tensor<string, []>("square_15")];
            tensor<int32, [2]> reduce_mean_47_axes_0 = const()[name = tensor<string, []>("reduce_mean_47_axes_0"), val = tensor<int32, [2]>([2, 3])];
            tensor<bool, []> reduce_mean_47_keep_dims_0 = const()[name = tensor<string, []>("reduce_mean_47_keep_dims_0"), val = tensor<bool, []>(true)];
            tensor<fp32, [1, 8, 1, 1]> reduce_mean_47 = reduce_mean(axes = reduce_mean_47_axes_0, keep_dims = reduce_mean_47_keep_dims_0, x = square_15)[name = tensor<string, []>("reduce_mean_47")];
            tensor<fp32, []> add_30_y_0 = const()[name = tensor<string, []>("add_30_y_0"), val = tensor<fp32, []>(0x1.4f8b58p-17)];
            tensor<fp32, [1, 8, 1, 1]> add_30 = add(x = reduce_mean_47, y = add_30_y_0)[name = tensor<string, []>("add_30")];
            tensor<fp32, [1, 8, 1, 1]> sqrt_15 = sqrt(x = add_30)[name = tensor<string, []>("sqrt_15")];
            tensor<fp32, [1, 8, 8, ?]> real_div_15 = real_div(x = sub_30, y = sqrt_15)[name = tensor<string, []>("real_div_15")];
            tensor<fp32, [1, 64, ?]> reshape_61 = reshape(shape = shape_15, x = real_div_15)[name = tensor<string, []>("reshape_61")];
            tensor<fp32, [1, 64, 1]> reshape_62 = const()[name = tensor<string, []>("reshape_62"), val = tensor<fp32, [1, 64, 1]>(BLOBFILE(path = tensor<string, []>("@model_path/weights/weight.bin"), offset = tensor<uint64, []>(2779008)))];
            tensor<fp32, [1, 64, ?]> mul_15 = mul(x = reshape_61, y = reshape_62)[name = tensor<string, []>("mul_15")];
            tensor<fp32, [1, 64, 1]> reshape_63 = const()[name = tensor<string, []>("reshape_63"), val = tensor<fp32, [1, 64, 1]>(BLOBFILE(path = tensor<string, []>("@model_path/weights/weight.bin"), offset = tensor<uint64, []>(2779328)))];
            tensor<fp32, [1, 64, ?]> add_31 = add(x = mul_15, y = reshape_63)[name = tensor<string, []>("add_31")];
            tensor<fp32, [1, 64, ?]> input_65 = add(x = add_31, y = input_57)[name = tensor<string, []>("input_65")];
            tensor<string, []> input_67_pad_type_0 = const()[name = tensor<string, []>("input_67_pad_type_0"), val = tensor<string, []>("custom")];
            tensor<int32, [2]> input_67_pad_0 = const()[name = tensor<string, []>("input_67_pad_0"), val = tensor<int32, [2]>([3, 3])];
            tensor<int32, [1]> input_67_strides_0 = const()[name = tensor<string, []>("input_67_strides_0"), val = tensor<int32, [1]>([1])];
            tensor<int32, [1]> input_67_dilations_0 = const()[name = tensor<string, []>("input_67_dilations_0"), val = tensor<int32, [1]>([1])];
            tensor<int32, []> input_67_groups_0 = const()[name = tensor<string, []>("input_67_groups_0"), val = tensor<int32, []>(1)];
            tensor<fp32, [1, 64, ?]> input_67 = conv(bias = blocks_8_conv1_bias, dilations = input_67_dilations_0, groups = input_67_groups_0, pad = input_67_pad_0, pad_type = input_67_pad_type_0, strides = input_67_strides_0, weight = blocks_8_conv1_weight, x = input_65)[name = tensor<string, []>("input_67")];
            tensor<int32, [3]> shape_16 = shape(x = input_67)[name = tensor<string, []>("shape_16")];
            tensor<int32, [4]> concat_16x = const()[name = tensor<string, []>("concat_16x"), val = tensor<int32, [4]>([1, 8, 8, -1])];
            tensor<fp32, [1, 8, 8, ?]> reshape_64 = reshape(shape = concat_16x, x = input_67)[name = tensor<string, []>("reshape_64")];
            tensor<int32, [2]> reduce_mean_48_axes_0 = const()[name = tensor<string, []>("reduce_mean_48_axes_0"), val = tensor<int32, [2]>([2, 3])];
            tensor<bool, []> reduce_mean_48_keep_dims_0 = const()[name = tensor<string, []>("reduce_mean_48_keep_dims_0"), val = tensor<bool, []>(true)];
            tensor<fp32, [1, 8, 1, 1]> reduce_mean_48 = reduce_mean(axes = reduce_mean_48_axes_0, keep_dims = reduce_mean_48_keep_dims_0, x = reshape_64)[name = tensor<string, []>("reduce_mean_48")];
            tensor<fp32, [1, 8, 8, ?]> sub_32 = sub(x = reshape_64, y = reduce_mean_48)[name = tensor<string, []>("sub_32")];
            tensor<fp32, [1, 8, 8, ?]> square_16 = square(x = sub_32)[name = tensor<string, []>("square_16")];
            tensor<int32, [2]> reduce_mean_50_axes_0 = const()[name = tensor<string, []>("reduce_mean_50_axes_0"), val = tensor<int32, [2]>([2, 3])];
            tensor<bool, []> reduce_mean_50_keep_dims_0 = const()[name = tensor<string, []>("reduce_mean_50_keep_dims_0"), val = tensor<bool, []>(true)];
            tensor<fp32, [1, 8, 1, 1]> reduce_mean_50 = reduce_mean(axes = reduce_mean_50_axes_0, keep_dims = reduce_mean_50_keep_dims_0, x = square_16)[name = tensor<string, []>("reduce_mean_50")];
            tensor<fp32, []> add_32_y_0 = const()[name = tensor<string, []>("add_32_y_0"), val = tensor<fp32, []>(0x1.4f8b58p-17)];
            tensor<fp32, [1, 8, 1, 1]> add_32 = add(x = reduce_mean_50, y = add_32_y_0)[name = tensor<string, []>("add_32")];
            tensor<fp32, [1, 8, 1, 1]> sqrt_16 = sqrt(x = add_32)[name = tensor<string, []>("sqrt_16")];
            tensor<fp32, [1, 8, 8, ?]> real_div_16 = real_div(x = sub_32, y = sqrt_16)[name = tensor<string, []>("real_div_16")];
            tensor<fp32, [1, 64, ?]> reshape_65 = reshape(shape = shape_16, x = real_div_16)[name = tensor<string, []>("reshape_65")];
            tensor<fp32, [1, 64, 1]> reshape_66 = const()[name = tensor<string, []>("reshape_66"), val = tensor<fp32, [1, 64, 1]>(BLOBFILE(path = tensor<string, []>("@model_path/weights/weight.bin"), offset = tensor<uint64, []>(2779648)))];
            tensor<fp32, [1, 64, ?]> mul_16 = mul(x = reshape_65, y = reshape_66)[name = tensor<string, []>("mul_16")];
            tensor<fp32, [1, 64, 1]> reshape_67 = const()[name = tensor<string, []>("reshape_67"), val = tensor<fp32, [1, 64, 1]>(BLOBFILE(path = tensor<string, []>("@model_path/weights/weight.bin"), offset = tensor<uint64, []>(2779968)))];
            tensor<fp32, [1, 64, ?]> add_33 = add(x = mul_16, y = reshape_67)[name = tensor<string, []>("add_33")];
            tensor<fp32, [1, 64, ?]> input_69 = silu(x = add_33)[name = tensor<string, []>("input_69")];
            tensor<string, []> input_71_pad_type_0 = const()[name = tensor<string, []>("input_71_pad_type_0"), val = tensor<string, []>("custom")];
            tensor<int32, [2]> input_71_pad_0 = const()[name = tensor<string, []>("input_71_pad_0"), val = tensor<int32, [2]>([3, 3])];
            tensor<int32, [1]> input_71_strides_0 = const()[name = tensor<string, []>("input_71_strides_0"), val = tensor<int32, [1]>([1])];
            tensor<int32, [1]> input_71_dilations_0 = const()[name = tensor<string, []>("input_71_dilations_0"), val = tensor<int32, [1]>([1])];
            tensor<int32, []> input_71_groups_0 = const()[name = tensor<string, []>("input_71_groups_0"), val = tensor<int32, []>(1)];
            tensor<fp32, [1, 64, ?]> input_71 = conv(bias = blocks_8_conv2_bias, dilations = input_71_dilations_0, groups = input_71_groups_0, pad = input_71_pad_0, pad_type = input_71_pad_type_0, strides = input_71_strides_0, weight = blocks_8_conv2_weight, x = input_69)[name = tensor<string, []>("input_71")];
            tensor<int32, [3]> shape_17 = shape(x = input_71)[name = tensor<string, []>("shape_17")];
            tensor<int32, [4]> concat_17x = const()[name = tensor<string, []>("concat_17x"), val = tensor<int32, [4]>([1, 8, 8, -1])];
            tensor<fp32, [1, 8, 8, ?]> reshape_68 = reshape(shape = concat_17x, x = input_71)[name = tensor<string, []>("reshape_68")];
            tensor<int32, [2]> reduce_mean_51_axes_0 = const()[name = tensor<string, []>("reduce_mean_51_axes_0"), val = tensor<int32, [2]>([2, 3])];
            tensor<bool, []> reduce_mean_51_keep_dims_0 = const()[name = tensor<string, []>("reduce_mean_51_keep_dims_0"), val = tensor<bool, []>(true)];
            tensor<fp32, [1, 8, 1, 1]> reduce_mean_51 = reduce_mean(axes = reduce_mean_51_axes_0, keep_dims = reduce_mean_51_keep_dims_0, x = reshape_68)[name = tensor<string, []>("reduce_mean_51")];
            tensor<fp32, [1, 8, 8, ?]> sub_34 = sub(x = reshape_68, y = reduce_mean_51)[name = tensor<string, []>("sub_34")];
            tensor<fp32, [1, 8, 8, ?]> square_17 = square(x = sub_34)[name = tensor<string, []>("square_17")];
            tensor<int32, [2]> reduce_mean_53_axes_0 = const()[name = tensor<string, []>("reduce_mean_53_axes_0"), val = tensor<int32, [2]>([2, 3])];
            tensor<bool, []> reduce_mean_53_keep_dims_0 = const()[name = tensor<string, []>("reduce_mean_53_keep_dims_0"), val = tensor<bool, []>(true)];
            tensor<fp32, [1, 8, 1, 1]> reduce_mean_53 = reduce_mean(axes = reduce_mean_53_axes_0, keep_dims = reduce_mean_53_keep_dims_0, x = square_17)[name = tensor<string, []>("reduce_mean_53")];
            tensor<fp32, []> add_34_y_0 = const()[name = tensor<string, []>("add_34_y_0"), val = tensor<fp32, []>(0x1.4f8b58p-17)];
            tensor<fp32, [1, 8, 1, 1]> add_34 = add(x = reduce_mean_53, y = add_34_y_0)[name = tensor<string, []>("add_34")];
            tensor<fp32, [1, 8, 1, 1]> sqrt_17 = sqrt(x = add_34)[name = tensor<string, []>("sqrt_17")];
            tensor<fp32, [1, 8, 8, ?]> real_div_17 = real_div(x = sub_34, y = sqrt_17)[name = tensor<string, []>("real_div_17")];
            tensor<fp32, [1, 64, ?]> reshape_69 = reshape(shape = shape_17, x = real_div_17)[name = tensor<string, []>("reshape_69")];
            tensor<fp32, [1, 64, 1]> reshape_70 = const()[name = tensor<string, []>("reshape_70"), val = tensor<fp32, [1, 64, 1]>(BLOBFILE(path = tensor<string, []>("@model_path/weights/weight.bin"), offset = tensor<uint64, []>(2780288)))];
            tensor<fp32, [1, 64, ?]> mul_17 = mul(x = reshape_69, y = reshape_70)[name = tensor<string, []>("mul_17")];
            tensor<fp32, [1, 64, 1]> reshape_71 = const()[name = tensor<string, []>("reshape_71"), val = tensor<fp32, [1, 64, 1]>(BLOBFILE(path = tensor<string, []>("@model_path/weights/weight.bin"), offset = tensor<uint64, []>(2780608)))];
            tensor<fp32, [1, 64, ?]> add_35 = add(x = mul_17, y = reshape_71)[name = tensor<string, []>("add_35")];
            tensor<fp32, [1, 64, ?]> input_73 = add(x = add_35, y = input_65)[name = tensor<string, []>("input_73")];
            tensor<string, []> input_75_pad_type_0 = const()[name = tensor<string, []>("input_75_pad_type_0"), val = tensor<string, []>("custom")];
            tensor<int32, [2]> input_75_pad_0 = const()[name = tensor<string, []>("input_75_pad_0"), val = tensor<int32, [2]>([3, 3])];
            tensor<int32, [1]> input_75_strides_0 = const()[name = tensor<string, []>("input_75_strides_0"), val = tensor<int32, [1]>([1])];
            tensor<int32, [1]> input_75_dilations_0 = const()[name = tensor<string, []>("input_75_dilations_0"), val = tensor<int32, [1]>([1])];
            tensor<int32, []> input_75_groups_0 = const()[name = tensor<string, []>("input_75_groups_0"), val = tensor<int32, []>(1)];
            tensor<fp32, [1, 64, ?]> input_75 = conv(bias = blocks_9_conv1_bias, dilations = input_75_dilations_0, groups = input_75_groups_0, pad = input_75_pad_0, pad_type = input_75_pad_type_0, strides = input_75_strides_0, weight = blocks_9_conv1_weight, x = input_73)[name = tensor<string, []>("input_75")];
            tensor<int32, [3]> shape_18 = shape(x = input_75)[name = tensor<string, []>("shape_18")];
            tensor<int32, [4]> concat_18x = const()[name = tensor<string, []>("concat_18x"), val = tensor<int32, [4]>([1, 8, 8, -1])];
            tensor<fp32, [1, 8, 8, ?]> reshape_72 = reshape(shape = concat_18x, x = input_75)[name = tensor<string, []>("reshape_72")];
            tensor<int32, [2]> reduce_mean_54_axes_0 = const()[name = tensor<string, []>("reduce_mean_54_axes_0"), val = tensor<int32, [2]>([2, 3])];
            tensor<bool, []> reduce_mean_54_keep_dims_0 = const()[name = tensor<string, []>("reduce_mean_54_keep_dims_0"), val = tensor<bool, []>(true)];
            tensor<fp32, [1, 8, 1, 1]> reduce_mean_54 = reduce_mean(axes = reduce_mean_54_axes_0, keep_dims = reduce_mean_54_keep_dims_0, x = reshape_72)[name = tensor<string, []>("reduce_mean_54")];
            tensor<fp32, [1, 8, 8, ?]> sub_36 = sub(x = reshape_72, y = reduce_mean_54)[name = tensor<string, []>("sub_36")];
            tensor<fp32, [1, 8, 8, ?]> square_18 = square(x = sub_36)[name = tensor<string, []>("square_18")];
            tensor<int32, [2]> reduce_mean_56_axes_0 = const()[name = tensor<string, []>("reduce_mean_56_axes_0"), val = tensor<int32, [2]>([2, 3])];
            tensor<bool, []> reduce_mean_56_keep_dims_0 = const()[name = tensor<string, []>("reduce_mean_56_keep_dims_0"), val = tensor<bool, []>(true)];
            tensor<fp32, [1, 8, 1, 1]> reduce_mean_56 = reduce_mean(axes = reduce_mean_56_axes_0, keep_dims = reduce_mean_56_keep_dims_0, x = square_18)[name = tensor<string, []>("reduce_mean_56")];
            tensor<fp32, []> add_36_y_0 = const()[name = tensor<string, []>("add_36_y_0"), val = tensor<fp32, []>(0x1.4f8b58p-17)];
            tensor<fp32, [1, 8, 1, 1]> add_36 = add(x = reduce_mean_56, y = add_36_y_0)[name = tensor<string, []>("add_36")];
            tensor<fp32, [1, 8, 1, 1]> sqrt_18 = sqrt(x = add_36)[name = tensor<string, []>("sqrt_18")];
            tensor<fp32, [1, 8, 8, ?]> real_div_18 = real_div(x = sub_36, y = sqrt_18)[name = tensor<string, []>("real_div_18")];
            tensor<fp32, [1, 64, ?]> reshape_73 = reshape(shape = shape_18, x = real_div_18)[name = tensor<string, []>("reshape_73")];
            tensor<fp32, [1, 64, 1]> reshape_74 = const()[name = tensor<string, []>("reshape_74"), val = tensor<fp32, [1, 64, 1]>(BLOBFILE(path = tensor<string, []>("@model_path/weights/weight.bin"), offset = tensor<uint64, []>(2780928)))];
            tensor<fp32, [1, 64, ?]> mul_18 = mul(x = reshape_73, y = reshape_74)[name = tensor<string, []>("mul_18")];
            tensor<fp32, [1, 64, 1]> reshape_75 = const()[name = tensor<string, []>("reshape_75"), val = tensor<fp32, [1, 64, 1]>(BLOBFILE(path = tensor<string, []>("@model_path/weights/weight.bin"), offset = tensor<uint64, []>(2781248)))];
            tensor<fp32, [1, 64, ?]> add_37 = add(x = mul_18, y = reshape_75)[name = tensor<string, []>("add_37")];
            tensor<fp32, [1, 64, ?]> input_77 = silu(x = add_37)[name = tensor<string, []>("input_77")];
            tensor<string, []> input_79_pad_type_0 = const()[name = tensor<string, []>("input_79_pad_type_0"), val = tensor<string, []>("custom")];
            tensor<int32, [2]> input_79_pad_0 = const()[name = tensor<string, []>("input_79_pad_0"), val = tensor<int32, [2]>([3, 3])];
            tensor<int32, [1]> input_79_strides_0 = const()[name = tensor<string, []>("input_79_strides_0"), val = tensor<int32, [1]>([1])];
            tensor<int32, [1]> input_79_dilations_0 = const()[name = tensor<string, []>("input_79_dilations_0"), val = tensor<int32, [1]>([1])];
            tensor<int32, []> input_79_groups_0 = const()[name = tensor<string, []>("input_79_groups_0"), val = tensor<int32, []>(1)];
            tensor<fp32, [1, 64, ?]> input_79 = conv(bias = blocks_9_conv2_bias, dilations = input_79_dilations_0, groups = input_79_groups_0, pad = input_79_pad_0, pad_type = input_79_pad_type_0, strides = input_79_strides_0, weight = blocks_9_conv2_weight, x = input_77)[name = tensor<string, []>("input_79")];
            tensor<int32, [3]> shape_19 = shape(x = input_79)[name = tensor<string, []>("shape_19")];
            tensor<int32, [4]> concat_19x = const()[name = tensor<string, []>("concat_19x"), val = tensor<int32, [4]>([1, 8, 8, -1])];
            tensor<fp32, [1, 8, 8, ?]> reshape_76 = reshape(shape = concat_19x, x = input_79)[name = tensor<string, []>("reshape_76")];
            tensor<int32, [2]> reduce_mean_57_axes_0 = const()[name = tensor<string, []>("reduce_mean_57_axes_0"), val = tensor<int32, [2]>([2, 3])];
            tensor<bool, []> reduce_mean_57_keep_dims_0 = const()[name = tensor<string, []>("reduce_mean_57_keep_dims_0"), val = tensor<bool, []>(true)];
            tensor<fp32, [1, 8, 1, 1]> reduce_mean_57 = reduce_mean(axes = reduce_mean_57_axes_0, keep_dims = reduce_mean_57_keep_dims_0, x = reshape_76)[name = tensor<string, []>("reduce_mean_57")];
            tensor<fp32, [1, 8, 8, ?]> sub_38 = sub(x = reshape_76, y = reduce_mean_57)[name = tensor<string, []>("sub_38")];
            tensor<fp32, [1, 8, 8, ?]> square_19 = square(x = sub_38)[name = tensor<string, []>("square_19")];
            tensor<int32, [2]> reduce_mean_59_axes_0 = const()[name = tensor<string, []>("reduce_mean_59_axes_0"), val = tensor<int32, [2]>([2, 3])];
            tensor<bool, []> reduce_mean_59_keep_dims_0 = const()[name = tensor<string, []>("reduce_mean_59_keep_dims_0"), val = tensor<bool, []>(true)];
            tensor<fp32, [1, 8, 1, 1]> reduce_mean_59 = reduce_mean(axes = reduce_mean_59_axes_0, keep_dims = reduce_mean_59_keep_dims_0, x = square_19)[name = tensor<string, []>("reduce_mean_59")];
            tensor<fp32, []> add_38_y_0 = const()[name = tensor<string, []>("add_38_y_0"), val = tensor<fp32, []>(0x1.4f8b58p-17)];
            tensor<fp32, [1, 8, 1, 1]> add_38 = add(x = reduce_mean_59, y = add_38_y_0)[name = tensor<string, []>("add_38")];
            tensor<fp32, [1, 8, 1, 1]> sqrt_19 = sqrt(x = add_38)[name = tensor<string, []>("sqrt_19")];
            tensor<fp32, [1, 8, 8, ?]> real_div_19 = real_div(x = sub_38, y = sqrt_19)[name = tensor<string, []>("real_div_19")];
            tensor<fp32, [1, 64, ?]> reshape_77 = reshape(shape = shape_19, x = real_div_19)[name = tensor<string, []>("reshape_77")];
            tensor<fp32, [1, 64, 1]> reshape_78 = const()[name = tensor<string, []>("reshape_78"), val = tensor<fp32, [1, 64, 1]>(BLOBFILE(path = tensor<string, []>("@model_path/weights/weight.bin"), offset = tensor<uint64, []>(2781568)))];
            tensor<fp32, [1, 64, ?]> mul_19 = mul(x = reshape_77, y = reshape_78)[name = tensor<string, []>("mul_19")];
            tensor<fp32, [1, 64, 1]> reshape_79 = const()[name = tensor<string, []>("reshape_79"), val = tensor<fp32, [1, 64, 1]>(BLOBFILE(path = tensor<string, []>("@model_path/weights/weight.bin"), offset = tensor<uint64, []>(2781888)))];
            tensor<fp32, [1, 64, ?]> add_39 = add(x = mul_19, y = reshape_79)[name = tensor<string, []>("add_39")];
            tensor<fp32, [1, 64, ?]> input_81 = add(x = add_39, y = input_73)[name = tensor<string, []>("input_81")];
            tensor<string, []> input_83_pad_type_0 = const()[name = tensor<string, []>("input_83_pad_type_0"), val = tensor<string, []>("custom")];
            tensor<int32, [2]> input_83_pad_0 = const()[name = tensor<string, []>("input_83_pad_0"), val = tensor<int32, [2]>([3, 3])];
            tensor<int32, [1]> input_83_strides_0 = const()[name = tensor<string, []>("input_83_strides_0"), val = tensor<int32, [1]>([1])];
            tensor<int32, [1]> input_83_dilations_0 = const()[name = tensor<string, []>("input_83_dilations_0"), val = tensor<int32, [1]>([1])];
            tensor<int32, []> input_83_groups_0 = const()[name = tensor<string, []>("input_83_groups_0"), val = tensor<int32, []>(1)];
            tensor<fp32, [1, 64, ?]> input_83 = conv(bias = blocks_10_conv1_bias, dilations = input_83_dilations_0, groups = input_83_groups_0, pad = input_83_pad_0, pad_type = input_83_pad_type_0, strides = input_83_strides_0, weight = blocks_10_conv1_weight, x = input_81)[name = tensor<string, []>("input_83")];
            tensor<int32, [3]> shape_20 = shape(x = input_83)[name = tensor<string, []>("shape_20")];
            tensor<int32, [4]> concat_20x = const()[name = tensor<string, []>("concat_20x"), val = tensor<int32, [4]>([1, 8, 8, -1])];
            tensor<fp32, [1, 8, 8, ?]> reshape_80 = reshape(shape = concat_20x, x = input_83)[name = tensor<string, []>("reshape_80")];
            tensor<int32, [2]> reduce_mean_60_axes_0 = const()[name = tensor<string, []>("reduce_mean_60_axes_0"), val = tensor<int32, [2]>([2, 3])];
            tensor<bool, []> reduce_mean_60_keep_dims_0 = const()[name = tensor<string, []>("reduce_mean_60_keep_dims_0"), val = tensor<bool, []>(true)];
            tensor<fp32, [1, 8, 1, 1]> reduce_mean_60 = reduce_mean(axes = reduce_mean_60_axes_0, keep_dims = reduce_mean_60_keep_dims_0, x = reshape_80)[name = tensor<string, []>("reduce_mean_60")];
            tensor<fp32, [1, 8, 8, ?]> sub_40 = sub(x = reshape_80, y = reduce_mean_60)[name = tensor<string, []>("sub_40")];
            tensor<fp32, [1, 8, 8, ?]> square_20 = square(x = sub_40)[name = tensor<string, []>("square_20")];
            tensor<int32, [2]> reduce_mean_62_axes_0 = const()[name = tensor<string, []>("reduce_mean_62_axes_0"), val = tensor<int32, [2]>([2, 3])];
            tensor<bool, []> reduce_mean_62_keep_dims_0 = const()[name = tensor<string, []>("reduce_mean_62_keep_dims_0"), val = tensor<bool, []>(true)];
            tensor<fp32, [1, 8, 1, 1]> reduce_mean_62 = reduce_mean(axes = reduce_mean_62_axes_0, keep_dims = reduce_mean_62_keep_dims_0, x = square_20)[name = tensor<string, []>("reduce_mean_62")];
            tensor<fp32, []> add_40_y_0 = const()[name = tensor<string, []>("add_40_y_0"), val = tensor<fp32, []>(0x1.4f8b58p-17)];
            tensor<fp32, [1, 8, 1, 1]> add_40 = add(x = reduce_mean_62, y = add_40_y_0)[name = tensor<string, []>("add_40")];
            tensor<fp32, [1, 8, 1, 1]> sqrt_20 = sqrt(x = add_40)[name = tensor<string, []>("sqrt_20")];
            tensor<fp32, [1, 8, 8, ?]> real_div_20 = real_div(x = sub_40, y = sqrt_20)[name = tensor<string, []>("real_div_20")];
            tensor<fp32, [1, 64, ?]> reshape_81 = reshape(shape = shape_20, x = real_div_20)[name = tensor<string, []>("reshape_81")];
            tensor<fp32, [1, 64, 1]> reshape_82 = const()[name = tensor<string, []>("reshape_82"), val = tensor<fp32, [1, 64, 1]>(BLOBFILE(path = tensor<string, []>("@model_path/weights/weight.bin"), offset = tensor<uint64, []>(2782208)))];
            tensor<fp32, [1, 64, ?]> mul_20 = mul(x = reshape_81, y = reshape_82)[name = tensor<string, []>("mul_20")];
            tensor<fp32, [1, 64, 1]> reshape_83 = const()[name = tensor<string, []>("reshape_83"), val = tensor<fp32, [1, 64, 1]>(BLOBFILE(path = tensor<string, []>("@model_path/weights/weight.bin"), offset = tensor<uint64, []>(2782528)))];
            tensor<fp32, [1, 64, ?]> add_41 = add(x = mul_20, y = reshape_83)[name = tensor<string, []>("add_41")];
            tensor<fp32, [1, 64, ?]> input_85 = silu(x = add_41)[name = tensor<string, []>("input_85")];
            tensor<string, []> input_87_pad_type_0 = const()[name = tensor<string, []>("input_87_pad_type_0"), val = tensor<string, []>("custom")];
            tensor<int32, [2]> input_87_pad_0 = const()[name = tensor<string, []>("input_87_pad_0"), val = tensor<int32, [2]>([3, 3])];
            tensor<int32, [1]> input_87_strides_0 = const()[name = tensor<string, []>("input_87_strides_0"), val = tensor<int32, [1]>([1])];
            tensor<int32, [1]> input_87_dilations_0 = const()[name = tensor<string, []>("input_87_dilations_0"), val = tensor<int32, [1]>([1])];
            tensor<int32, []> input_87_groups_0 = const()[name = tensor<string, []>("input_87_groups_0"), val = tensor<int32, []>(1)];
            tensor<fp32, [1, 64, ?]> input_87 = conv(bias = blocks_10_conv2_bias, dilations = input_87_dilations_0, groups = input_87_groups_0, pad = input_87_pad_0, pad_type = input_87_pad_type_0, strides = input_87_strides_0, weight = blocks_10_conv2_weight, x = input_85)[name = tensor<string, []>("input_87")];
            tensor<int32, [3]> shape_21 = shape(x = input_87)[name = tensor<string, []>("shape_21")];
            tensor<int32, [4]> concat_21x = const()[name = tensor<string, []>("concat_21x"), val = tensor<int32, [4]>([1, 8, 8, -1])];
            tensor<fp32, [1, 8, 8, ?]> reshape_84 = reshape(shape = concat_21x, x = input_87)[name = tensor<string, []>("reshape_84")];
            tensor<int32, [2]> reduce_mean_63_axes_0 = const()[name = tensor<string, []>("reduce_mean_63_axes_0"), val = tensor<int32, [2]>([2, 3])];
            tensor<bool, []> reduce_mean_63_keep_dims_0 = const()[name = tensor<string, []>("reduce_mean_63_keep_dims_0"), val = tensor<bool, []>(true)];
            tensor<fp32, [1, 8, 1, 1]> reduce_mean_63 = reduce_mean(axes = reduce_mean_63_axes_0, keep_dims = reduce_mean_63_keep_dims_0, x = reshape_84)[name = tensor<string, []>("reduce_mean_63")];
            tensor<fp32, [1, 8, 8, ?]> sub_42 = sub(x = reshape_84, y = reduce_mean_63)[name = tensor<string, []>("sub_42")];
            tensor<fp32, [1, 8, 8, ?]> square_21 = square(x = sub_42)[name = tensor<string, []>("square_21")];
            tensor<int32, [2]> reduce_mean_65_axes_0 = const()[name = tensor<string, []>("reduce_mean_65_axes_0"), val = tensor<int32, [2]>([2, 3])];
            tensor<bool, []> reduce_mean_65_keep_dims_0 = const()[name = tensor<string, []>("reduce_mean_65_keep_dims_0"), val = tensor<bool, []>(true)];
            tensor<fp32, [1, 8, 1, 1]> reduce_mean_65 = reduce_mean(axes = reduce_mean_65_axes_0, keep_dims = reduce_mean_65_keep_dims_0, x = square_21)[name = tensor<string, []>("reduce_mean_65")];
            tensor<fp32, []> add_42_y_0 = const()[name = tensor<string, []>("add_42_y_0"), val = tensor<fp32, []>(0x1.4f8b58p-17)];
            tensor<fp32, [1, 8, 1, 1]> add_42 = add(x = reduce_mean_65, y = add_42_y_0)[name = tensor<string, []>("add_42")];
            tensor<fp32, [1, 8, 1, 1]> sqrt_21 = sqrt(x = add_42)[name = tensor<string, []>("sqrt_21")];
            tensor<fp32, [1, 8, 8, ?]> real_div_21 = real_div(x = sub_42, y = sqrt_21)[name = tensor<string, []>("real_div_21")];
            tensor<fp32, [1, 64, ?]> reshape_85 = reshape(shape = shape_21, x = real_div_21)[name = tensor<string, []>("reshape_85")];
            tensor<fp32, [1, 64, 1]> reshape_86 = const()[name = tensor<string, []>("reshape_86"), val = tensor<fp32, [1, 64, 1]>(BLOBFILE(path = tensor<string, []>("@model_path/weights/weight.bin"), offset = tensor<uint64, []>(2782848)))];
            tensor<fp32, [1, 64, ?]> mul_21 = mul(x = reshape_85, y = reshape_86)[name = tensor<string, []>("mul_21")];
            tensor<fp32, [1, 64, 1]> reshape_87 = const()[name = tensor<string, []>("reshape_87"), val = tensor<fp32, [1, 64, 1]>(BLOBFILE(path = tensor<string, []>("@model_path/weights/weight.bin"), offset = tensor<uint64, []>(2783168)))];
            tensor<fp32, [1, 64, ?]> add_43 = add(x = mul_21, y = reshape_87)[name = tensor<string, []>("add_43")];
            tensor<fp32, [1, 64, ?]> input_89 = add(x = add_43, y = input_81)[name = tensor<string, []>("input_89")];
            tensor<string, []> input_91_pad_type_0 = const()[name = tensor<string, []>("input_91_pad_type_0"), val = tensor<string, []>("custom")];
            tensor<int32, [2]> input_91_pad_0 = const()[name = tensor<string, []>("input_91_pad_0"), val = tensor<int32, [2]>([3, 3])];
            tensor<int32, [1]> input_91_strides_0 = const()[name = tensor<string, []>("input_91_strides_0"), val = tensor<int32, [1]>([1])];
            tensor<int32, [1]> input_91_dilations_0 = const()[name = tensor<string, []>("input_91_dilations_0"), val = tensor<int32, [1]>([1])];
            tensor<int32, []> input_91_groups_0 = const()[name = tensor<string, []>("input_91_groups_0"), val = tensor<int32, []>(1)];
            tensor<fp32, [1, 64, ?]> input_91 = conv(bias = blocks_11_conv1_bias, dilations = input_91_dilations_0, groups = input_91_groups_0, pad = input_91_pad_0, pad_type = input_91_pad_type_0, strides = input_91_strides_0, weight = blocks_11_conv1_weight, x = input_89)[name = tensor<string, []>("input_91")];
            tensor<int32, [3]> shape_22 = shape(x = input_91)[name = tensor<string, []>("shape_22")];
            tensor<int32, [4]> concat_22x = const()[name = tensor<string, []>("concat_22x"), val = tensor<int32, [4]>([1, 8, 8, -1])];
            tensor<fp32, [1, 8, 8, ?]> reshape_88 = reshape(shape = concat_22x, x = input_91)[name = tensor<string, []>("reshape_88")];
            tensor<int32, [2]> reduce_mean_66_axes_0 = const()[name = tensor<string, []>("reduce_mean_66_axes_0"), val = tensor<int32, [2]>([2, 3])];
            tensor<bool, []> reduce_mean_66_keep_dims_0 = const()[name = tensor<string, []>("reduce_mean_66_keep_dims_0"), val = tensor<bool, []>(true)];
            tensor<fp32, [1, 8, 1, 1]> reduce_mean_66 = reduce_mean(axes = reduce_mean_66_axes_0, keep_dims = reduce_mean_66_keep_dims_0, x = reshape_88)[name = tensor<string, []>("reduce_mean_66")];
            tensor<fp32, [1, 8, 8, ?]> sub_44 = sub(x = reshape_88, y = reduce_mean_66)[name = tensor<string, []>("sub_44")];
            tensor<fp32, [1, 8, 8, ?]> square_22 = square(x = sub_44)[name = tensor<string, []>("square_22")];
            tensor<int32, [2]> reduce_mean_68_axes_0 = const()[name = tensor<string, []>("reduce_mean_68_axes_0"), val = tensor<int32, [2]>([2, 3])];
            tensor<bool, []> reduce_mean_68_keep_dims_0 = const()[name = tensor<string, []>("reduce_mean_68_keep_dims_0"), val = tensor<bool, []>(true)];
            tensor<fp32, [1, 8, 1, 1]> reduce_mean_68 = reduce_mean(axes = reduce_mean_68_axes_0, keep_dims = reduce_mean_68_keep_dims_0, x = square_22)[name = tensor<string, []>("reduce_mean_68")];
            tensor<fp32, []> add_44_y_0 = const()[name = tensor<string, []>("add_44_y_0"), val = tensor<fp32, []>(0x1.4f8b58p-17)];
            tensor<fp32, [1, 8, 1, 1]> add_44 = add(x = reduce_mean_68, y = add_44_y_0)[name = tensor<string, []>("add_44")];
            tensor<fp32, [1, 8, 1, 1]> sqrt_22 = sqrt(x = add_44)[name = tensor<string, []>("sqrt_22")];
            tensor<fp32, [1, 8, 8, ?]> real_div_22 = real_div(x = sub_44, y = sqrt_22)[name = tensor<string, []>("real_div_22")];
            tensor<fp32, [1, 64, ?]> reshape_89 = reshape(shape = shape_22, x = real_div_22)[name = tensor<string, []>("reshape_89")];
            tensor<fp32, [1, 64, 1]> reshape_90 = const()[name = tensor<string, []>("reshape_90"), val = tensor<fp32, [1, 64, 1]>(BLOBFILE(path = tensor<string, []>("@model_path/weights/weight.bin"), offset = tensor<uint64, []>(2783488)))];
            tensor<fp32, [1, 64, ?]> mul_22 = mul(x = reshape_89, y = reshape_90)[name = tensor<string, []>("mul_22")];
            tensor<fp32, [1, 64, 1]> reshape_91 = const()[name = tensor<string, []>("reshape_91"), val = tensor<fp32, [1, 64, 1]>(BLOBFILE(path = tensor<string, []>("@model_path/weights/weight.bin"), offset = tensor<uint64, []>(2783808)))];
            tensor<fp32, [1, 64, ?]> add_45 = add(x = mul_22, y = reshape_91)[name = tensor<string, []>("add_45")];
            tensor<fp32, [1, 64, ?]> input_93 = silu(x = add_45)[name = tensor<string, []>("input_93")];
            tensor<string, []> input_95_pad_type_0 = const()[name = tensor<string, []>("input_95_pad_type_0"), val = tensor<string, []>("custom")];
            tensor<int32, [2]> input_95_pad_0 = const()[name = tensor<string, []>("input_95_pad_0"), val = tensor<int32, [2]>([3, 3])];
            tensor<int32, [1]> input_95_strides_0 = const()[name = tensor<string, []>("input_95_strides_0"), val = tensor<int32, [1]>([1])];
            tensor<int32, [1]> input_95_dilations_0 = const()[name = tensor<string, []>("input_95_dilations_0"), val = tensor<int32, [1]>([1])];
            tensor<int32, []> input_95_groups_0 = const()[name = tensor<string, []>("input_95_groups_0"), val = tensor<int32, []>(1)];
            tensor<fp32, [1, 64, ?]> input_95 = conv(bias = blocks_11_conv2_bias, dilations = input_95_dilations_0, groups = input_95_groups_0, pad = input_95_pad_0, pad_type = input_95_pad_type_0, strides = input_95_strides_0, weight = blocks_11_conv2_weight, x = input_93)[name = tensor<string, []>("input_95")];
            tensor<int32, [3]> shape_23 = shape(x = input_95)[name = tensor<string, []>("shape_23")];
            tensor<int32, [4]> concat_23x = const()[name = tensor<string, []>("concat_23x"), val = tensor<int32, [4]>([1, 8, 8, -1])];
            tensor<fp32, [1, 8, 8, ?]> reshape_92 = reshape(shape = concat_23x, x = input_95)[name = tensor<string, []>("reshape_92")];
            tensor<int32, [2]> reduce_mean_69_axes_0 = const()[name = tensor<string, []>("reduce_mean_69_axes_0"), val = tensor<int32, [2]>([2, 3])];
            tensor<bool, []> reduce_mean_69_keep_dims_0 = const()[name = tensor<string, []>("reduce_mean_69_keep_dims_0"), val = tensor<bool, []>(true)];
            tensor<fp32, [1, 8, 1, 1]> reduce_mean_69 = reduce_mean(axes = reduce_mean_69_axes_0, keep_dims = reduce_mean_69_keep_dims_0, x = reshape_92)[name = tensor<string, []>("reduce_mean_69")];
            tensor<fp32, [1, 8, 8, ?]> sub_46 = sub(x = reshape_92, y = reduce_mean_69)[name = tensor<string, []>("sub_46")];
            tensor<fp32, [1, 8, 8, ?]> square_23 = square(x = sub_46)[name = tensor<string, []>("square_23")];
            tensor<int32, [2]> reduce_mean_71_axes_0 = const()[name = tensor<string, []>("reduce_mean_71_axes_0"), val = tensor<int32, [2]>([2, 3])];
            tensor<bool, []> reduce_mean_71_keep_dims_0 = const()[name = tensor<string, []>("reduce_mean_71_keep_dims_0"), val = tensor<bool, []>(true)];
            tensor<fp32, [1, 8, 1, 1]> reduce_mean_71 = reduce_mean(axes = reduce_mean_71_axes_0, keep_dims = reduce_mean_71_keep_dims_0, x = square_23)[name = tensor<string, []>("reduce_mean_71")];
            tensor<fp32, []> add_46_y_0 = const()[name = tensor<string, []>("add_46_y_0"), val = tensor<fp32, []>(0x1.4f8b58p-17)];
            tensor<fp32, [1, 8, 1, 1]> add_46 = add(x = reduce_mean_71, y = add_46_y_0)[name = tensor<string, []>("add_46")];
            tensor<fp32, [1, 8, 1, 1]> sqrt_23 = sqrt(x = add_46)[name = tensor<string, []>("sqrt_23")];
            tensor<fp32, [1, 8, 8, ?]> real_div_23 = real_div(x = sub_46, y = sqrt_23)[name = tensor<string, []>("real_div_23")];
            tensor<fp32, [1, 64, ?]> reshape_93 = reshape(shape = shape_23, x = real_div_23)[name = tensor<string, []>("reshape_93")];
            tensor<fp32, [1, 64, 1]> reshape_94 = const()[name = tensor<string, []>("reshape_94"), val = tensor<fp32, [1, 64, 1]>(BLOBFILE(path = tensor<string, []>("@model_path/weights/weight.bin"), offset = tensor<uint64, []>(2784128)))];
            tensor<fp32, [1, 64, ?]> mul_23 = mul(x = reshape_93, y = reshape_94)[name = tensor<string, []>("mul_23")];
            tensor<fp32, [1, 64, 1]> reshape_95 = const()[name = tensor<string, []>("reshape_95"), val = tensor<fp32, [1, 64, 1]>(BLOBFILE(path = tensor<string, []>("@model_path/weights/weight.bin"), offset = tensor<uint64, []>(2784448)))];
            tensor<fp32, [1, 64, ?]> add_47 = add(x = mul_23, y = reshape_95)[name = tensor<string, []>("add_47")];
            tensor<fp32, [1, 64, ?]> input = add(x = add_47, y = input_89)[name = tensor<string, []>("input")];
            tensor<string, []> out_pad_type_0 = const()[name = tensor<string, []>("out_pad_type_0"), val = tensor<string, []>("custom")];
            tensor<int32, [2]> out_pad_0 = const()[name = tensor<string, []>("out_pad_0"), val = tensor<int32, [2]>([3, 3])];
            tensor<int32, [1]> out_strides_0 = const()[name = tensor<string, []>("out_strides_0"), val = tensor<int32, [1]>([1])];
            tensor<int32, [1]> out_dilations_0 = const()[name = tensor<string, []>("out_dilations_0"), val = tensor<int32, [1]>([1])];
            tensor<int32, []> out_groups_0 = const()[name = tensor<string, []>("out_groups_0"), val = tensor<int32, []>(1)];
            tensor<fp32, [1, 2, ?]> out = conv(bias = output_proj_bias, dilations = out_dilations_0, groups = out_groups_0, pad = out_pad_0, pad_type = out_pad_type_0, strides = out_strides_0, weight = output_proj_weight, x = input)[name = tensor<string, []>("out")];
            tensor<fp32, [1, 2, ?]> var_461 = mul(x = audio_in, y = residual_scale)[name = tensor<string, []>("op_461")];
            tensor<fp32, [1, 2, ?]> audio_out = add(x = var_461, y = out)[name = tensor<string, []>("op_463")];
        } -> (audio_out);
}